def @main(%input: Tensor[(1, 3, 128, 128), int8], %v0_weight: Tensor[(16, 3, 3, 3), int8], %v0_bias: Tensor[(16), int32], %v0_zero_x: Tensor[(1), int8], %v0_zero_y: Tensor[(1), int8], %v0_scale: Tensor[(16), float32], %v1_conv_0_weight: Tensor[(16, 1, 3, 3), int8], %v1_conv_0_bias: Tensor[(16), int32], %v1_conv_0_zero_x: Tensor[(1), int8], %v1_conv_0_zero_y: Tensor[(1), int8], %v1_conv_0_scale: Tensor[(16), float32], %v1_conv_1_weight: Tensor[(8, 16, 1, 1), int8], %v1_conv_1_bias: Tensor[(8), int32], %v1_conv_1_zero_x: Tensor[(1), int8], %v1_conv_1_zero_y: Tensor[(1), int8], %v1_conv_1_scale: Tensor[(8), float32], %v2_conv_0_weight: Tensor[(48, 8, 1, 1), int8], %v2_conv_0_bias: Tensor[(48), int32], %v2_conv_0_zero_x: Tensor[(1), int8], %v2_conv_0_zero_y: Tensor[(1), int8], %v2_conv_0_scale: Tensor[(48), float32], %v2_conv_1_weight: Tensor[(48, 1, 3, 3), int8], %v2_conv_1_bias: Tensor[(48), int32], %v2_conv_1_zero_x: Tensor[(1), int8], %v2_conv_1_zero_y: Tensor[(1), int8], %v2_conv_1_scale: Tensor[(48), float32], %v2_conv_2_weight: Tensor[(8, 48, 1, 1), int8], %v2_conv_2_bias: Tensor[(8), int32], %v2_conv_2_zero_x: Tensor[(1), int8], %v2_conv_2_zero_y: Tensor[(1), int8], %v2_conv_2_scale: Tensor[(8), float32], %v3_conv_0_weight: Tensor[(48, 8, 1, 1), int8], %v3_conv_0_bias: Tensor[(48), int32], %v3_conv_0_zero_x: Tensor[(1), int8], %v3_conv_0_zero_y: Tensor[(1), int8], %v3_conv_0_scale: Tensor[(48), float32], %v3_conv_1_weight: Tensor[(48, 1, 3, 3), int8], %v3_conv_1_bias: Tensor[(48), int32], %v3_conv_1_zero_x: Tensor[(1), int8], %v3_conv_1_zero_y: Tensor[(1), int8], %v3_conv_1_scale: Tensor[(48), float32], %v3_conv_2_weight: Tensor[(8, 48, 1, 1), int8], %v3_conv_2_bias: Tensor[(8), int32], %v3_conv_2_zero_x: Tensor[(1), int8], %v3_conv_2_zero_y: Tensor[(1), int8], %v3_conv_2_scale: Tensor[(8), float32], %v3_qadd_zero_x1: Tensor[(1), int8], %v3_qadd_zero_x2: Tensor[(1), int8], %v3_qadd_scale_x1: Tensor[(1), float32], %v3_qadd_scale_x2: Tensor[(1), float32], %v3_qadd_zero_y: Tensor[(1), int8], %v3_qadd_scale_y: Tensor[(1), float32], %v4_conv_0_weight: Tensor[(48, 8, 1, 1), int8], %v4_conv_0_bias: Tensor[(48), int32], %v4_conv_0_zero_x: Tensor[(1), int8], %v4_conv_0_zero_y: Tensor[(1), int8], %v4_conv_0_scale: Tensor[(48), float32], %v4_conv_1_weight: Tensor[(48, 1, 3, 3), int8], %v4_conv_1_bias: Tensor[(48), int32], %v4_conv_1_zero_x: Tensor[(1), int8], %v4_conv_1_zero_y: Tensor[(1), int8], %v4_conv_1_scale: Tensor[(48), float32], %v4_conv_2_weight: Tensor[(16, 48, 1, 1), int8], %v4_conv_2_bias: Tensor[(16), int32], %v4_conv_2_zero_x: Tensor[(1), int8], %v4_conv_2_zero_y: Tensor[(1), int8], %v4_conv_2_scale: Tensor[(16), float32], %v5_conv_0_weight: Tensor[(96, 16, 1, 1), int8], %v5_conv_0_bias: Tensor[(96), int32], %v5_conv_0_zero_x: Tensor[(1), int8], %v5_conv_0_zero_y: Tensor[(1), int8], %v5_conv_0_scale: Tensor[(96), float32], %v5_conv_1_weight: Tensor[(96, 1, 3, 3), int8], %v5_conv_1_bias: Tensor[(96), int32], %v5_conv_1_zero_x: Tensor[(1), int8], %v5_conv_1_zero_y: Tensor[(1), int8], %v5_conv_1_scale: Tensor[(96), float32], %v5_conv_2_weight: Tensor[(16, 96, 1, 1), int8], %v5_conv_2_bias: Tensor[(16), int32], %v5_conv_2_zero_x: Tensor[(1), int8], %v5_conv_2_zero_y: Tensor[(1), int8], %v5_conv_2_scale: Tensor[(16), float32], %v5_qadd_zero_x1: Tensor[(1), int8], %v5_qadd_zero_x2: Tensor[(1), int8], %v5_qadd_scale_x1: Tensor[(1), float32], %v5_qadd_scale_x2: Tensor[(1), float32], %v5_qadd_zero_y: Tensor[(1), int8], %v5_qadd_scale_y: Tensor[(1), float32], %v6_conv_0_weight: Tensor[(96, 16, 1, 1), int8], %v6_conv_0_bias: Tensor[(96), int32], %v6_conv_0_zero_x: Tensor[(1), int8], %v6_conv_0_zero_y: Tensor[(1), int8], %v6_conv_0_scale: Tensor[(96), float32], %v6_conv_1_weight: Tensor[(96, 1, 3, 3), int8], %v6_conv_1_bias: Tensor[(96), int32], %v6_conv_1_zero_x: Tensor[(1), int8], %v6_conv_1_zero_y: Tensor[(1), int8], %v6_conv_1_scale: Tensor[(96), float32], %v6_conv_2_weight: Tensor[(16, 96, 1, 1), int8], %v6_conv_2_bias: Tensor[(16), int32], %v6_conv_2_zero_x: Tensor[(1), int8], %v6_conv_2_zero_y: Tensor[(1), int8], %v6_conv_2_scale: Tensor[(16), float32], %v6_qadd_zero_x1: Tensor[(1), int8], %v6_qadd_zero_x2: Tensor[(1), int8], %v6_qadd_scale_x1: Tensor[(1), float32], %v6_qadd_scale_x2: Tensor[(1), float32], %v6_qadd_zero_y: Tensor[(1), int8], %v6_qadd_scale_y: Tensor[(1), float32], %v7_conv_0_weight: Tensor[(96, 16, 1, 1), int8], %v7_conv_0_bias: Tensor[(96), int32], %v7_conv_0_zero_x: Tensor[(1), int8], %v7_conv_0_zero_y: Tensor[(1), int8], %v7_conv_0_scale: Tensor[(96), float32], %v7_conv_1_weight: Tensor[(96, 1, 3, 3), int8], %v7_conv_1_bias: Tensor[(96), int32], %v7_conv_1_zero_x: Tensor[(1), int8], %v7_conv_1_zero_y: Tensor[(1), int8], %v7_conv_1_scale: Tensor[(96), float32], %v7_conv_2_weight: Tensor[(24, 96, 1, 1), int8], %v7_conv_2_bias: Tensor[(24), int32], %v7_conv_2_zero_x: Tensor[(1), int8], %v7_conv_2_zero_y: Tensor[(1), int8], %v7_conv_2_scale: Tensor[(24), float32], %v8_conv_0_weight: Tensor[(144, 24, 1, 1), int8], %v8_conv_0_bias: Tensor[(144), int32], %v8_conv_0_zero_x: Tensor[(1), int8], %v8_conv_0_zero_y: Tensor[(1), int8], %v8_conv_0_scale: Tensor[(144), float32], %v8_conv_1_weight: Tensor[(144, 1, 3, 3), int8], %v8_conv_1_bias: Tensor[(144), int32], %v8_conv_1_zero_x: Tensor[(1), int8], %v8_conv_1_zero_y: Tensor[(1), int8], %v8_conv_1_scale: Tensor[(144), float32], %v8_conv_2_weight: Tensor[(24, 144, 1, 1), int8], %v8_conv_2_bias: Tensor[(24), int32], %v8_conv_2_zero_x: Tensor[(1), int8], %v8_conv_2_zero_y: Tensor[(1), int8], %v8_conv_2_scale: Tensor[(24), float32], %v8_qadd_zero_x1: Tensor[(1), int8], %v8_qadd_zero_x2: Tensor[(1), int8], %v8_qadd_scale_x1: Tensor[(1), float32], %v8_qadd_scale_x2: Tensor[(1), float32], %v8_qadd_zero_y: Tensor[(1), int8], %v8_qadd_scale_y: Tensor[(1), float32], %v9_conv_0_weight: Tensor[(144, 24, 1, 1), int8], %v9_conv_0_bias: Tensor[(144), int32], %v9_conv_0_zero_x: Tensor[(1), int8], %v9_conv_0_zero_y: Tensor[(1), int8], %v9_conv_0_scale: Tensor[(144), float32], %v9_conv_1_weight: Tensor[(144, 1, 3, 3), int8], %v9_conv_1_bias: Tensor[(144), int32], %v9_conv_1_zero_x: Tensor[(1), int8], %v9_conv_1_zero_y: Tensor[(1), int8], %v9_conv_1_scale: Tensor[(144), float32], %v9_conv_2_weight: Tensor[(24, 144, 1, 1), int8], %v9_conv_2_bias: Tensor[(24), int32], %v9_conv_2_zero_x: Tensor[(1), int8], %v9_conv_2_zero_y: Tensor[(1), int8], %v9_conv_2_scale: Tensor[(24), float32], %v9_qadd_zero_x1: Tensor[(1), int8], %v9_qadd_zero_x2: Tensor[(1), int8], %v9_qadd_scale_x1: Tensor[(1), float32], %v9_qadd_scale_x2: Tensor[(1), float32], %v9_qadd_zero_y: Tensor[(1), int8], %v9_qadd_scale_y: Tensor[(1), float32], %v10_conv_0_weight: Tensor[(144, 24, 1, 1), int8], %v10_conv_0_bias: Tensor[(144), int32], %v10_conv_0_zero_x: Tensor[(1), int8], %v10_conv_0_zero_y: Tensor[(1), int8], %v10_conv_0_scale: Tensor[(144), float32], %v10_conv_1_weight: Tensor[(144, 1, 3, 3), int8], %v10_conv_1_bias: Tensor[(144), int32], %v10_conv_1_zero_x: Tensor[(1), int8], %v10_conv_1_zero_y: Tensor[(1), int8], %v10_conv_1_scale: Tensor[(144), float32], %v10_conv_2_weight: Tensor[(24, 144, 1, 1), int8], %v10_conv_2_bias: Tensor[(24), int32], %v10_conv_2_zero_x: Tensor[(1), int8], %v10_conv_2_zero_y: Tensor[(1), int8], %v10_conv_2_scale: Tensor[(24), float32], %v10_qadd_zero_x1: Tensor[(1), int8], %v10_qadd_zero_x2: Tensor[(1), int8], %v10_qadd_scale_x1: Tensor[(1), float32], %v10_qadd_scale_x2: Tensor[(1), float32], %v10_qadd_zero_y: Tensor[(1), int8], %v10_qadd_scale_y: Tensor[(1), float32], %v11_conv_0_weight: Tensor[(144, 24, 1, 1), int8], %v11_conv_0_bias: Tensor[(144), int32], %v11_conv_0_zero_x: Tensor[(1), int8], %v11_conv_0_zero_y: Tensor[(1), int8], %v11_conv_0_scale: Tensor[(144), float32], %v11_conv_1_weight: Tensor[(144, 1, 3, 3), int8], %v11_conv_1_bias: Tensor[(144), int32], %v11_conv_1_zero_x: Tensor[(1), int8], %v11_conv_1_zero_y: Tensor[(1), int8], %v11_conv_1_scale: Tensor[(144), float32], %v11_conv_2_weight: Tensor[(32, 144, 1, 1), int8], %v11_conv_2_bias: Tensor[(32), int32], %v11_conv_2_zero_x: Tensor[(1), int8], %v11_conv_2_zero_y: Tensor[(1), int8], %v11_conv_2_scale: Tensor[(32), float32], %v12_conv_0_weight: Tensor[(192, 32, 1, 1), int8], %v12_conv_0_bias: Tensor[(192), int32], %v12_conv_0_zero_x: Tensor[(1), int8], %v12_conv_0_zero_y: Tensor[(1), int8], %v12_conv_0_scale: Tensor[(192), float32], %v12_conv_1_weight: Tensor[(192, 1, 3, 3), int8], %v12_conv_1_bias: Tensor[(192), int32], %v12_conv_1_zero_x: Tensor[(1), int8], %v12_conv_1_zero_y: Tensor[(1), int8], %v12_conv_1_scale: Tensor[(192), float32], %v12_conv_2_weight: Tensor[(32, 192, 1, 1), int8], %v12_conv_2_bias: Tensor[(32), int32], %v12_conv_2_zero_x: Tensor[(1), int8], %v12_conv_2_zero_y: Tensor[(1), int8], %v12_conv_2_scale: Tensor[(32), float32], %v12_qadd_zero_x1: Tensor[(1), int8], %v12_qadd_zero_x2: Tensor[(1), int8], %v12_qadd_scale_x1: Tensor[(1), float32], %v12_qadd_scale_x2: Tensor[(1), float32], %v12_qadd_zero_y: Tensor[(1), int8], %v12_qadd_scale_y: Tensor[(1), float32], %v13_conv_0_weight: Tensor[(192, 32, 1, 1), int8], %v13_conv_0_bias: Tensor[(192), int32], %v13_conv_0_zero_x: Tensor[(1), int8], %v13_conv_0_zero_y: Tensor[(1), int8], %v13_conv_0_scale: Tensor[(192), float32], %v13_conv_1_weight: Tensor[(192, 1, 3, 3), int8], %v13_conv_1_bias: Tensor[(192), int32], %v13_conv_1_zero_x: Tensor[(1), int8], %v13_conv_1_zero_y: Tensor[(1), int8], %v13_conv_1_scale: Tensor[(192), float32], %v13_conv_2_weight: Tensor[(32, 192, 1, 1), int8], %v13_conv_2_bias: Tensor[(32), int32], %v13_conv_2_zero_x: Tensor[(1), int8], %v13_conv_2_zero_y: Tensor[(1), int8], %v13_conv_2_scale: Tensor[(32), float32], %v13_qadd_zero_x1: Tensor[(1), int8], %v13_qadd_zero_x2: Tensor[(1), int8], %v13_qadd_scale_x1: Tensor[(1), float32], %v13_qadd_scale_x2: Tensor[(1), float32], %v13_qadd_zero_y: Tensor[(1), int8], %v13_qadd_scale_y: Tensor[(1), float32], %v14_conv_0_weight: Tensor[(192, 32, 1, 1), int8], %v14_conv_0_bias: Tensor[(192), int32], %v14_conv_0_zero_x: Tensor[(1), int8], %v14_conv_0_zero_y: Tensor[(1), int8], %v14_conv_0_scale: Tensor[(192), float32], %v14_conv_1_weight: Tensor[(192, 1, 3, 3), int8], %v14_conv_1_bias: Tensor[(192), int32], %v14_conv_1_zero_x: Tensor[(1), int8], %v14_conv_1_zero_y: Tensor[(1), int8], %v14_conv_1_scale: Tensor[(192), float32], %v14_conv_2_weight: Tensor[(56, 192, 1, 1), int8], %v14_conv_2_bias: Tensor[(56), int32], %v14_conv_2_zero_x: Tensor[(1), int8], %v14_conv_2_zero_y: Tensor[(1), int8], %v14_conv_2_scale: Tensor[(56), float32], %v15_conv_0_weight: Tensor[(336, 56, 1, 1), int8], %v15_conv_0_bias: Tensor[(336), int32], %v15_conv_0_zero_x: Tensor[(1), int8], %v15_conv_0_zero_y: Tensor[(1), int8], %v15_conv_0_scale: Tensor[(336), float32], %v15_conv_1_weight: Tensor[(336, 1, 3, 3), int8], %v15_conv_1_bias: Tensor[(336), int32], %v15_conv_1_zero_x: Tensor[(1), int8], %v15_conv_1_zero_y: Tensor[(1), int8], %v15_conv_1_scale: Tensor[(336), float32], %v15_conv_2_weight: Tensor[(56, 336, 1, 1), int8], %v15_conv_2_bias: Tensor[(56), int32], %v15_conv_2_zero_x: Tensor[(1), int8], %v15_conv_2_zero_y: Tensor[(1), int8], %v15_conv_2_scale: Tensor[(56), float32], %v15_qadd_zero_x1: Tensor[(1), int8], %v15_qadd_zero_x2: Tensor[(1), int8], %v15_qadd_scale_x1: Tensor[(1), float32], %v15_qadd_scale_x2: Tensor[(1), float32], %v15_qadd_zero_y: Tensor[(1), int8], %v15_qadd_scale_y: Tensor[(1), float32], %v16_conv_0_weight: Tensor[(336, 56, 1, 1), int8], %v16_conv_0_bias: Tensor[(336), int32], %v16_conv_0_zero_x: Tensor[(1), int8], %v16_conv_0_zero_y: Tensor[(1), int8], %v16_conv_0_scale: Tensor[(336), float32], %v16_conv_1_weight: Tensor[(336, 1, 3, 3), int8], %v16_conv_1_bias: Tensor[(336), int32], %v16_conv_1_zero_x: Tensor[(1), int8], %v16_conv_1_zero_y: Tensor[(1), int8], %v16_conv_1_scale: Tensor[(336), float32], %v16_conv_2_weight: Tensor[(56, 336, 1, 1), int8], %v16_conv_2_bias: Tensor[(56), int32], %v16_conv_2_zero_x: Tensor[(1), int8], %v16_conv_2_zero_y: Tensor[(1), int8], %v16_conv_2_scale: Tensor[(56), float32], %v16_qadd_zero_x1: Tensor[(1), int8], %v16_qadd_zero_x2: Tensor[(1), int8], %v16_qadd_scale_x1: Tensor[(1), float32], %v16_qadd_scale_x2: Tensor[(1), float32], %v16_qadd_zero_y: Tensor[(1), int8], %v16_qadd_scale_y: Tensor[(1), float32], %v17_conv_0_weight: Tensor[(336, 56, 1, 1), int8], %v17_conv_0_bias: Tensor[(336), int32], %v17_conv_0_zero_x: Tensor[(1), int8], %v17_conv_0_zero_y: Tensor[(1), int8], %v17_conv_0_scale: Tensor[(336), float32], %v17_conv_1_weight: Tensor[(336, 1, 3, 3), int8], %v17_conv_1_bias: Tensor[(336), int32], %v17_conv_1_zero_x: Tensor[(1), int8], %v17_conv_1_zero_y: Tensor[(1), int8], %v17_conv_1_scale: Tensor[(336), float32], %v17_conv_2_weight: Tensor[(112, 336, 1, 1), int8], %v17_conv_2_bias: Tensor[(112), int32], %v17_conv_2_zero_x: Tensor[(1), int8], %v17_conv_2_zero_y: Tensor[(1), int8], %v17_conv_2_scale: Tensor[(112), float32], %v18_weight: Tensor[(10, 112, 1, 1), int8], %v18_bias: Tensor[(10), int32], %v18_zero_x: Tensor[(1), int8], %v18_zero_y: Tensor[(1), int8], %v18_scale: Tensor[(10), float32], %label: Tensor[(1, 10), float32]) -> (float32, Tensor[(10), int32], Tensor[(10, 112, 1, 1), int8], Tensor[(112), int32], Tensor[(336), int32], Tensor[(336), int32], Tensor[(56), int32], Tensor[(336), int32], Tensor[(336), int32], Tensor[(56), int32], Tensor[(336), int32], Tensor[(336), int32], Tensor[(56), int32], Tensor[(192), int32], Tensor[(192), int32], Tensor[(32), int32], Tensor[(192), int32], Tensor[(192), int32], Tensor[(32), int32], Tensor[(192), int32], Tensor[(192), int32], Tensor[(32), int32], Tensor[(144), int32], Tensor[(144), int32], Tensor[(144, 24, 1, 1), int8], Tensor[(144, 12, 1, 1), float32], Tensor[(144, 24, 1, 1), int8], Tensor[(144, 24, 1, 1), int8]) {
  %0 = nn.mcuconv2d(%input, %v0_weight, %v0_bias, %v0_zero_x, %v0_zero_y, %v0_scale, strides=[2, 2], padding=[1, 1, 1, 1]) /* ty=Tensor[(1, 16, 64, 64), int32] */;
  %1 = nn.mcutruncate(%0) /* ty=Tensor[(1, 16, 64, 64), int8] */;
  %2 = nn.mcuconv2d(%1, %v1_conv_0_weight, %v1_conv_0_bias, %v1_conv_0_zero_x, %v1_conv_0_zero_y, %v1_conv_0_scale, padding=[1, 1, 1, 1], groups=16) /* ty=Tensor[(1, 16, 64, 64), int32] */;
  %3 = nn.mcutruncate(%2) /* ty=Tensor[(1, 16, 64, 64), int8] */;
  %4 = nn.mcuconv2d(%3, %v1_conv_1_weight, %v1_conv_1_bias, %v1_conv_1_zero_x, %v1_conv_1_zero_y, %v1_conv_1_scale, padding=[0, 0, 0, 0]) /* ty=Tensor[(1, 8, 64, 64), int32] */;
  %5 = nn.mcutruncate(%4) /* ty=Tensor[(1, 8, 64, 64), int8] */;
  %6 = nn.mcuconv2d(%5, %v2_conv_0_weight, %v2_conv_0_bias, %v2_conv_0_zero_x, %v2_conv_0_zero_y, %v2_conv_0_scale, padding=[0, 0, 0, 0]) /* ty=Tensor[(1, 48, 64, 64), int32] */;
  %7 = nn.mcutruncate(%6) /* ty=Tensor[(1, 48, 64, 64), int8] */;
  %8 = nn.mcuconv2d(%7, %v2_conv_1_weight, %v2_conv_1_bias, %v2_conv_1_zero_x, %v2_conv_1_zero_y, %v2_conv_1_scale, strides=[2, 2], padding=[1, 1, 1, 1], groups=48) /* ty=Tensor[(1, 48, 32, 32), int32] */;
  %9 = nn.mcutruncate(%8) /* ty=Tensor[(1, 48, 32, 32), int8] */;
  %10 = nn.mcuconv2d(%9, %v2_conv_2_weight, %v2_conv_2_bias, %v2_conv_2_zero_x, %v2_conv_2_zero_y, %v2_conv_2_scale, padding=[0, 0, 0, 0]) /* ty=Tensor[(1, 8, 32, 32), int32] */;
  %11 = nn.mcutruncate(%10) /* ty=Tensor[(1, 8, 32, 32), int8] */;
  %12 = nn.mcuconv2d(%11, %v3_conv_0_weight, %v3_conv_0_bias, %v3_conv_0_zero_x, %v3_conv_0_zero_y, %v3_conv_0_scale, padding=[0, 0, 0, 0]) /* ty=Tensor[(1, 48, 32, 32), int32] */;
  %13 = nn.mcutruncate(%12) /* ty=Tensor[(1, 48, 32, 32), int8] */;
  %14 = nn.mcuconv2d(%13, %v3_conv_1_weight, %v3_conv_1_bias, %v3_conv_1_zero_x, %v3_conv_1_zero_y, %v3_conv_1_scale, padding=[1, 1, 1, 1], groups=48) /* ty=Tensor[(1, 48, 32, 32), int32] */;
  %15 = nn.mcutruncate(%14) /* ty=Tensor[(1, 48, 32, 32), int8] */;
  %16 = nn.mcuconv2d(%15, %v3_conv_2_weight, %v3_conv_2_bias, %v3_conv_2_zero_x, %v3_conv_2_zero_y, %v3_conv_2_scale, padding=[0, 0, 0, 0]) /* ty=Tensor[(1, 8, 32, 32), int32] */;
  %17 = nn.mcutruncate(%16) /* ty=Tensor[(1, 8, 32, 32), int8] */;
  %18 = nn.mcuadd(%11, %17, %v3_qadd_zero_x1, %v3_qadd_zero_x2, %v3_qadd_scale_x1, %v3_qadd_scale_x2, %v3_qadd_zero_y, %v3_qadd_scale_y, axis=0) /* ty=Tensor[(1, 8, 32, 32), int8] */;
  %19 = nn.mcutruncate(%18) /* ty=Tensor[(1, 8, 32, 32), int8] */;
  %20 = nn.mcuconv2d(%19, %v4_conv_0_weight, %v4_conv_0_bias, %v4_conv_0_zero_x, %v4_conv_0_zero_y, %v4_conv_0_scale, padding=[0, 0, 0, 0]) /* ty=Tensor[(1, 48, 32, 32), int32] */;
  %21 = nn.mcutruncate(%20) /* ty=Tensor[(1, 48, 32, 32), int8] */;
  %22 = nn.mcuconv2d(%21, %v4_conv_1_weight, %v4_conv_1_bias, %v4_conv_1_zero_x, %v4_conv_1_zero_y, %v4_conv_1_scale, strides=[2, 2], padding=[1, 1, 1, 1], groups=48) /* ty=Tensor[(1, 48, 16, 16), int32] */;
  %23 = nn.mcutruncate(%22) /* ty=Tensor[(1, 48, 16, 16), int8] */;
  %24 = nn.mcuconv2d(%23, %v4_conv_2_weight, %v4_conv_2_bias, %v4_conv_2_zero_x, %v4_conv_2_zero_y, %v4_conv_2_scale, padding=[0, 0, 0, 0]) /* ty=Tensor[(1, 16, 16, 16), int32] */;
  %25 = nn.mcutruncate(%24) /* ty=Tensor[(1, 16, 16, 16), int8] */;
  %26 = nn.mcuconv2d(%25, %v5_conv_0_weight, %v5_conv_0_bias, %v5_conv_0_zero_x, %v5_conv_0_zero_y, %v5_conv_0_scale, padding=[0, 0, 0, 0]) /* ty=Tensor[(1, 96, 16, 16), int32] */;
  %27 = nn.mcutruncate(%26) /* ty=Tensor[(1, 96, 16, 16), int8] */;
  %28 = nn.mcuconv2d(%27, %v5_conv_1_weight, %v5_conv_1_bias, %v5_conv_1_zero_x, %v5_conv_1_zero_y, %v5_conv_1_scale, padding=[1, 1, 1, 1], groups=96) /* ty=Tensor[(1, 96, 16, 16), int32] */;
  %29 = nn.mcutruncate(%28) /* ty=Tensor[(1, 96, 16, 16), int8] */;
  %30 = nn.mcuconv2d(%29, %v5_conv_2_weight, %v5_conv_2_bias, %v5_conv_2_zero_x, %v5_conv_2_zero_y, %v5_conv_2_scale, padding=[0, 0, 0, 0]) /* ty=Tensor[(1, 16, 16, 16), int32] */;
  %31 = nn.mcutruncate(%30) /* ty=Tensor[(1, 16, 16, 16), int8] */;
  %32 = nn.mcuadd(%25, %31, %v5_qadd_zero_x1, %v5_qadd_zero_x2, %v5_qadd_scale_x1, %v5_qadd_scale_x2, %v5_qadd_zero_y, %v5_qadd_scale_y, axis=0) /* ty=Tensor[(1, 16, 16, 16), int8] */;
  %33 = nn.mcutruncate(%32) /* ty=Tensor[(1, 16, 16, 16), int8] */;
  %34 = nn.mcuconv2d(%33, %v6_conv_0_weight, %v6_conv_0_bias, %v6_conv_0_zero_x, %v6_conv_0_zero_y, %v6_conv_0_scale, padding=[0, 0, 0, 0]) /* ty=Tensor[(1, 96, 16, 16), int32] */;
  %35 = nn.mcutruncate(%34) /* ty=Tensor[(1, 96, 16, 16), int8] */;
  %36 = nn.mcuconv2d(%35, %v6_conv_1_weight, %v6_conv_1_bias, %v6_conv_1_zero_x, %v6_conv_1_zero_y, %v6_conv_1_scale, padding=[1, 1, 1, 1], groups=96) /* ty=Tensor[(1, 96, 16, 16), int32] */;
  %37 = nn.mcutruncate(%36) /* ty=Tensor[(1, 96, 16, 16), int8] */;
  %38 = nn.mcuconv2d(%37, %v6_conv_2_weight, %v6_conv_2_bias, %v6_conv_2_zero_x, %v6_conv_2_zero_y, %v6_conv_2_scale, padding=[0, 0, 0, 0]) /* ty=Tensor[(1, 16, 16, 16), int32] */;
  %39 = nn.mcutruncate(%38) /* ty=Tensor[(1, 16, 16, 16), int8] */;
  %40 = nn.mcuadd(%33, %39, %v6_qadd_zero_x1, %v6_qadd_zero_x2, %v6_qadd_scale_x1, %v6_qadd_scale_x2, %v6_qadd_zero_y, %v6_qadd_scale_y, axis=0) /* ty=Tensor[(1, 16, 16, 16), int8] */;
  %41 = nn.mcutruncate(%40) /* ty=Tensor[(1, 16, 16, 16), int8] */;
  %42 = nn.mcuconv2d(%41, %v7_conv_0_weight, %v7_conv_0_bias, %v7_conv_0_zero_x, %v7_conv_0_zero_y, %v7_conv_0_scale, padding=[0, 0, 0, 0]) /* ty=Tensor[(1, 96, 16, 16), int32] */;
  %43 = nn.mcutruncate(%42) /* ty=Tensor[(1, 96, 16, 16), int8] */;
  %44 = nn.mcuconv2d(%43, %v7_conv_1_weight, %v7_conv_1_bias, %v7_conv_1_zero_x, %v7_conv_1_zero_y, %v7_conv_1_scale, strides=[2, 2], padding=[1, 1, 1, 1], groups=96) /* ty=Tensor[(1, 96, 8, 8), int32] */;
  %45 = nn.mcutruncate(%44) /* ty=Tensor[(1, 96, 8, 8), int8] */;
  %46 = nn.mcuconv2d(%45, %v7_conv_2_weight, %v7_conv_2_bias, %v7_conv_2_zero_x, %v7_conv_2_zero_y, %v7_conv_2_scale, padding=[0, 0, 0, 0]) /* ty=Tensor[(1, 24, 8, 8), int32] */;
  %47 = nn.mcutruncate(%46) /* ty=Tensor[(1, 24, 8, 8), int8] */;
  %48 = nn.mcuconv2d(%47, %v8_conv_0_weight, %v8_conv_0_bias, %v8_conv_0_zero_x, %v8_conv_0_zero_y, %v8_conv_0_scale, padding=[0, 0, 0, 0]) /* ty=Tensor[(1, 144, 8, 8), int32] */;
  %49 = nn.mcutruncate(%48) /* ty=Tensor[(1, 144, 8, 8), int8] */;
  %50 = nn.mcuconv2d(%49, %v8_conv_1_weight, %v8_conv_1_bias, %v8_conv_1_zero_x, %v8_conv_1_zero_y, %v8_conv_1_scale, padding=[1, 1, 1, 1], groups=144) /* ty=Tensor[(1, 144, 8, 8), int32] */;
  %51 = nn.mcutruncate(%50) /* ty=Tensor[(1, 144, 8, 8), int8] */;
  %52 = nn.mcuconv2d(%51, %v8_conv_2_weight, %v8_conv_2_bias, %v8_conv_2_zero_x, %v8_conv_2_zero_y, %v8_conv_2_scale, padding=[0, 0, 0, 0]) /* ty=Tensor[(1, 24, 8, 8), int32] */;
  %53 = nn.mcutruncate(%52) /* ty=Tensor[(1, 24, 8, 8), int8] */;
  %54 = nn.mcuadd(%47, %53, %v8_qadd_zero_x1, %v8_qadd_zero_x2, %v8_qadd_scale_x1, %v8_qadd_scale_x2, %v8_qadd_zero_y, %v8_qadd_scale_y, axis=0) /* ty=Tensor[(1, 24, 8, 8), int8] */;
  %55 = nn.mcutruncate(%54) /* ty=Tensor[(1, 24, 8, 8), int8] */;
  %56 = nn.mcuconv2d(%55, %v9_conv_0_weight, %v9_conv_0_bias, %v9_conv_0_zero_x, %v9_conv_0_zero_y, %v9_conv_0_scale, padding=[0, 0, 0, 0]) /* ty=Tensor[(1, 144, 8, 8), int32] */;
  %57 = nn.mcutruncate(%56) /* ty=Tensor[(1, 144, 8, 8), int8] */;
  %58 = nn.mcuconv2d(%57, %v9_conv_1_weight, %v9_conv_1_bias, %v9_conv_1_zero_x, %v9_conv_1_zero_y, %v9_conv_1_scale, padding=[1, 1, 1, 1], groups=144) /* ty=Tensor[(1, 144, 8, 8), int32] */;
  %59 = nn.mcutruncate(%58) /* ty=Tensor[(1, 144, 8, 8), int8] */;
  %60 = nn.mcuconv2d(%59, %v9_conv_2_weight, %v9_conv_2_bias, %v9_conv_2_zero_x, %v9_conv_2_zero_y, %v9_conv_2_scale, padding=[0, 0, 0, 0]) /* ty=Tensor[(1, 24, 8, 8), int32] */;
  %61 = nn.mcutruncate(%60) /* ty=Tensor[(1, 24, 8, 8), int8] */;
  %62 = nn.mcuadd(%55, %61, %v9_qadd_zero_x1, %v9_qadd_zero_x2, %v9_qadd_scale_x1, %v9_qadd_scale_x2, %v9_qadd_zero_y, %v9_qadd_scale_y, axis=0) /* ty=Tensor[(1, 24, 8, 8), int8] */;
  %63 = nn.mcutruncate(%62) /* ty=Tensor[(1, 24, 8, 8), int8] */;
  %64 = nn.mcuconv2d(%63, %v10_conv_0_weight, %v10_conv_0_bias, %v10_conv_0_zero_x, %v10_conv_0_zero_y, %v10_conv_0_scale, padding=[0, 0, 0, 0]) /* ty=Tensor[(1, 144, 8, 8), int32] */;
  %65 = nn.mcutruncate(%64) /* ty=Tensor[(1, 144, 8, 8), int8] */;
  %66 = nn.mcuconv2d(%65, %v10_conv_1_weight, %v10_conv_1_bias, %v10_conv_1_zero_x, %v10_conv_1_zero_y, %v10_conv_1_scale, padding=[1, 1, 1, 1], groups=144) /* ty=Tensor[(1, 144, 8, 8), int32] */;
  %67 = nn.mcutruncate(%66) /* ty=Tensor[(1, 144, 8, 8), int8] */;
  %68 = nn.mcuconv2d(%67, %v10_conv_2_weight, %v10_conv_2_bias, %v10_conv_2_zero_x, %v10_conv_2_zero_y, %v10_conv_2_scale, padding=[0, 0, 0, 0]) /* ty=Tensor[(1, 24, 8, 8), int32] */;
  %69 = nn.mcutruncate(%68) /* ty=Tensor[(1, 24, 8, 8), int8] */;
  %70 = nn.mcuadd(%63, %69, %v10_qadd_zero_x1, %v10_qadd_zero_x2, %v10_qadd_scale_x1, %v10_qadd_scale_x2, %v10_qadd_zero_y, %v10_qadd_scale_y, axis=0) /* ty=Tensor[(1, 24, 8, 8), int8] */;
  %71 = nn.mcutruncate(%70) /* ty=Tensor[(1, 24, 8, 8), int8] */;
  %72 = nn.mcuconv2d(%71, %v11_conv_0_weight, %v11_conv_0_bias, %v11_conv_0_zero_x, %v11_conv_0_zero_y, %v11_conv_0_scale, padding=[0, 0, 0, 0]) /* ty=Tensor[(1, 144, 8, 8), int32] */;
  %73 = nn.mcutruncate(%72) /* ty=Tensor[(1, 144, 8, 8), int8] */;
  %74 = nn.mcuconv2d(%73, %v11_conv_1_weight, %v11_conv_1_bias, %v11_conv_1_zero_x, %v11_conv_1_zero_y, %v11_conv_1_scale, padding=[1, 1, 1, 1], groups=144) /* ty=Tensor[(1, 144, 8, 8), int32] */;
  %75 = nn.mcutruncate(%74) /* ty=Tensor[(1, 144, 8, 8), int8] */;
  %76 = nn.mcuconv2d(%75, %v11_conv_2_weight, %v11_conv_2_bias, %v11_conv_2_zero_x, %v11_conv_2_zero_y, %v11_conv_2_scale, padding=[0, 0, 0, 0]) /* ty=Tensor[(1, 32, 8, 8), int32] */;
  %77 = nn.mcutruncate(%76) /* ty=Tensor[(1, 32, 8, 8), int8] */;
  %78 = nn.mcuconv2d(%77, %v12_conv_0_weight, %v12_conv_0_bias, %v12_conv_0_zero_x, %v12_conv_0_zero_y, %v12_conv_0_scale, padding=[0, 0, 0, 0]) /* ty=Tensor[(1, 192, 8, 8), int32] */;
  %79 = nn.mcutruncate(%78) /* ty=Tensor[(1, 192, 8, 8), int8] */;
  %80 = nn.mcuconv2d(%79, %v12_conv_1_weight, %v12_conv_1_bias, %v12_conv_1_zero_x, %v12_conv_1_zero_y, %v12_conv_1_scale, padding=[1, 1, 1, 1], groups=192) /* ty=Tensor[(1, 192, 8, 8), int32] */;
  %81 = nn.mcutruncate(%80) /* ty=Tensor[(1, 192, 8, 8), int8] */;
  %82 = nn.mcuconv2d(%81, %v12_conv_2_weight, %v12_conv_2_bias, %v12_conv_2_zero_x, %v12_conv_2_zero_y, %v12_conv_2_scale, padding=[0, 0, 0, 0]) /* ty=Tensor[(1, 32, 8, 8), int32] */;
  %83 = nn.mcutruncate(%82) /* ty=Tensor[(1, 32, 8, 8), int8] */;
  %84 = nn.mcuadd(%77, %83, %v12_qadd_zero_x1, %v12_qadd_zero_x2, %v12_qadd_scale_x1, %v12_qadd_scale_x2, %v12_qadd_zero_y, %v12_qadd_scale_y, axis=0) /* ty=Tensor[(1, 32, 8, 8), int8] */;
  %85 = nn.mcutruncate(%84) /* ty=Tensor[(1, 32, 8, 8), int8] */;
  %86 = nn.mcuconv2d(%85, %v13_conv_0_weight, %v13_conv_0_bias, %v13_conv_0_zero_x, %v13_conv_0_zero_y, %v13_conv_0_scale, padding=[0, 0, 0, 0]) /* ty=Tensor[(1, 192, 8, 8), int32] */;
  %87 = nn.mcutruncate(%86) /* ty=Tensor[(1, 192, 8, 8), int8] */;
  %88 = nn.mcuconv2d(%87, %v13_conv_1_weight, %v13_conv_1_bias, %v13_conv_1_zero_x, %v13_conv_1_zero_y, %v13_conv_1_scale, padding=[1, 1, 1, 1], groups=192) /* ty=Tensor[(1, 192, 8, 8), int32] */;
  %89 = nn.mcutruncate(%88) /* ty=Tensor[(1, 192, 8, 8), int8] */;
  %90 = nn.mcuconv2d(%89, %v13_conv_2_weight, %v13_conv_2_bias, %v13_conv_2_zero_x, %v13_conv_2_zero_y, %v13_conv_2_scale, padding=[0, 0, 0, 0]) /* ty=Tensor[(1, 32, 8, 8), int32] */;
  %91 = nn.mcutruncate(%90) /* ty=Tensor[(1, 32, 8, 8), int8] */;
  %92 = nn.mcuadd(%85, %91, %v13_qadd_zero_x1, %v13_qadd_zero_x2, %v13_qadd_scale_x1, %v13_qadd_scale_x2, %v13_qadd_zero_y, %v13_qadd_scale_y, axis=0) /* ty=Tensor[(1, 32, 8, 8), int8] */;
  %93 = nn.mcutruncate(%92) /* ty=Tensor[(1, 32, 8, 8), int8] */;
  %94 = nn.mcuconv2d(%93, %v14_conv_0_weight, %v14_conv_0_bias, %v14_conv_0_zero_x, %v14_conv_0_zero_y, %v14_conv_0_scale, padding=[0, 0, 0, 0]) /* ty=Tensor[(1, 192, 8, 8), int32] */;
  %95 = nn.mcutruncate(%94) /* ty=Tensor[(1, 192, 8, 8), int8] */;
  %96 = nn.mcuconv2d(%95, %v14_conv_1_weight, %v14_conv_1_bias, %v14_conv_1_zero_x, %v14_conv_1_zero_y, %v14_conv_1_scale, strides=[2, 2], padding=[1, 1, 1, 1], groups=192) /* ty=Tensor[(1, 192, 4, 4), int32] */;
  %97 = nn.mcutruncate(%96) /* ty=Tensor[(1, 192, 4, 4), int8] */;
  %98 = nn.mcuconv2d(%97, %v14_conv_2_weight, %v14_conv_2_bias, %v14_conv_2_zero_x, %v14_conv_2_zero_y, %v14_conv_2_scale, padding=[0, 0, 0, 0]) /* ty=Tensor[(1, 56, 4, 4), int32] */;
  %99 = nn.mcutruncate(%98) /* ty=Tensor[(1, 56, 4, 4), int8] */;
  %100 = nn.mcuconv2d(%99, %v15_conv_0_weight, %v15_conv_0_bias, %v15_conv_0_zero_x, %v15_conv_0_zero_y, %v15_conv_0_scale, padding=[0, 0, 0, 0]) /* ty=Tensor[(1, 336, 4, 4), int32] */;
  %101 = nn.mcutruncate(%100) /* ty=Tensor[(1, 336, 4, 4), int8] */;
  %102 = nn.mcuconv2d(%101, %v15_conv_1_weight, %v15_conv_1_bias, %v15_conv_1_zero_x, %v15_conv_1_zero_y, %v15_conv_1_scale, padding=[1, 1, 1, 1], groups=336) /* ty=Tensor[(1, 336, 4, 4), int32] */;
  %103 = nn.mcutruncate(%102) /* ty=Tensor[(1, 336, 4, 4), int8] */;
  %104 = nn.mcuconv2d(%103, %v15_conv_2_weight, %v15_conv_2_bias, %v15_conv_2_zero_x, %v15_conv_2_zero_y, %v15_conv_2_scale, padding=[0, 0, 0, 0]) /* ty=Tensor[(1, 56, 4, 4), int32] */;
  %105 = nn.mcutruncate(%104) /* ty=Tensor[(1, 56, 4, 4), int8] */;
  %106 = nn.mcuadd(%99, %105, %v15_qadd_zero_x1, %v15_qadd_zero_x2, %v15_qadd_scale_x1, %v15_qadd_scale_x2, %v15_qadd_zero_y, %v15_qadd_scale_y, axis=0) /* ty=Tensor[(1, 56, 4, 4), int8] */;
  %107 = nn.mcutruncate(%106) /* ty=Tensor[(1, 56, 4, 4), int8] */;
  %108 = nn.mcuconv2d(%107, %v16_conv_0_weight, %v16_conv_0_bias, %v16_conv_0_zero_x, %v16_conv_0_zero_y, %v16_conv_0_scale, padding=[0, 0, 0, 0]) /* ty=Tensor[(1, 336, 4, 4), int32] */;
  %109 = nn.mcutruncate(%108) /* ty=Tensor[(1, 336, 4, 4), int8] */;
  %110 = nn.mcuconv2d(%109, %v16_conv_1_weight, %v16_conv_1_bias, %v16_conv_1_zero_x, %v16_conv_1_zero_y, %v16_conv_1_scale, padding=[1, 1, 1, 1], groups=336) /* ty=Tensor[(1, 336, 4, 4), int32] */;
  %111 = nn.mcutruncate(%110) /* ty=Tensor[(1, 336, 4, 4), int8] */;
  %112 = nn.mcuconv2d(%111, %v16_conv_2_weight, %v16_conv_2_bias, %v16_conv_2_zero_x, %v16_conv_2_zero_y, %v16_conv_2_scale, padding=[0, 0, 0, 0]) /* ty=Tensor[(1, 56, 4, 4), int32] */;
  %113 = nn.mcutruncate(%112) /* ty=Tensor[(1, 56, 4, 4), int8] */;
  %114 = nn.mcuadd(%107, %113, %v16_qadd_zero_x1, %v16_qadd_zero_x2, %v16_qadd_scale_x1, %v16_qadd_scale_x2, %v16_qadd_zero_y, %v16_qadd_scale_y, axis=0) /* ty=Tensor[(1, 56, 4, 4), int8] */;
  %115 = nn.mcutruncate(%114) /* ty=Tensor[(1, 56, 4, 4), int8] */;
  %116 = nn.mcuconv2d(%115, %v17_conv_0_weight, %v17_conv_0_bias, %v17_conv_0_zero_x, %v17_conv_0_zero_y, %v17_conv_0_scale, padding=[0, 0, 0, 0]) /* ty=Tensor[(1, 336, 4, 4), int32] */;
  %117 = nn.mcutruncate(%116) /* ty=Tensor[(1, 336, 4, 4), int8] */;
  %118 = nn.mcuconv2d(%117, %v17_conv_1_weight, %v17_conv_1_bias, %v17_conv_1_zero_x, %v17_conv_1_zero_y, %v17_conv_1_scale, padding=[1, 1, 1, 1], groups=336) /* ty=Tensor[(1, 336, 4, 4), int32] */;
  %119 = nn.mcutruncate(%118) /* ty=Tensor[(1, 336, 4, 4), int8] */;
  %120 = nn.mcuconv2d(%119, %v17_conv_2_weight, %v17_conv_2_bias, %v17_conv_2_zero_x, %v17_conv_2_zero_y, %v17_conv_2_scale, padding=[0, 0, 0, 0]) /* ty=Tensor[(1, 112, 4, 4), int32] */;
  %121 = nn.mcutruncate(%120) /* ty=Tensor[(1, 112, 4, 4), int8] */;
  %122 = mcumean(%121, axis=[2, 3], keepdims=True) /* ty=Tensor[(1, 112, 1, 1), int8] */;
  %123 = nn.mcuconv2d(%122, %v18_weight, %v18_bias, %v18_zero_x, %v18_zero_y, %v18_scale, padding=[0, 0, 0, 0]) /* ty=Tensor[(1, 10, 1, 1), int32] */;
  %124 = nn.mcutruncate(%123) /* ty=Tensor[(1, 10, 1, 1), int8] */;
  %125 = reshape(%124, newshape=[0, 0]) /* ty=Tensor[(1, 10), int8] */;
  %126 = cast(%125, dtype="float32") /* ty=Tensor[(1, 10), float32] */;
  %127 = nn.log_softmax(%126) /* ty=Tensor[(1, 10), float32] */;
  %128 = greater_equal(%123, -128 /* ty=int32 */) /* ty=Tensor[(1, 10, 1, 1), bool] */;
  %129 = less_equal(%123, 127 /* ty=int32 */) /* ty=Tensor[(1, 10, 1, 1), bool] */;
  %130 = ones(shape=[], dtype="float32") /* ty=float32 */;
  %131 = negative(%130) /* ty=float32 */;
  %132 = multiply(%131, %label) /* ty=Tensor[(1, 10), float32] */;
  %133 = sum(%132, axis=[-1], keepdims=True) /* ty=Tensor[(1, 1), float32] */;
  %134 = exp(%127) /* ty=Tensor[(1, 10), float32] */;
  %135 = multiply(%133, %134) /* ty=Tensor[(1, 10), float32] */;
  %136 = subtract(%132, %135) /* ty=Tensor[(1, 10), float32] */;
  %137 = multiply(%128, %129) /* ty=Tensor[(1, 10, 1, 1), bool] */;
  %138 = reshape(%136, newshape=[1, 10, 1, 1]) /* ty=Tensor[(1, 10, 1, 1), float32] */;
  %139 = zeros(shape=[1, 10, 1, 1], dtype="float32") /* ty=Tensor[(1, 10, 1, 1), float32] */;
  %140 = where(%137, %138, %139) /* ty=Tensor[(1, 10, 1, 1), float32] */;
  %141 = cast(%140, dtype="int32") /* ty=Tensor[(1, 10, 1, 1), int32] */;
  %142 = reshape(%122, newshape=[1, -1, 0, 0]) /* ty=Tensor[(1, 112, 1, 1), int8] */;
  %143 = tile(%140, reps=[1, 112, 1, 1]) /* ty=Tensor[(1, 1120, 1, 1), float32] */;
  %144 = cast(%142, dtype="float32") /* ty=Tensor[(1, 112, 1, 1), float32] */;
  %145 = reshape(%143, newshape=[-1, 1, 0, 0]) /* ty=Tensor[(1120, 1, 1, 1), float32] */;
  %146 = nn.conv2d(%144, %145, padding=[0, 0, 0, 0], groups=112, out_dtype="float32") /* ty=Tensor[(1, 1120, 1, 1), float32] */;
  %147 = reshape(%146, newshape=[1, 112, 10, 1, 1]) /* ty=Tensor[(1, 112, 10, 1, 1), float32] */;
  %148 = sum(%147, axis=[0]) /* ty=Tensor[(112, 10, 1, 1), float32] */;
  %149 = transpose(%148, axes=[1, 0, 2, 3]) /* ty=Tensor[(10, 112, 1, 1), float32] */;
  %150 = abs(%149) /* ty=Tensor[(10, 112, 1, 1), float32] */;
  %151 = max(%150, axis=[1], keepdims=True) /* ty=Tensor[(10, 1, 1, 1), float32] */;
  %152 = divide(%151, 127f /* ty=float32 */) /* ty=Tensor[(10, 1, 1, 1), float32] */;
  %153 = divide(%149, %152) /* ty=Tensor[(10, 112, 1, 1), float32] */;
  %154 = greater_equal(%120, -128 /* ty=int32 */) /* ty=Tensor[(1, 112, 4, 4), bool] */;
  %155 = less_equal(%120, 127 /* ty=int32 */) /* ty=Tensor[(1, 112, 4, 4), bool] */;
  %156 = cast(%v18_weight, dtype="float32") /* ty=Tensor[(10, 112, 1, 1), float32] */;
  %157 = nn.conv2d_transpose(%140, %156, channels=112, kernel_size=[1, 1], padding=[0, 0, 0, 0], kernel_layout="IOHW", out_dtype="float32") /* ty=Tensor[(1, 112, 1, 1), float32] */;
  %158 = abs(%157) /* ty=Tensor[(1, 112, 1, 1), float32] */;
  %159 = max(%158, axis=[1], keepdims=True) /* ty=Tensor[(1, 1, 1, 1), float32] */;
  %160 = divide(%159, 127f /* ty=float32 */) /* ty=Tensor[(1, 1, 1, 1), float32] */;
  %161 = divide(%157, %160) /* ty=Tensor[(1, 112, 1, 1), float32] */;
  %162 = cast(%161, dtype="int8") /* ty=Tensor[(1, 112, 1, 1), int8] */;
  %163 = cast(%162, dtype="float32") /* ty=Tensor[(1, 112, 1, 1), float32] */;
  %164 = multiply(%163, 0.0625f /* ty=float32 */) /* ty=Tensor[(1, 112, 1, 1), float32] */;
  %165 = ones(shape=[1, 112, 4, 4], dtype="float32") /* ty=Tensor[(1, 112, 4, 4), float32] */;
  %166 = multiply(%154, %155) /* ty=Tensor[(1, 112, 4, 4), bool] */;
  %167 = multiply(%164, %165) /* ty=Tensor[(1, 112, 4, 4), float32] */;
  %168 = zeros(shape=[1, 112, 4, 4], dtype="float32") /* ty=Tensor[(1, 112, 4, 4), float32] */;
  %169 = where(%166, %167, %168) /* ty=Tensor[(1, 112, 4, 4), float32] */;
  %170 = cast(%169, dtype="int32") /* ty=Tensor[(1, 112, 4, 4), int32] */;
  %171 = greater_equal(%118, -128 /* ty=int32 */) /* ty=Tensor[(1, 336, 4, 4), bool] */;
  %172 = less_equal(%118, 127 /* ty=int32 */) /* ty=Tensor[(1, 336, 4, 4), bool] */;
  %173 = cast(%v17_conv_2_weight, dtype="float32") /* ty=Tensor[(112, 336, 1, 1), float32] */;
  %174 = nn.conv2d_transpose(%169, %173, channels=336, kernel_size=[1, 1], padding=[0, 0, 0, 0], kernel_layout="IOHW", out_dtype="float32") /* ty=Tensor[(1, 336, 4, 4), float32] */;
  %175 = abs(%174) /* ty=Tensor[(1, 336, 4, 4), float32] */;
  %176 = max(%175, axis=[1], keepdims=True) /* ty=Tensor[(1, 1, 4, 4), float32] */;
  %177 = divide(%176, 127f /* ty=float32 */) /* ty=Tensor[(1, 1, 4, 4), float32] */;
  %178 = divide(%174, %177) /* ty=Tensor[(1, 336, 4, 4), float32] */;
  %179 = multiply(%171, %172) /* ty=Tensor[(1, 336, 4, 4), bool] */;
  %180 = cast(%178, dtype="int8") /* ty=Tensor[(1, 336, 4, 4), int8] */;
  %181 = zeros(shape=[1, 336, 4, 4], dtype="int8") /* ty=Tensor[(1, 336, 4, 4), int8] */;
  %182 = where(%179, %180, %181) /* ty=Tensor[(1, 336, 4, 4), int8] */;
  %183 = cast(%182, dtype="int32") /* ty=Tensor[(1, 336, 4, 4), int32] */;
  %184 = greater_equal(%116, -128 /* ty=int32 */) /* ty=Tensor[(1, 336, 4, 4), bool] */;
  %185 = less_equal(%116, 127 /* ty=int32 */) /* ty=Tensor[(1, 336, 4, 4), bool] */;
  %186 = nn.conv2d_transpose(%182, %v17_conv_1_weight, channels=336, kernel_size=[3, 3], padding=[1, 1, 1, 1], groups=336, kernel_layout="IOHW", out_dtype="int32") /* ty=Tensor[(1, 336, 4, 4), int32] */;
  %187 = abs(%186) /* ty=Tensor[(1, 336, 4, 4), int32] */;
  %188 = max(%187, axis=[1], keepdims=True) /* ty=Tensor[(1, 1, 4, 4), int32] */;
  %189 = divide(%188, 127 /* ty=int32 */) /* ty=Tensor[(1, 1, 4, 4), int32] */;
  %190 = divide(%186, %189) /* ty=Tensor[(1, 336, 4, 4), int32] */;
  %191 = multiply(%184, %185) /* ty=Tensor[(1, 336, 4, 4), bool] */;
  %192 = cast(%190, dtype="int8") /* ty=Tensor[(1, 336, 4, 4), int8] */;
  %193 = zeros(shape=[1, 336, 4, 4], dtype="int8") /* ty=Tensor[(1, 336, 4, 4), int8] */;
  %194 = where(%191, %192, %193) /* ty=Tensor[(1, 336, 4, 4), int8] */;
  %195 = cast(%194, dtype="int32") /* ty=Tensor[(1, 336, 4, 4), int32] */;
  %196 = greater_equal(%112, -128 /* ty=int32 */) /* ty=Tensor[(1, 56, 4, 4), bool] */;
  %197 = less_equal(%112, 127 /* ty=int32 */) /* ty=Tensor[(1, 56, 4, 4), bool] */;
  %198 = greater_equal(%114, meta[relay.Constant][0] /* ty=int8 */) /* ty=Tensor[(1, 56, 4, 4), bool] */;
  %199 = less_equal(%114, meta[relay.Constant][1] /* ty=int8 */) /* ty=Tensor[(1, 56, 4, 4), bool] */;
  %200 = nn.conv2d_transpose(%194, %v17_conv_0_weight, channels=56, kernel_size=[1, 1], padding=[0, 0, 0, 0], kernel_layout="IOHW", out_dtype="int32") /* ty=Tensor[(1, 56, 4, 4), int32] */;
  %201 = abs(%200) /* ty=Tensor[(1, 56, 4, 4), int32] */;
  %202 = max(%201, axis=[1], keepdims=True) /* ty=Tensor[(1, 1, 4, 4), int32] */;
  %203 = divide(%202, 127 /* ty=int32 */) /* ty=Tensor[(1, 1, 4, 4), int32] */;
  %204 = divide(%200, %203) /* ty=Tensor[(1, 56, 4, 4), int32] */;
  %205 = multiply(%198, %199) /* ty=Tensor[(1, 56, 4, 4), bool] */;
  %206 = cast(%204, dtype="int8") /* ty=Tensor[(1, 56, 4, 4), int8] */;
  %207 = zeros(shape=[1, 56, 4, 4], dtype="int8") /* ty=Tensor[(1, 56, 4, 4), int8] */;
  %208 = where(%205, %206, %207) /* ty=Tensor[(1, 56, 4, 4), int8] */;
  %209 = cast(%208, dtype="float32") /* ty=Tensor[(1, 56, 4, 4), float32] */;
  %210 = reshape(%v16_qadd_scale_y, newshape=[1, -1, 1, 1]) /* ty=Tensor[(1, 1, 1, 1), float32] */;
  %211 = divide(%209, %210) /* ty=Tensor[(1, 56, 4, 4), float32] */;
  %212 = reshape(%v16_qadd_scale_x2, newshape=[1, -1, 1, 1]) /* ty=Tensor[(1, 1, 1, 1), float32] */;
  %213 = multiply(%211, %212) /* ty=Tensor[(1, 56, 4, 4), float32] */;
  %214 = multiply(%196, %197) /* ty=Tensor[(1, 56, 4, 4), bool] */;
  %215 = cast(%213, dtype="int8") /* ty=Tensor[(1, 56, 4, 4), int8] */;
  %216 = zeros(shape=[1, 56, 4, 4], dtype="int8") /* ty=Tensor[(1, 56, 4, 4), int8] */;
  %217 = where(%214, %215, %216) /* ty=Tensor[(1, 56, 4, 4), int8] */;
  %218 = cast(%217, dtype="int32") /* ty=Tensor[(1, 56, 4, 4), int32] */;
  %219 = greater_equal(%110, -128 /* ty=int32 */) /* ty=Tensor[(1, 336, 4, 4), bool] */;
  %220 = less_equal(%110, 127 /* ty=int32 */) /* ty=Tensor[(1, 336, 4, 4), bool] */;
  %221 = nn.conv2d_transpose(%217, %v16_conv_2_weight, channels=336, kernel_size=[1, 1], padding=[0, 0, 0, 0], kernel_layout="IOHW", out_dtype="int32") /* ty=Tensor[(1, 336, 4, 4), int32] */;
  %222 = abs(%221) /* ty=Tensor[(1, 336, 4, 4), int32] */;
  %223 = max(%222, axis=[1], keepdims=True) /* ty=Tensor[(1, 1, 4, 4), int32] */;
  %224 = divide(%223, 127 /* ty=int32 */) /* ty=Tensor[(1, 1, 4, 4), int32] */;
  %225 = divide(%221, %224) /* ty=Tensor[(1, 336, 4, 4), int32] */;
  %226 = multiply(%219, %220) /* ty=Tensor[(1, 336, 4, 4), bool] */;
  %227 = cast(%225, dtype="int8") /* ty=Tensor[(1, 336, 4, 4), int8] */;
  %228 = zeros(shape=[1, 336, 4, 4], dtype="int8") /* ty=Tensor[(1, 336, 4, 4), int8] */;
  %229 = where(%226, %227, %228) /* ty=Tensor[(1, 336, 4, 4), int8] */;
  %230 = cast(%229, dtype="int32") /* ty=Tensor[(1, 336, 4, 4), int32] */;
  %231 = greater_equal(%108, -128 /* ty=int32 */) /* ty=Tensor[(1, 336, 4, 4), bool] */;
  %232 = less_equal(%108, 127 /* ty=int32 */) /* ty=Tensor[(1, 336, 4, 4), bool] */;
  %233 = nn.conv2d_transpose(%229, %v16_conv_1_weight, channels=336, kernel_size=[3, 3], padding=[1, 1, 1, 1], groups=336, kernel_layout="IOHW", out_dtype="int32") /* ty=Tensor[(1, 336, 4, 4), int32] */;
  %234 = abs(%233) /* ty=Tensor[(1, 336, 4, 4), int32] */;
  %235 = max(%234, axis=[1], keepdims=True) /* ty=Tensor[(1, 1, 4, 4), int32] */;
  %236 = divide(%235, 127 /* ty=int32 */) /* ty=Tensor[(1, 1, 4, 4), int32] */;
  %237 = divide(%233, %236) /* ty=Tensor[(1, 336, 4, 4), int32] */;
  %238 = multiply(%231, %232) /* ty=Tensor[(1, 336, 4, 4), bool] */;
  %239 = cast(%237, dtype="int8") /* ty=Tensor[(1, 336, 4, 4), int8] */;
  %240 = zeros(shape=[1, 336, 4, 4], dtype="int8") /* ty=Tensor[(1, 336, 4, 4), int8] */;
  %241 = where(%238, %239, %240) /* ty=Tensor[(1, 336, 4, 4), int8] */;
  %242 = cast(%241, dtype="int32") /* ty=Tensor[(1, 336, 4, 4), int32] */;
  %243 = greater_equal(%104, -128 /* ty=int32 */) /* ty=Tensor[(1, 56, 4, 4), bool] */;
  %244 = less_equal(%104, 127 /* ty=int32 */) /* ty=Tensor[(1, 56, 4, 4), bool] */;
  %245 = greater_equal(%106, meta[relay.Constant][2] /* ty=int8 */) /* ty=Tensor[(1, 56, 4, 4), bool] */;
  %246 = less_equal(%106, meta[relay.Constant][3] /* ty=int8 */) /* ty=Tensor[(1, 56, 4, 4), bool] */;
  %247 = nn.conv2d_transpose(%241, %v16_conv_0_weight, channels=56, kernel_size=[1, 1], padding=[0, 0, 0, 0], kernel_layout="IOHW", out_dtype="int32") /* ty=Tensor[(1, 56, 4, 4), int32] */;
  %248 = abs(%247) /* ty=Tensor[(1, 56, 4, 4), int32] */;
  %249 = max(%248, axis=[1], keepdims=True) /* ty=Tensor[(1, 1, 4, 4), int32] */;
  %250 = divide(%249, 127 /* ty=int32 */) /* ty=Tensor[(1, 1, 4, 4), int32] */;
  %251 = divide(%247, %250) /* ty=Tensor[(1, 56, 4, 4), int32] */;
  %252 = multiply(%245, %246) /* ty=Tensor[(1, 56, 4, 4), bool] */;
  %253 = cast(%251, dtype="int8") /* ty=Tensor[(1, 56, 4, 4), int8] */;
  %254 = zeros(shape=[1, 56, 4, 4], dtype="int8") /* ty=Tensor[(1, 56, 4, 4), int8] */;
  %255 = where(%252, %253, %254) /* ty=Tensor[(1, 56, 4, 4), int8] */;
  %256 = cast(%255, dtype="float32") /* ty=Tensor[(1, 56, 4, 4), float32] */;
  %257 = reshape(%v15_qadd_scale_y, newshape=[1, -1, 1, 1]) /* ty=Tensor[(1, 1, 1, 1), float32] */;
  %258 = divide(%256, %257) /* ty=Tensor[(1, 56, 4, 4), float32] */;
  %259 = reshape(%v15_qadd_scale_x2, newshape=[1, -1, 1, 1]) /* ty=Tensor[(1, 1, 1, 1), float32] */;
  %260 = multiply(%258, %259) /* ty=Tensor[(1, 56, 4, 4), float32] */;
  %261 = multiply(%243, %244) /* ty=Tensor[(1, 56, 4, 4), bool] */;
  %262 = cast(%260, dtype="int8") /* ty=Tensor[(1, 56, 4, 4), int8] */;
  %263 = zeros(shape=[1, 56, 4, 4], dtype="int8") /* ty=Tensor[(1, 56, 4, 4), int8] */;
  %264 = where(%261, %262, %263) /* ty=Tensor[(1, 56, 4, 4), int8] */;
  %265 = cast(%264, dtype="int32") /* ty=Tensor[(1, 56, 4, 4), int32] */;
  %266 = greater_equal(%102, -128 /* ty=int32 */) /* ty=Tensor[(1, 336, 4, 4), bool] */;
  %267 = less_equal(%102, 127 /* ty=int32 */) /* ty=Tensor[(1, 336, 4, 4), bool] */;
  %268 = nn.conv2d_transpose(%264, %v15_conv_2_weight, channels=336, kernel_size=[1, 1], padding=[0, 0, 0, 0], kernel_layout="IOHW", out_dtype="int32") /* ty=Tensor[(1, 336, 4, 4), int32] */;
  %269 = abs(%268) /* ty=Tensor[(1, 336, 4, 4), int32] */;
  %270 = max(%269, axis=[1], keepdims=True) /* ty=Tensor[(1, 1, 4, 4), int32] */;
  %271 = divide(%270, 127 /* ty=int32 */) /* ty=Tensor[(1, 1, 4, 4), int32] */;
  %272 = divide(%268, %271) /* ty=Tensor[(1, 336, 4, 4), int32] */;
  %273 = multiply(%266, %267) /* ty=Tensor[(1, 336, 4, 4), bool] */;
  %274 = cast(%272, dtype="int8") /* ty=Tensor[(1, 336, 4, 4), int8] */;
  %275 = zeros(shape=[1, 336, 4, 4], dtype="int8") /* ty=Tensor[(1, 336, 4, 4), int8] */;
  %276 = where(%273, %274, %275) /* ty=Tensor[(1, 336, 4, 4), int8] */;
  %277 = cast(%276, dtype="int32") /* ty=Tensor[(1, 336, 4, 4), int32] */;
  %278 = greater_equal(%100, -128 /* ty=int32 */) /* ty=Tensor[(1, 336, 4, 4), bool] */;
  %279 = less_equal(%100, 127 /* ty=int32 */) /* ty=Tensor[(1, 336, 4, 4), bool] */;
  %280 = nn.conv2d_transpose(%276, %v15_conv_1_weight, channels=336, kernel_size=[3, 3], padding=[1, 1, 1, 1], groups=336, kernel_layout="IOHW", out_dtype="int32") /* ty=Tensor[(1, 336, 4, 4), int32] */;
  %281 = abs(%280) /* ty=Tensor[(1, 336, 4, 4), int32] */;
  %282 = max(%281, axis=[1], keepdims=True) /* ty=Tensor[(1, 1, 4, 4), int32] */;
  %283 = divide(%282, 127 /* ty=int32 */) /* ty=Tensor[(1, 1, 4, 4), int32] */;
  %284 = divide(%280, %283) /* ty=Tensor[(1, 336, 4, 4), int32] */;
  %285 = multiply(%278, %279) /* ty=Tensor[(1, 336, 4, 4), bool] */;
  %286 = cast(%284, dtype="int8") /* ty=Tensor[(1, 336, 4, 4), int8] */;
  %287 = zeros(shape=[1, 336, 4, 4], dtype="int8") /* ty=Tensor[(1, 336, 4, 4), int8] */;
  %288 = where(%285, %286, %287) /* ty=Tensor[(1, 336, 4, 4), int8] */;
  %289 = cast(%288, dtype="int32") /* ty=Tensor[(1, 336, 4, 4), int32] */;
  %290 = greater_equal(%98, -128 /* ty=int32 */) /* ty=Tensor[(1, 56, 4, 4), bool] */;
  %291 = less_equal(%98, 127 /* ty=int32 */) /* ty=Tensor[(1, 56, 4, 4), bool] */;
  %292 = nn.conv2d_transpose(%288, %v15_conv_0_weight, channels=56, kernel_size=[1, 1], padding=[0, 0, 0, 0], kernel_layout="IOHW", out_dtype="int32") /* ty=Tensor[(1, 56, 4, 4), int32] */;
  %293 = abs(%292) /* ty=Tensor[(1, 56, 4, 4), int32] */;
  %294 = max(%293, axis=[1], keepdims=True) /* ty=Tensor[(1, 1, 4, 4), int32] */;
  %295 = divide(%294, 127 /* ty=int32 */) /* ty=Tensor[(1, 1, 4, 4), int32] */;
  %296 = divide(%292, %295) /* ty=Tensor[(1, 56, 4, 4), int32] */;
  %297 = multiply(%290, %291) /* ty=Tensor[(1, 56, 4, 4), bool] */;
  %298 = cast(%296, dtype="int8") /* ty=Tensor[(1, 56, 4, 4), int8] */;
  %299 = zeros(shape=[1, 56, 4, 4], dtype="int8") /* ty=Tensor[(1, 56, 4, 4), int8] */;
  %300 = where(%297, %298, %299) /* ty=Tensor[(1, 56, 4, 4), int8] */;
  %301 = cast(%300, dtype="int32") /* ty=Tensor[(1, 56, 4, 4), int32] */;
  %302 = greater_equal(%96, -128 /* ty=int32 */) /* ty=Tensor[(1, 192, 4, 4), bool] */;
  %303 = less_equal(%96, 127 /* ty=int32 */) /* ty=Tensor[(1, 192, 4, 4), bool] */;
  %304 = nn.conv2d_transpose(%300, %v14_conv_2_weight, channels=192, kernel_size=[1, 1], padding=[0, 0, 0, 0], kernel_layout="IOHW", out_dtype="int32") /* ty=Tensor[(1, 192, 4, 4), int32] */;
  %305 = abs(%304) /* ty=Tensor[(1, 192, 4, 4), int32] */;
  %306 = max(%305, axis=[1], keepdims=True) /* ty=Tensor[(1, 1, 4, 4), int32] */;
  %307 = divide(%306, 127 /* ty=int32 */) /* ty=Tensor[(1, 1, 4, 4), int32] */;
  %308 = divide(%304, %307) /* ty=Tensor[(1, 192, 4, 4), int32] */;
  %309 = multiply(%302, %303) /* ty=Tensor[(1, 192, 4, 4), bool] */;
  %310 = cast(%308, dtype="int8") /* ty=Tensor[(1, 192, 4, 4), int8] */;
  %311 = zeros(shape=[1, 192, 4, 4], dtype="int8") /* ty=Tensor[(1, 192, 4, 4), int8] */;
  %312 = where(%309, %310, %311) /* ty=Tensor[(1, 192, 4, 4), int8] */;
  %313 = cast(%312, dtype="int32") /* ty=Tensor[(1, 192, 4, 4), int32] */;
  %314 = greater_equal(%94, -128 /* ty=int32 */) /* ty=Tensor[(1, 192, 8, 8), bool] */;
  %315 = less_equal(%94, 127 /* ty=int32 */) /* ty=Tensor[(1, 192, 8, 8), bool] */;
  %316 = nn.conv2d_transpose(%312, %v14_conv_1_weight, channels=192, kernel_size=[3, 3], strides=[2, 2], output_padding=[1, 1], padding=[1, 1, 1, 1], groups=192, kernel_layout="IOHW", out_dtype="int32") /* ty=Tensor[(1, 192, 8, 8), int32] */;
  %317 = abs(%316) /* ty=Tensor[(1, 192, 8, 8), int32] */;
  %318 = max(%317, axis=[1], keepdims=True) /* ty=Tensor[(1, 1, 8, 8), int32] */;
  %319 = divide(%318, 127 /* ty=int32 */) /* ty=Tensor[(1, 1, 8, 8), int32] */;
  %320 = divide(%316, %319) /* ty=Tensor[(1, 192, 8, 8), int32] */;
  %321 = multiply(%314, %315) /* ty=Tensor[(1, 192, 8, 8), bool] */;
  %322 = cast(%320, dtype="int8") /* ty=Tensor[(1, 192, 8, 8), int8] */;
  %323 = zeros(shape=[1, 192, 8, 8], dtype="int8") /* ty=Tensor[(1, 192, 8, 8), int8] */;
  %324 = where(%321, %322, %323) /* ty=Tensor[(1, 192, 8, 8), int8] */;
  %325 = cast(%324, dtype="int32") /* ty=Tensor[(1, 192, 8, 8), int32] */;
  %326 = greater_equal(%90, -128 /* ty=int32 */) /* ty=Tensor[(1, 32, 8, 8), bool] */;
  %327 = less_equal(%90, 127 /* ty=int32 */) /* ty=Tensor[(1, 32, 8, 8), bool] */;
  %328 = greater_equal(%92, meta[relay.Constant][4] /* ty=int8 */) /* ty=Tensor[(1, 32, 8, 8), bool] */;
  %329 = less_equal(%92, meta[relay.Constant][5] /* ty=int8 */) /* ty=Tensor[(1, 32, 8, 8), bool] */;
  %330 = nn.conv2d_transpose(%324, %v14_conv_0_weight, channels=32, kernel_size=[1, 1], padding=[0, 0, 0, 0], kernel_layout="IOHW", out_dtype="int32") /* ty=Tensor[(1, 32, 8, 8), int32] */;
  %331 = abs(%330) /* ty=Tensor[(1, 32, 8, 8), int32] */;
  %332 = max(%331, axis=[1], keepdims=True) /* ty=Tensor[(1, 1, 8, 8), int32] */;
  %333 = divide(%332, 127 /* ty=int32 */) /* ty=Tensor[(1, 1, 8, 8), int32] */;
  %334 = divide(%330, %333) /* ty=Tensor[(1, 32, 8, 8), int32] */;
  %335 = multiply(%328, %329) /* ty=Tensor[(1, 32, 8, 8), bool] */;
  %336 = cast(%334, dtype="int8") /* ty=Tensor[(1, 32, 8, 8), int8] */;
  %337 = zeros(shape=[1, 32, 8, 8], dtype="int8") /* ty=Tensor[(1, 32, 8, 8), int8] */;
  %338 = where(%335, %336, %337) /* ty=Tensor[(1, 32, 8, 8), int8] */;
  %339 = cast(%338, dtype="float32") /* ty=Tensor[(1, 32, 8, 8), float32] */;
  %340 = reshape(%v13_qadd_scale_y, newshape=[1, -1, 1, 1]) /* ty=Tensor[(1, 1, 1, 1), float32] */;
  %341 = divide(%339, %340) /* ty=Tensor[(1, 32, 8, 8), float32] */;
  %342 = reshape(%v13_qadd_scale_x2, newshape=[1, -1, 1, 1]) /* ty=Tensor[(1, 1, 1, 1), float32] */;
  %343 = multiply(%341, %342) /* ty=Tensor[(1, 32, 8, 8), float32] */;
  %344 = multiply(%326, %327) /* ty=Tensor[(1, 32, 8, 8), bool] */;
  %345 = cast(%343, dtype="int8") /* ty=Tensor[(1, 32, 8, 8), int8] */;
  %346 = zeros(shape=[1, 32, 8, 8], dtype="int8") /* ty=Tensor[(1, 32, 8, 8), int8] */;
  %347 = where(%344, %345, %346) /* ty=Tensor[(1, 32, 8, 8), int8] */;
  %348 = cast(%347, dtype="int32") /* ty=Tensor[(1, 32, 8, 8), int32] */;
  %349 = greater_equal(%88, -128 /* ty=int32 */) /* ty=Tensor[(1, 192, 8, 8), bool] */;
  %350 = less_equal(%88, 127 /* ty=int32 */) /* ty=Tensor[(1, 192, 8, 8), bool] */;
  %351 = nn.conv2d_transpose(%347, %v13_conv_2_weight, channels=192, kernel_size=[1, 1], padding=[0, 0, 0, 0], kernel_layout="IOHW", out_dtype="int32") /* ty=Tensor[(1, 192, 8, 8), int32] */;
  %352 = abs(%351) /* ty=Tensor[(1, 192, 8, 8), int32] */;
  %353 = max(%352, axis=[1], keepdims=True) /* ty=Tensor[(1, 1, 8, 8), int32] */;
  %354 = divide(%353, 127 /* ty=int32 */) /* ty=Tensor[(1, 1, 8, 8), int32] */;
  %355 = divide(%351, %354) /* ty=Tensor[(1, 192, 8, 8), int32] */;
  %356 = multiply(%349, %350) /* ty=Tensor[(1, 192, 8, 8), bool] */;
  %357 = cast(%355, dtype="int8") /* ty=Tensor[(1, 192, 8, 8), int8] */;
  %358 = zeros(shape=[1, 192, 8, 8], dtype="int8") /* ty=Tensor[(1, 192, 8, 8), int8] */;
  %359 = where(%356, %357, %358) /* ty=Tensor[(1, 192, 8, 8), int8] */;
  %360 = cast(%359, dtype="int32") /* ty=Tensor[(1, 192, 8, 8), int32] */;
  %361 = greater_equal(%86, -128 /* ty=int32 */) /* ty=Tensor[(1, 192, 8, 8), bool] */;
  %362 = less_equal(%86, 127 /* ty=int32 */) /* ty=Tensor[(1, 192, 8, 8), bool] */;
  %363 = nn.conv2d_transpose(%359, %v13_conv_1_weight, channels=192, kernel_size=[3, 3], padding=[1, 1, 1, 1], groups=192, kernel_layout="IOHW", out_dtype="int32") /* ty=Tensor[(1, 192, 8, 8), int32] */;
  %364 = abs(%363) /* ty=Tensor[(1, 192, 8, 8), int32] */;
  %365 = max(%364, axis=[1], keepdims=True) /* ty=Tensor[(1, 1, 8, 8), int32] */;
  %366 = divide(%365, 127 /* ty=int32 */) /* ty=Tensor[(1, 1, 8, 8), int32] */;
  %367 = divide(%363, %366) /* ty=Tensor[(1, 192, 8, 8), int32] */;
  %368 = multiply(%361, %362) /* ty=Tensor[(1, 192, 8, 8), bool] */;
  %369 = cast(%367, dtype="int8") /* ty=Tensor[(1, 192, 8, 8), int8] */;
  %370 = zeros(shape=[1, 192, 8, 8], dtype="int8") /* ty=Tensor[(1, 192, 8, 8), int8] */;
  %371 = where(%368, %369, %370) /* ty=Tensor[(1, 192, 8, 8), int8] */;
  %372 = cast(%371, dtype="int32") /* ty=Tensor[(1, 192, 8, 8), int32] */;
  %373 = greater_equal(%82, -128 /* ty=int32 */) /* ty=Tensor[(1, 32, 8, 8), bool] */;
  %374 = less_equal(%82, 127 /* ty=int32 */) /* ty=Tensor[(1, 32, 8, 8), bool] */;
  %375 = greater_equal(%84, meta[relay.Constant][6] /* ty=int8 */) /* ty=Tensor[(1, 32, 8, 8), bool] */;
  %376 = less_equal(%84, meta[relay.Constant][7] /* ty=int8 */) /* ty=Tensor[(1, 32, 8, 8), bool] */;
  %377 = nn.conv2d_transpose(%371, %v13_conv_0_weight, channels=32, kernel_size=[1, 1], padding=[0, 0, 0, 0], kernel_layout="IOHW", out_dtype="int32") /* ty=Tensor[(1, 32, 8, 8), int32] */;
  %378 = abs(%377) /* ty=Tensor[(1, 32, 8, 8), int32] */;
  %379 = max(%378, axis=[1], keepdims=True) /* ty=Tensor[(1, 1, 8, 8), int32] */;
  %380 = divide(%379, 127 /* ty=int32 */) /* ty=Tensor[(1, 1, 8, 8), int32] */;
  %381 = divide(%377, %380) /* ty=Tensor[(1, 32, 8, 8), int32] */;
  %382 = multiply(%375, %376) /* ty=Tensor[(1, 32, 8, 8), bool] */;
  %383 = cast(%381, dtype="int8") /* ty=Tensor[(1, 32, 8, 8), int8] */;
  %384 = zeros(shape=[1, 32, 8, 8], dtype="int8") /* ty=Tensor[(1, 32, 8, 8), int8] */;
  %385 = where(%382, %383, %384) /* ty=Tensor[(1, 32, 8, 8), int8] */;
  %386 = cast(%385, dtype="float32") /* ty=Tensor[(1, 32, 8, 8), float32] */;
  %387 = reshape(%v12_qadd_scale_y, newshape=[1, -1, 1, 1]) /* ty=Tensor[(1, 1, 1, 1), float32] */;
  %388 = divide(%386, %387) /* ty=Tensor[(1, 32, 8, 8), float32] */;
  %389 = reshape(%v12_qadd_scale_x2, newshape=[1, -1, 1, 1]) /* ty=Tensor[(1, 1, 1, 1), float32] */;
  %390 = multiply(%388, %389) /* ty=Tensor[(1, 32, 8, 8), float32] */;
  %391 = multiply(%373, %374) /* ty=Tensor[(1, 32, 8, 8), bool] */;
  %392 = cast(%390, dtype="int8") /* ty=Tensor[(1, 32, 8, 8), int8] */;
  %393 = zeros(shape=[1, 32, 8, 8], dtype="int8") /* ty=Tensor[(1, 32, 8, 8), int8] */;
  %394 = where(%391, %392, %393) /* ty=Tensor[(1, 32, 8, 8), int8] */;
  %395 = cast(%394, dtype="int32") /* ty=Tensor[(1, 32, 8, 8), int32] */;
  %396 = greater_equal(%80, -128 /* ty=int32 */) /* ty=Tensor[(1, 192, 8, 8), bool] */;
  %397 = less_equal(%80, 127 /* ty=int32 */) /* ty=Tensor[(1, 192, 8, 8), bool] */;
  %398 = nn.conv2d_transpose(%394, %v12_conv_2_weight, channels=192, kernel_size=[1, 1], padding=[0, 0, 0, 0], kernel_layout="IOHW", out_dtype="int32") /* ty=Tensor[(1, 192, 8, 8), int32] */;
  %399 = abs(%398) /* ty=Tensor[(1, 192, 8, 8), int32] */;
  %400 = max(%399, axis=[1], keepdims=True) /* ty=Tensor[(1, 1, 8, 8), int32] */;
  %401 = divide(%400, 127 /* ty=int32 */) /* ty=Tensor[(1, 1, 8, 8), int32] */;
  %402 = divide(%398, %401) /* ty=Tensor[(1, 192, 8, 8), int32] */;
  %403 = multiply(%396, %397) /* ty=Tensor[(1, 192, 8, 8), bool] */;
  %404 = cast(%402, dtype="int8") /* ty=Tensor[(1, 192, 8, 8), int8] */;
  %405 = zeros(shape=[1, 192, 8, 8], dtype="int8") /* ty=Tensor[(1, 192, 8, 8), int8] */;
  %406 = where(%403, %404, %405) /* ty=Tensor[(1, 192, 8, 8), int8] */;
  %407 = cast(%406, dtype="int32") /* ty=Tensor[(1, 192, 8, 8), int32] */;
  %408 = greater_equal(%78, -128 /* ty=int32 */) /* ty=Tensor[(1, 192, 8, 8), bool] */;
  %409 = less_equal(%78, 127 /* ty=int32 */) /* ty=Tensor[(1, 192, 8, 8), bool] */;
  %410 = nn.conv2d_transpose(%406, %v12_conv_1_weight, channels=192, kernel_size=[3, 3], padding=[1, 1, 1, 1], groups=192, kernel_layout="IOHW", out_dtype="int32") /* ty=Tensor[(1, 192, 8, 8), int32] */;
  %411 = abs(%410) /* ty=Tensor[(1, 192, 8, 8), int32] */;
  %412 = max(%411, axis=[1], keepdims=True) /* ty=Tensor[(1, 1, 8, 8), int32] */;
  %413 = divide(%412, 127 /* ty=int32 */) /* ty=Tensor[(1, 1, 8, 8), int32] */;
  %414 = divide(%410, %413) /* ty=Tensor[(1, 192, 8, 8), int32] */;
  %415 = multiply(%408, %409) /* ty=Tensor[(1, 192, 8, 8), bool] */;
  %416 = cast(%414, dtype="int8") /* ty=Tensor[(1, 192, 8, 8), int8] */;
  %417 = zeros(shape=[1, 192, 8, 8], dtype="int8") /* ty=Tensor[(1, 192, 8, 8), int8] */;
  %418 = where(%415, %416, %417) /* ty=Tensor[(1, 192, 8, 8), int8] */;
  %419 = cast(%418, dtype="int32") /* ty=Tensor[(1, 192, 8, 8), int32] */;
  %420 = greater_equal(%76, -128 /* ty=int32 */) /* ty=Tensor[(1, 32, 8, 8), bool] */;
  %421 = less_equal(%76, 127 /* ty=int32 */) /* ty=Tensor[(1, 32, 8, 8), bool] */;
  %422 = nn.conv2d_transpose(%418, %v12_conv_0_weight, channels=32, kernel_size=[1, 1], padding=[0, 0, 0, 0], kernel_layout="IOHW", out_dtype="int32") /* ty=Tensor[(1, 32, 8, 8), int32] */;
  %423 = abs(%422) /* ty=Tensor[(1, 32, 8, 8), int32] */;
  %424 = max(%423, axis=[1], keepdims=True) /* ty=Tensor[(1, 1, 8, 8), int32] */;
  %425 = divide(%424, 127 /* ty=int32 */) /* ty=Tensor[(1, 1, 8, 8), int32] */;
  %426 = divide(%422, %425) /* ty=Tensor[(1, 32, 8, 8), int32] */;
  %427 = multiply(%420, %421) /* ty=Tensor[(1, 32, 8, 8), bool] */;
  %428 = cast(%426, dtype="int8") /* ty=Tensor[(1, 32, 8, 8), int8] */;
  %429 = zeros(shape=[1, 32, 8, 8], dtype="int8") /* ty=Tensor[(1, 32, 8, 8), int8] */;
  %430 = where(%427, %428, %429) /* ty=Tensor[(1, 32, 8, 8), int8] */;
  %431 = cast(%430, dtype="int32") /* ty=Tensor[(1, 32, 8, 8), int32] */;
  %432 = greater_equal(%74, -128 /* ty=int32 */) /* ty=Tensor[(1, 144, 8, 8), bool] */;
  %433 = less_equal(%74, 127 /* ty=int32 */) /* ty=Tensor[(1, 144, 8, 8), bool] */;
  %434 = nn.conv2d_transpose(%430, %v11_conv_2_weight, channels=144, kernel_size=[1, 1], padding=[0, 0, 0, 0], kernel_layout="IOHW", out_dtype="int32") /* ty=Tensor[(1, 144, 8, 8), int32] */;
  %435 = abs(%434) /* ty=Tensor[(1, 144, 8, 8), int32] */;
  %436 = max(%435, axis=[1], keepdims=True) /* ty=Tensor[(1, 1, 8, 8), int32] */;
  %437 = divide(%436, 127 /* ty=int32 */) /* ty=Tensor[(1, 1, 8, 8), int32] */;
  %438 = divide(%434, %437) /* ty=Tensor[(1, 144, 8, 8), int32] */;
  %439 = multiply(%432, %433) /* ty=Tensor[(1, 144, 8, 8), bool] */;
  %440 = cast(%438, dtype="int8") /* ty=Tensor[(1, 144, 8, 8), int8] */;
  %441 = zeros(shape=[1, 144, 8, 8], dtype="int8") /* ty=Tensor[(1, 144, 8, 8), int8] */;
  %442 = where(%439, %440, %441) /* ty=Tensor[(1, 144, 8, 8), int8] */;
  %443 = cast(%442, dtype="int32") /* ty=Tensor[(1, 144, 8, 8), int32] */;
  %444 = greater_equal(%72, -128 /* ty=int32 */) /* ty=Tensor[(1, 144, 8, 8), bool] */;
  %445 = less_equal(%72, 127 /* ty=int32 */) /* ty=Tensor[(1, 144, 8, 8), bool] */;
  %446 = nn.conv2d_transpose(%442, %v11_conv_1_weight, channels=144, kernel_size=[3, 3], padding=[1, 1, 1, 1], groups=144, kernel_layout="IOHW", out_dtype="int32") /* ty=Tensor[(1, 144, 8, 8), int32] */;
  %447 = abs(%446) /* ty=Tensor[(1, 144, 8, 8), int32] */;
  %448 = max(%447, axis=[1], keepdims=True) /* ty=Tensor[(1, 1, 8, 8), int32] */;
  %449 = divide(%448, 127 /* ty=int32 */) /* ty=Tensor[(1, 1, 8, 8), int32] */;
  %450 = divide(%446, %449) /* ty=Tensor[(1, 144, 8, 8), int32] */;
  %451 = multiply(%444, %445) /* ty=Tensor[(1, 144, 8, 8), bool] */;
  %452 = cast(%450, dtype="int8") /* ty=Tensor[(1, 144, 8, 8), int8] */;
  %453 = zeros(shape=[1, 144, 8, 8], dtype="int8") /* ty=Tensor[(1, 144, 8, 8), int8] */;
  %454 = where(%451, %452, %453) /* ty=Tensor[(1, 144, 8, 8), int8] */;
  %455 = cast(%454, dtype="int32") /* ty=Tensor[(1, 144, 8, 8), int32] */;
  %456 = tile(%454, reps=[1, 24, 1, 1]) /* ty=Tensor[(1, 3456, 8, 8), int8] */;
  %457 = reshape(%71, newshape=[1, -1, 0, 0]) /* ty=Tensor[(1, 24, 8, 8), int8] */;
  %458 = reshape(%456, newshape=[-1, 1, 0, 0]) /* ty=Tensor[(3456, 1, 8, 8), int8] */;
  %459 = nn.conv2d(%457, %458, padding=[0, 0, 0, 0], groups=24, out_dtype="int32") /* ty=Tensor[(1, 3456, 1, 1), int32] */;
  %460 = reshape(%459, newshape=[1, 24, 144, 1, 1]) /* ty=Tensor[(1, 24, 144, 1, 1), int32] */;
  %461 = sum(%460, axis=[0]) /* ty=Tensor[(24, 144, 1, 1), int32] */;
  %462 = transpose(%461, axes=[1, 0, 2, 3]) /* ty=Tensor[(144, 24, 1, 1), int32] */;
  %463 = abs(%462) /* ty=Tensor[(144, 24, 1, 1), int32] */;
  %464 = max(%463, axis=[1], keepdims=True) /* ty=Tensor[(144, 1, 1, 1), int32] */;
  %465 = divide(%464, 127 /* ty=int32 */) /* ty=Tensor[(144, 1, 1, 1), int32] */;
  %466 = divide(%462, %465) /* ty=Tensor[(144, 24, 1, 1), int32] */;
  %467 = cast(%63, dtype="float32") /* ty=Tensor[(1, 24, 8, 8), float32] */;
  %468 = strided_slice(%467, begin=[0, 0, 0, 0], end=[1, 12, 8, 8], strides=[1], axes=None) /* ty=Tensor[(1, 12, 8, 8), float32] */;
  %469 = greater_equal(%64, -128 /* ty=int32 */) /* ty=Tensor[(1, 144, 8, 8), bool] */;
  %470 = less_equal(%64, 127 /* ty=int32 */) /* ty=Tensor[(1, 144, 8, 8), bool] */;
  %471 = greater_equal(%66, -128 /* ty=int32 */) /* ty=Tensor[(1, 144, 8, 8), bool] */;
  %472 = less_equal(%66, 127 /* ty=int32 */) /* ty=Tensor[(1, 144, 8, 8), bool] */;
  %473 = greater_equal(%68, -128 /* ty=int32 */) /* ty=Tensor[(1, 24, 8, 8), bool] */;
  %474 = less_equal(%68, 127 /* ty=int32 */) /* ty=Tensor[(1, 24, 8, 8), bool] */;
  %475 = greater_equal(%70, meta[relay.Constant][8] /* ty=int8 */) /* ty=Tensor[(1, 24, 8, 8), bool] */;
  %476 = less_equal(%70, meta[relay.Constant][9] /* ty=int8 */) /* ty=Tensor[(1, 24, 8, 8), bool] */;
  %477 = nn.conv2d_transpose(%454, %v11_conv_0_weight, channels=24, kernel_size=[1, 1], padding=[0, 0, 0, 0], kernel_layout="IOHW", out_dtype="int32") /* ty=Tensor[(1, 24, 8, 8), int32] */;
  %478 = abs(%477) /* ty=Tensor[(1, 24, 8, 8), int32] */;
  %479 = max(%478, axis=[1], keepdims=True) /* ty=Tensor[(1, 1, 8, 8), int32] */;
  %480 = divide(%479, 127 /* ty=int32 */) /* ty=Tensor[(1, 1, 8, 8), int32] */;
  %481 = divide(%477, %480) /* ty=Tensor[(1, 24, 8, 8), int32] */;
  %482 = multiply(%475, %476) /* ty=Tensor[(1, 24, 8, 8), bool] */;
  %483 = cast(%481, dtype="int8") /* ty=Tensor[(1, 24, 8, 8), int8] */;
  %484 = zeros(shape=[1, 24, 8, 8], dtype="int8") /* ty=Tensor[(1, 24, 8, 8), int8] */;
  %485 = where(%482, %483, %484) /* ty=Tensor[(1, 24, 8, 8), int8] */;
  %486 = cast(%485, dtype="float32") /* ty=Tensor[(1, 24, 8, 8), float32] */;
  %487 = reshape(%v10_qadd_scale_y, newshape=[1, -1, 1, 1]) /* ty=Tensor[(1, 1, 1, 1), float32] */;
  %488 = divide(%486, %487) /* ty=Tensor[(1, 24, 8, 8), float32] */;
  %489 = reshape(%v10_qadd_scale_x2, newshape=[1, -1, 1, 1]) /* ty=Tensor[(1, 1, 1, 1), float32] */;
  %490 = multiply(%488, %489) /* ty=Tensor[(1, 24, 8, 8), float32] */;
  %491 = multiply(%473, %474) /* ty=Tensor[(1, 24, 8, 8), bool] */;
  %492 = cast(%490, dtype="int8") /* ty=Tensor[(1, 24, 8, 8), int8] */;
  %493 = zeros(shape=[1, 24, 8, 8], dtype="int8") /* ty=Tensor[(1, 24, 8, 8), int8] */;
  %494 = where(%491, %492, %493) /* ty=Tensor[(1, 24, 8, 8), int8] */;
  %495 = nn.conv2d_transpose(%494, %v10_conv_2_weight, channels=144, kernel_size=[1, 1], padding=[0, 0, 0, 0], kernel_layout="IOHW", out_dtype="int32") /* ty=Tensor[(1, 144, 8, 8), int32] */;
  %496 = abs(%495) /* ty=Tensor[(1, 144, 8, 8), int32] */;
  %497 = max(%496, axis=[1], keepdims=True) /* ty=Tensor[(1, 1, 8, 8), int32] */;
  %498 = divide(%497, 127 /* ty=int32 */) /* ty=Tensor[(1, 1, 8, 8), int32] */;
  %499 = divide(%495, %498) /* ty=Tensor[(1, 144, 8, 8), int32] */;
  %500 = multiply(%471, %472) /* ty=Tensor[(1, 144, 8, 8), bool] */;
  %501 = cast(%499, dtype="int8") /* ty=Tensor[(1, 144, 8, 8), int8] */;
  %502 = zeros(shape=[1, 144, 8, 8], dtype="int8") /* ty=Tensor[(1, 144, 8, 8), int8] */;
  %503 = where(%500, %501, %502) /* ty=Tensor[(1, 144, 8, 8), int8] */;
  %504 = nn.conv2d_transpose(%503, %v10_conv_1_weight, channels=144, kernel_size=[3, 3], padding=[1, 1, 1, 1], groups=144, kernel_layout="IOHW", out_dtype="int32") /* ty=Tensor[(1, 144, 8, 8), int32] */;
  %505 = abs(%504) /* ty=Tensor[(1, 144, 8, 8), int32] */;
  %506 = max(%505, axis=[1], keepdims=True) /* ty=Tensor[(1, 1, 8, 8), int32] */;
  %507 = divide(%506, 127 /* ty=int32 */) /* ty=Tensor[(1, 1, 8, 8), int32] */;
  %508 = divide(%504, %507) /* ty=Tensor[(1, 144, 8, 8), int32] */;
  %509 = multiply(%469, %470) /* ty=Tensor[(1, 144, 8, 8), bool] */;
  %510 = cast(%508, dtype="int8") /* ty=Tensor[(1, 144, 8, 8), int8] */;
  %511 = zeros(shape=[1, 144, 8, 8], dtype="int8") /* ty=Tensor[(1, 144, 8, 8), int8] */;
  %512 = where(%509, %510, %511) /* ty=Tensor[(1, 144, 8, 8), int8] */;
  %513 = cast(%512, dtype="float32") /* ty=Tensor[(1, 144, 8, 8), float32] */;
  %514 = reshape(%v10_conv_0_scale, newshape=[1, -1, 1, 1]) /* ty=Tensor[(1, 144, 1, 1), float32] */;
  %515 = multiply(%513, %514) /* ty=Tensor[(1, 144, 8, 8), float32] */;
  %516 = tile(%515, reps=[1, 12, 1, 1]) /* ty=Tensor[(1, 1728, 8, 8), float32] */;
  %517 = reshape(%468, newshape=[1, -1, 0, 0]) /* ty=Tensor[(1, 12, 8, 8), float32] */;
  %518 = reshape(%516, newshape=[-1, 1, 0, 0]) /* ty=Tensor[(1728, 1, 8, 8), float32] */;
  %519 = nn.conv2d(%517, %518, padding=[0, 0, 0, 0], groups=12) /* ty=Tensor[(1, 1728, 1, 1), float32] */;
  %520 = reshape(%519, newshape=[1, 12, 144, 1, 1]) /* ty=Tensor[(1, 12, 144, 1, 1), float32] */;
  %521 = sum(%520, axis=[0]) /* ty=Tensor[(12, 144, 1, 1), float32] */;
  %522 = greater_equal(%56, -128 /* ty=int32 */) /* ty=Tensor[(1, 144, 8, 8), bool] */;
  %523 = less_equal(%56, 127 /* ty=int32 */) /* ty=Tensor[(1, 144, 8, 8), bool] */;
  %524 = greater_equal(%58, -128 /* ty=int32 */) /* ty=Tensor[(1, 144, 8, 8), bool] */;
  %525 = less_equal(%58, 127 /* ty=int32 */) /* ty=Tensor[(1, 144, 8, 8), bool] */;
  %526 = greater_equal(%60, -128 /* ty=int32 */) /* ty=Tensor[(1, 24, 8, 8), bool] */;
  %527 = less_equal(%60, 127 /* ty=int32 */) /* ty=Tensor[(1, 24, 8, 8), bool] */;
  %528 = greater_equal(%62, meta[relay.Constant][10] /* ty=int8 */) /* ty=Tensor[(1, 24, 8, 8), bool] */;
  %529 = less_equal(%62, meta[relay.Constant][11] /* ty=int8 */) /* ty=Tensor[(1, 24, 8, 8), bool] */;
  %530 = cast(%v10_conv_0_weight, dtype="float32") /* ty=Tensor[(144, 24, 1, 1), float32] */;
  %531 = multiply(%528, %529) /* ty=Tensor[(1, 24, 8, 8), bool] */;
  %532 = nn.conv2d_transpose(%515, %530, channels=24, kernel_size=[1, 1], padding=[0, 0, 0, 0], kernel_layout="IOHW") /* ty=Tensor[(1, 24, 8, 8), float32] */;
  %533 = zeros(shape=[1, 24, 8, 8], dtype="float32") /* ty=Tensor[(1, 24, 8, 8), float32] */;
  %534 = where(%531, %532, %533) /* ty=Tensor[(1, 24, 8, 8), float32] */;
  %535 = reshape(%v9_qadd_scale_y, newshape=[1, -1, 1, 1]) /* ty=Tensor[(1, 1, 1, 1), float32] */;
  %536 = divide(%534, %535) /* ty=Tensor[(1, 24, 8, 8), float32] */;
  %537 = reshape(%v9_qadd_scale_x2, newshape=[1, -1, 1, 1]) /* ty=Tensor[(1, 1, 1, 1), float32] */;
  %538 = multiply(%526, %527) /* ty=Tensor[(1, 24, 8, 8), bool] */;
  %539 = multiply(%536, %537) /* ty=Tensor[(1, 24, 8, 8), float32] */;
  %540 = zeros(shape=[1, 24, 8, 8], dtype="float32") /* ty=Tensor[(1, 24, 8, 8), float32] */;
  %541 = where(%538, %539, %540) /* ty=Tensor[(1, 24, 8, 8), float32] */;
  %542 = cast(%v9_conv_2_weight, dtype="float32") /* ty=Tensor[(24, 144, 1, 1), float32] */;
  %543 = nn.conv2d_transpose(%541, %542, channels=144, kernel_size=[1, 1], padding=[0, 0, 0, 0], kernel_layout="IOHW", out_dtype="float32") /* ty=Tensor[(1, 144, 8, 8), float32] */;
  %544 = abs(%543) /* ty=Tensor[(1, 144, 8, 8), float32] */;
  %545 = max(%544, axis=[1], keepdims=True) /* ty=Tensor[(1, 1, 8, 8), float32] */;
  %546 = divide(%545, 127f /* ty=float32 */) /* ty=Tensor[(1, 1, 8, 8), float32] */;
  %547 = divide(%543, %546) /* ty=Tensor[(1, 144, 8, 8), float32] */;
  %548 = multiply(%524, %525) /* ty=Tensor[(1, 144, 8, 8), bool] */;
  %549 = cast(%547, dtype="int8") /* ty=Tensor[(1, 144, 8, 8), int8] */;
  %550 = zeros(shape=[1, 144, 8, 8], dtype="int8") /* ty=Tensor[(1, 144, 8, 8), int8] */;
  %551 = where(%548, %549, %550) /* ty=Tensor[(1, 144, 8, 8), int8] */;
  %552 = nn.conv2d_transpose(%551, %v9_conv_1_weight, channels=144, kernel_size=[3, 3], padding=[1, 1, 1, 1], groups=144, kernel_layout="IOHW", out_dtype="int32") /* ty=Tensor[(1, 144, 8, 8), int32] */;
  %553 = abs(%552) /* ty=Tensor[(1, 144, 8, 8), int32] */;
  %554 = max(%553, axis=[1], keepdims=True) /* ty=Tensor[(1, 1, 8, 8), int32] */;
  %555 = divide(%554, 127 /* ty=int32 */) /* ty=Tensor[(1, 1, 8, 8), int32] */;
  %556 = divide(%552, %555) /* ty=Tensor[(1, 144, 8, 8), int32] */;
  %557 = multiply(%522, %523) /* ty=Tensor[(1, 144, 8, 8), bool] */;
  %558 = cast(%556, dtype="int8") /* ty=Tensor[(1, 144, 8, 8), int8] */;
  %559 = zeros(shape=[1, 144, 8, 8], dtype="int8") /* ty=Tensor[(1, 144, 8, 8), int8] */;
  %560 = where(%557, %558, %559) /* ty=Tensor[(1, 144, 8, 8), int8] */;
  %561 = tile(%560, reps=[1, 24, 1, 1]) /* ty=Tensor[(1, 3456, 8, 8), int8] */;
  %562 = reshape(%55, newshape=[1, -1, 0, 0]) /* ty=Tensor[(1, 24, 8, 8), int8] */;
  %563 = reshape(%561, newshape=[-1, 1, 0, 0]) /* ty=Tensor[(3456, 1, 8, 8), int8] */;
  %564 = nn.conv2d(%562, %563, padding=[0, 0, 0, 0], groups=24, out_dtype="int32") /* ty=Tensor[(1, 3456, 1, 1), int32] */;
  %565 = reshape(%564, newshape=[1, 24, 144, 1, 1]) /* ty=Tensor[(1, 24, 144, 1, 1), int32] */;
  %566 = sum(%565, axis=[0]) /* ty=Tensor[(24, 144, 1, 1), int32] */;
  %567 = transpose(%566, axes=[1, 0, 2, 3]) /* ty=Tensor[(144, 24, 1, 1), int32] */;
  %568 = abs(%567) /* ty=Tensor[(144, 24, 1, 1), int32] */;
  %569 = max(%568, axis=[1], keepdims=True) /* ty=Tensor[(144, 1, 1, 1), int32] */;
  %570 = divide(%569, 127 /* ty=int32 */) /* ty=Tensor[(144, 1, 1, 1), int32] */;
  %571 = divide(%567, %570) /* ty=Tensor[(144, 24, 1, 1), int32] */;
  %572 = greater_equal(%48, -128 /* ty=int32 */) /* ty=Tensor[(1, 144, 8, 8), bool] */;
  %573 = less_equal(%48, 127 /* ty=int32 */) /* ty=Tensor[(1, 144, 8, 8), bool] */;
  %574 = greater_equal(%50, -128 /* ty=int32 */) /* ty=Tensor[(1, 144, 8, 8), bool] */;
  %575 = less_equal(%50, 127 /* ty=int32 */) /* ty=Tensor[(1, 144, 8, 8), bool] */;
  %576 = greater_equal(%52, -128 /* ty=int32 */) /* ty=Tensor[(1, 24, 8, 8), bool] */;
  %577 = less_equal(%52, 127 /* ty=int32 */) /* ty=Tensor[(1, 24, 8, 8), bool] */;
  %578 = greater_equal(%54, meta[relay.Constant][12] /* ty=int8 */) /* ty=Tensor[(1, 24, 8, 8), bool] */;
  %579 = less_equal(%54, meta[relay.Constant][13] /* ty=int8 */) /* ty=Tensor[(1, 24, 8, 8), bool] */;
  %580 = nn.conv2d_transpose(%560, %v9_conv_0_weight, channels=24, kernel_size=[1, 1], padding=[0, 0, 0, 0], kernel_layout="IOHW", out_dtype="int32") /* ty=Tensor[(1, 24, 8, 8), int32] */;
  %581 = abs(%580) /* ty=Tensor[(1, 24, 8, 8), int32] */;
  %582 = max(%581, axis=[1], keepdims=True) /* ty=Tensor[(1, 1, 8, 8), int32] */;
  %583 = divide(%582, 127 /* ty=int32 */) /* ty=Tensor[(1, 1, 8, 8), int32] */;
  %584 = divide(%580, %583) /* ty=Tensor[(1, 24, 8, 8), int32] */;
  %585 = multiply(%578, %579) /* ty=Tensor[(1, 24, 8, 8), bool] */;
  %586 = cast(%584, dtype="int8") /* ty=Tensor[(1, 24, 8, 8), int8] */;
  %587 = zeros(shape=[1, 24, 8, 8], dtype="int8") /* ty=Tensor[(1, 24, 8, 8), int8] */;
  %588 = where(%585, %586, %587) /* ty=Tensor[(1, 24, 8, 8), int8] */;
  %589 = cast(%588, dtype="float32") /* ty=Tensor[(1, 24, 8, 8), float32] */;
  %590 = reshape(%v8_qadd_scale_y, newshape=[1, -1, 1, 1]) /* ty=Tensor[(1, 1, 1, 1), float32] */;
  %591 = divide(%589, %590) /* ty=Tensor[(1, 24, 8, 8), float32] */;
  %592 = reshape(%v8_qadd_scale_x2, newshape=[1, -1, 1, 1]) /* ty=Tensor[(1, 1, 1, 1), float32] */;
  %593 = multiply(%591, %592) /* ty=Tensor[(1, 24, 8, 8), float32] */;
  %594 = multiply(%576, %577) /* ty=Tensor[(1, 24, 8, 8), bool] */;
  %595 = cast(%593, dtype="int8") /* ty=Tensor[(1, 24, 8, 8), int8] */;
  %596 = zeros(shape=[1, 24, 8, 8], dtype="int8") /* ty=Tensor[(1, 24, 8, 8), int8] */;
  %597 = where(%594, %595, %596) /* ty=Tensor[(1, 24, 8, 8), int8] */;
  %598 = nn.conv2d_transpose(%597, %v8_conv_2_weight, channels=144, kernel_size=[1, 1], padding=[0, 0, 0, 0], kernel_layout="IOHW", out_dtype="int32") /* ty=Tensor[(1, 144, 8, 8), int32] */;
  %599 = abs(%598) /* ty=Tensor[(1, 144, 8, 8), int32] */;
  %600 = max(%599, axis=[1], keepdims=True) /* ty=Tensor[(1, 1, 8, 8), int32] */;
  %601 = divide(%600, 127 /* ty=int32 */) /* ty=Tensor[(1, 1, 8, 8), int32] */;
  %602 = divide(%598, %601) /* ty=Tensor[(1, 144, 8, 8), int32] */;
  %603 = multiply(%574, %575) /* ty=Tensor[(1, 144, 8, 8), bool] */;
  %604 = cast(%602, dtype="int8") /* ty=Tensor[(1, 144, 8, 8), int8] */;
  %605 = zeros(shape=[1, 144, 8, 8], dtype="int8") /* ty=Tensor[(1, 144, 8, 8), int8] */;
  %606 = where(%603, %604, %605) /* ty=Tensor[(1, 144, 8, 8), int8] */;
  %607 = nn.conv2d_transpose(%606, %v8_conv_1_weight, channels=144, kernel_size=[3, 3], padding=[1, 1, 1, 1], groups=144, kernel_layout="IOHW", out_dtype="int32") /* ty=Tensor[(1, 144, 8, 8), int32] */;
  %608 = abs(%607) /* ty=Tensor[(1, 144, 8, 8), int32] */;
  %609 = max(%608, axis=[1], keepdims=True) /* ty=Tensor[(1, 1, 8, 8), int32] */;
  %610 = divide(%609, 127 /* ty=int32 */) /* ty=Tensor[(1, 1, 8, 8), int32] */;
  %611 = divide(%607, %610) /* ty=Tensor[(1, 144, 8, 8), int32] */;
  %612 = multiply(%572, %573) /* ty=Tensor[(1, 144, 8, 8), bool] */;
  %613 = cast(%611, dtype="int8") /* ty=Tensor[(1, 144, 8, 8), int8] */;
  %614 = zeros(shape=[1, 144, 8, 8], dtype="int8") /* ty=Tensor[(1, 144, 8, 8), int8] */;
  %615 = where(%612, %613, %614) /* ty=Tensor[(1, 144, 8, 8), int8] */;
  %616 = tile(%615, reps=[1, 24, 1, 1]) /* ty=Tensor[(1, 3456, 8, 8), int8] */;
  %617 = reshape(%47, newshape=[1, -1, 0, 0]) /* ty=Tensor[(1, 24, 8, 8), int8] */;
  %618 = reshape(%616, newshape=[-1, 1, 0, 0]) /* ty=Tensor[(3456, 1, 8, 8), int8] */;
  %619 = nn.conv2d(%617, %618, padding=[0, 0, 0, 0], groups=24, out_dtype="int32") /* ty=Tensor[(1, 3456, 1, 1), int32] */;
  %620 = reshape(%619, newshape=[1, 24, 144, 1, 1]) /* ty=Tensor[(1, 24, 144, 1, 1), int32] */;
  %621 = sum(%620, axis=[0]) /* ty=Tensor[(24, 144, 1, 1), int32] */;
  %622 = transpose(%621, axes=[1, 0, 2, 3]) /* ty=Tensor[(144, 24, 1, 1), int32] */;
  %623 = abs(%622) /* ty=Tensor[(144, 24, 1, 1), int32] */;
  %624 = max(%623, axis=[1], keepdims=True) /* ty=Tensor[(144, 1, 1, 1), int32] */;
  %625 = divide(%624, 127 /* ty=int32 */) /* ty=Tensor[(144, 1, 1, 1), int32] */;
  %626 = divide(%622, %625) /* ty=Tensor[(144, 24, 1, 1), int32] */;
  %627 = nn.cross_entropy_with_logits(%127, %label) /* ty=float32 */;
  %628 = sum(%141, axis=[1], exclude=True) /* ty=Tensor[(10), int32] */;
  %629 = cast(%153, dtype="int8") /* ty=Tensor[(10, 112, 1, 1), int8] */;
  %630 = sum(%170, axis=[1], exclude=True) /* ty=Tensor[(112), int32] */;
  %631 = sum(%183, axis=[1], exclude=True) /* ty=Tensor[(336), int32] */;
  %632 = sum(%195, axis=[1], exclude=True) /* ty=Tensor[(336), int32] */;
  %633 = sum(%218, axis=[1], exclude=True) /* ty=Tensor[(56), int32] */;
  %634 = sum(%230, axis=[1], exclude=True) /* ty=Tensor[(336), int32] */;
  %635 = sum(%242, axis=[1], exclude=True) /* ty=Tensor[(336), int32] */;
  %636 = sum(%265, axis=[1], exclude=True) /* ty=Tensor[(56), int32] */;
  %637 = sum(%277, axis=[1], exclude=True) /* ty=Tensor[(336), int32] */;
  %638 = sum(%289, axis=[1], exclude=True) /* ty=Tensor[(336), int32] */;
  %639 = sum(%301, axis=[1], exclude=True) /* ty=Tensor[(56), int32] */;
  %640 = sum(%313, axis=[1], exclude=True) /* ty=Tensor[(192), int32] */;
  %641 = sum(%325, axis=[1], exclude=True) /* ty=Tensor[(192), int32] */;
  %642 = sum(%348, axis=[1], exclude=True) /* ty=Tensor[(32), int32] */;
  %643 = sum(%360, axis=[1], exclude=True) /* ty=Tensor[(192), int32] */;
  %644 = sum(%372, axis=[1], exclude=True) /* ty=Tensor[(192), int32] */;
  %645 = sum(%395, axis=[1], exclude=True) /* ty=Tensor[(32), int32] */;
  %646 = sum(%407, axis=[1], exclude=True) /* ty=Tensor[(192), int32] */;
  %647 = sum(%419, axis=[1], exclude=True) /* ty=Tensor[(192), int32] */;
  %648 = sum(%431, axis=[1], exclude=True) /* ty=Tensor[(32), int32] */;
  %649 = sum(%443, axis=[1], exclude=True) /* ty=Tensor[(144), int32] */;
  %650 = sum(%455, axis=[1], exclude=True) /* ty=Tensor[(144), int32] */;
  %651 = cast(%466, dtype="int8") /* ty=Tensor[(144, 24, 1, 1), int8] */;
  %652 = transpose(%521, axes=[1, 0, 2, 3]) /* ty=Tensor[(144, 12, 1, 1), float32] */;
  %653 = cast(%571, dtype="int8") /* ty=Tensor[(144, 24, 1, 1), int8] */;
  %654 = cast(%626, dtype="int8") /* ty=Tensor[(144, 24, 1, 1), int8] */;
  (%627, %628, %629, %630, %631, %632, %633, %634, %635, %636, %637, %638, %639, %640, %641, %642, %643, %644, %645, %646, %647, %648, %649, %650, %651, %652, %653, %654)
}

