def @main(%input: Tensor[(1, 3, 128, 128), int8], %v0_weight: Tensor[(16, 3, 3, 3), int8], %v0_bias: Tensor[(16), int32], %v0_zero_x: Tensor[(1), int8], %v0_zero_y: Tensor[(1), int8], %v0_scale: Tensor[(16), float32], %v1_conv_0_weight: Tensor[(16, 1, 3, 3), int8], %v1_conv_0_bias: Tensor[(16), int32], %v1_conv_0_zero_x: Tensor[(1), int8], %v1_conv_0_zero_y: Tensor[(1), int8], %v1_conv_0_scale: Tensor[(16), float32], %v1_conv_1_weight: Tensor[(8, 16, 1, 1), int8], %v1_conv_1_bias: Tensor[(8), int32], %v1_conv_1_zero_x: Tensor[(1), int8], %v1_conv_1_zero_y: Tensor[(1), int8], %v1_conv_1_scale: Tensor[(8), float32], %v2_conv_0_weight: Tensor[(48, 8, 1, 1), int8], %v2_conv_0_bias: Tensor[(48), int32], %v2_conv_0_zero_x: Tensor[(1), int8], %v2_conv_0_zero_y: Tensor[(1), int8], %v2_conv_0_scale: Tensor[(48), float32], %v2_conv_1_weight: Tensor[(48, 1, 3, 3), int8], %v2_conv_1_bias: Tensor[(48), int32], %v2_conv_1_zero_x: Tensor[(1), int8], %v2_conv_1_zero_y: Tensor[(1), int8], %v2_conv_1_scale: Tensor[(48), float32], %v2_conv_2_weight: Tensor[(8, 48, 1, 1), int8], %v2_conv_2_bias: Tensor[(8), int32], %v2_conv_2_zero_x: Tensor[(1), int8], %v2_conv_2_zero_y: Tensor[(1), int8], %v2_conv_2_scale: Tensor[(8), float32], %v3_conv_0_weight: Tensor[(48, 8, 1, 1), int8], %v3_conv_0_bias: Tensor[(48), int32], %v3_conv_0_zero_x: Tensor[(1), int8], %v3_conv_0_zero_y: Tensor[(1), int8], %v3_conv_0_scale: Tensor[(48), float32], %v3_conv_1_weight: Tensor[(48, 1, 3, 3), int8], %v3_conv_1_bias: Tensor[(48), int32], %v3_conv_1_zero_x: Tensor[(1), int8], %v3_conv_1_zero_y: Tensor[(1), int8], %v3_conv_1_scale: Tensor[(48), float32], %v3_conv_2_weight: Tensor[(8, 48, 1, 1), int8], %v3_conv_2_bias: Tensor[(8), int32], %v3_conv_2_zero_x: Tensor[(1), int8], %v3_conv_2_zero_y: Tensor[(1), int8], %v3_conv_2_scale: Tensor[(8), float32], %v3_qadd_zero_x1: Tensor[(1), int8], %v3_qadd_zero_x2: Tensor[(1), int8], %v3_qadd_scale_x1: Tensor[(1), float32], %v3_qadd_scale_x2: Tensor[(1), float32], %v3_qadd_zero_y: Tensor[(1), int8], %v3_qadd_scale_y: Tensor[(1), float32], %v4_conv_0_weight: Tensor[(48, 8, 1, 1), int8], %v4_conv_0_bias: Tensor[(48), int32], %v4_conv_0_zero_x: Tensor[(1), int8], %v4_conv_0_zero_y: Tensor[(1), int8], %v4_conv_0_scale: Tensor[(48), float32], %v4_conv_1_weight: Tensor[(48, 1, 3, 3), int8], %v4_conv_1_bias: Tensor[(48), int32], %v4_conv_1_zero_x: Tensor[(1), int8], %v4_conv_1_zero_y: Tensor[(1), int8], %v4_conv_1_scale: Tensor[(48), float32], %v4_conv_2_weight: Tensor[(16, 48, 1, 1), int8], %v4_conv_2_bias: Tensor[(16), int32], %v4_conv_2_zero_x: Tensor[(1), int8], %v4_conv_2_zero_y: Tensor[(1), int8], %v4_conv_2_scale: Tensor[(16), float32], %v5_conv_0_weight: Tensor[(96, 16, 1, 1), int8], %v5_conv_0_bias: Tensor[(96), int32], %v5_conv_0_zero_x: Tensor[(1), int8], %v5_conv_0_zero_y: Tensor[(1), int8], %v5_conv_0_scale: Tensor[(96), float32], %v5_conv_1_weight: Tensor[(96, 1, 3, 3), int8], %v5_conv_1_bias: Tensor[(96), int32], %v5_conv_1_zero_x: Tensor[(1), int8], %v5_conv_1_zero_y: Tensor[(1), int8], %v5_conv_1_scale: Tensor[(96), float32], %v5_conv_2_weight: Tensor[(16, 96, 1, 1), int8], %v5_conv_2_bias: Tensor[(16), int32], %v5_conv_2_zero_x: Tensor[(1), int8], %v5_conv_2_zero_y: Tensor[(1), int8], %v5_conv_2_scale: Tensor[(16), float32], %v5_qadd_zero_x1: Tensor[(1), int8], %v5_qadd_zero_x2: Tensor[(1), int8], %v5_qadd_scale_x1: Tensor[(1), float32], %v5_qadd_scale_x2: Tensor[(1), float32], %v5_qadd_zero_y: Tensor[(1), int8], %v5_qadd_scale_y: Tensor[(1), float32], %v6_conv_0_weight: Tensor[(96, 16, 1, 1), int8], %v6_conv_0_bias: Tensor[(96), int32], %v6_conv_0_zero_x: Tensor[(1), int8], %v6_conv_0_zero_y: Tensor[(1), int8], %v6_conv_0_scale: Tensor[(96), float32], %v6_conv_1_weight: Tensor[(96, 1, 3, 3), int8], %v6_conv_1_bias: Tensor[(96), int32], %v6_conv_1_zero_x: Tensor[(1), int8], %v6_conv_1_zero_y: Tensor[(1), int8], %v6_conv_1_scale: Tensor[(96), float32], %v6_conv_2_weight: Tensor[(16, 96, 1, 1), int8], %v6_conv_2_bias: Tensor[(16), int32], %v6_conv_2_zero_x: Tensor[(1), int8], %v6_conv_2_zero_y: Tensor[(1), int8], %v6_conv_2_scale: Tensor[(16), float32], %v6_qadd_zero_x1: Tensor[(1), int8], %v6_qadd_zero_x2: Tensor[(1), int8], %v6_qadd_scale_x1: Tensor[(1), float32], %v6_qadd_scale_x2: Tensor[(1), float32], %v6_qadd_zero_y: Tensor[(1), int8], %v6_qadd_scale_y: Tensor[(1), float32], %v7_conv_0_weight: Tensor[(96, 16, 1, 1), int8], %v7_conv_0_bias: Tensor[(96), int32], %v7_conv_0_zero_x: Tensor[(1), int8], %v7_conv_0_zero_y: Tensor[(1), int8], %v7_conv_0_scale: Tensor[(96), float32], %v7_conv_1_weight: Tensor[(96, 1, 3, 3), int8], %v7_conv_1_bias: Tensor[(96), int32], %v7_conv_1_zero_x: Tensor[(1), int8], %v7_conv_1_zero_y: Tensor[(1), int8], %v7_conv_1_scale: Tensor[(96), float32], %v7_conv_2_weight: Tensor[(24, 96, 1, 1), int8], %v7_conv_2_bias: Tensor[(24), int32], %v7_conv_2_zero_x: Tensor[(1), int8], %v7_conv_2_zero_y: Tensor[(1), int8], %v7_conv_2_scale: Tensor[(24), float32], %v8_conv_0_weight: Tensor[(144, 24, 1, 1), int8], %v8_conv_0_bias: Tensor[(144), int32], %v8_conv_0_zero_x: Tensor[(1), int8], %v8_conv_0_zero_y: Tensor[(1), int8], %v8_conv_0_scale: Tensor[(144), float32], %v8_conv_1_weight: Tensor[(144, 1, 3, 3), int8], %v8_conv_1_bias: Tensor[(144), int32], %v8_conv_1_zero_x: Tensor[(1), int8], %v8_conv_1_zero_y: Tensor[(1), int8], %v8_conv_1_scale: Tensor[(144), float32], %v8_conv_2_weight: Tensor[(24, 144, 1, 1), int8], %v8_conv_2_bias: Tensor[(24), int32], %v8_conv_2_zero_x: Tensor[(1), int8], %v8_conv_2_zero_y: Tensor[(1), int8], %v8_conv_2_scale: Tensor[(24), float32], %v8_qadd_zero_x1: Tensor[(1), int8], %v8_qadd_zero_x2: Tensor[(1), int8], %v8_qadd_scale_x1: Tensor[(1), float32], %v8_qadd_scale_x2: Tensor[(1), float32], %v8_qadd_zero_y: Tensor[(1), int8], %v8_qadd_scale_y: Tensor[(1), float32], %v9_conv_0_weight: Tensor[(144, 24, 1, 1), int8], %v9_conv_0_bias: Tensor[(144), int32], %v9_conv_0_zero_x: Tensor[(1), int8], %v9_conv_0_zero_y: Tensor[(1), int8], %v9_conv_0_scale: Tensor[(144), float32], %v9_conv_1_weight: Tensor[(144, 1, 3, 3), int8], %v9_conv_1_bias: Tensor[(144), int32], %v9_conv_1_zero_x: Tensor[(1), int8], %v9_conv_1_zero_y: Tensor[(1), int8], %v9_conv_1_scale: Tensor[(144), float32], %v9_conv_2_weight: Tensor[(24, 144, 1, 1), int8], %v9_conv_2_bias: Tensor[(24), int32], %v9_conv_2_zero_x: Tensor[(1), int8], %v9_conv_2_zero_y: Tensor[(1), int8], %v9_conv_2_scale: Tensor[(24), float32], %v9_qadd_zero_x1: Tensor[(1), int8], %v9_qadd_zero_x2: Tensor[(1), int8], %v9_qadd_scale_x1: Tensor[(1), float32], %v9_qadd_scale_x2: Tensor[(1), float32], %v9_qadd_zero_y: Tensor[(1), int8], %v9_qadd_scale_y: Tensor[(1), float32], %v10_conv_0_weight: Tensor[(144, 24, 1, 1), int8], %v10_conv_0_bias: Tensor[(144), int32], %v10_conv_0_zero_x: Tensor[(1), int8], %v10_conv_0_zero_y: Tensor[(1), int8], %v10_conv_0_scale: Tensor[(144), float32], %v10_conv_1_weight: Tensor[(144, 1, 3, 3), int8], %v10_conv_1_bias: Tensor[(144), int32], %v10_conv_1_zero_x: Tensor[(1), int8], %v10_conv_1_zero_y: Tensor[(1), int8], %v10_conv_1_scale: Tensor[(144), float32], %v10_conv_2_weight: Tensor[(24, 144, 1, 1), int8], %v10_conv_2_bias: Tensor[(24), int32], %v10_conv_2_zero_x: Tensor[(1), int8], %v10_conv_2_zero_y: Tensor[(1), int8], %v10_conv_2_scale: Tensor[(24), float32], %v10_qadd_zero_x1: Tensor[(1), int8], %v10_qadd_zero_x2: Tensor[(1), int8], %v10_qadd_scale_x1: Tensor[(1), float32], %v10_qadd_scale_x2: Tensor[(1), float32], %v10_qadd_zero_y: Tensor[(1), int8], %v10_qadd_scale_y: Tensor[(1), float32], %v11_conv_0_weight: Tensor[(144, 24, 1, 1), int8], %v11_conv_0_bias: Tensor[(144), int32], %v11_conv_0_zero_x: Tensor[(1), int8], %v11_conv_0_zero_y: Tensor[(1), int8], %v11_conv_0_scale: Tensor[(144), float32], %v11_conv_1_weight: Tensor[(144, 1, 3, 3), int8], %v11_conv_1_bias: Tensor[(144), int32], %v11_conv_1_zero_x: Tensor[(1), int8], %v11_conv_1_zero_y: Tensor[(1), int8], %v11_conv_1_scale: Tensor[(144), float32], %v11_conv_2_weight: Tensor[(32, 144, 1, 1), int8], %v11_conv_2_bias: Tensor[(32), int32], %v11_conv_2_zero_x: Tensor[(1), int8], %v11_conv_2_zero_y: Tensor[(1), int8], %v11_conv_2_scale: Tensor[(32), float32], %v12_conv_0_weight: Tensor[(192, 32, 1, 1), int8], %v12_conv_0_bias: Tensor[(192), int32], %v12_conv_0_zero_x: Tensor[(1), int8], %v12_conv_0_zero_y: Tensor[(1), int8], %v12_conv_0_scale: Tensor[(192), float32], %v12_conv_1_weight: Tensor[(192, 1, 3, 3), int8], %v12_conv_1_bias: Tensor[(192), int32], %v12_conv_1_zero_x: Tensor[(1), int8], %v12_conv_1_zero_y: Tensor[(1), int8], %v12_conv_1_scale: Tensor[(192), float32], %v12_conv_2_weight: Tensor[(32, 192, 1, 1), int8], %v12_conv_2_bias: Tensor[(32), int32], %v12_conv_2_zero_x: Tensor[(1), int8], %v12_conv_2_zero_y: Tensor[(1), int8], %v12_conv_2_scale: Tensor[(32), float32], %v12_qadd_zero_x1: Tensor[(1), int8], %v12_qadd_zero_x2: Tensor[(1), int8], %v12_qadd_scale_x1: Tensor[(1), float32], %v12_qadd_scale_x2: Tensor[(1), float32], %v12_qadd_zero_y: Tensor[(1), int8], %v12_qadd_scale_y: Tensor[(1), float32], %v13_conv_0_weight: Tensor[(192, 32, 1, 1), int8], %v13_conv_0_bias: Tensor[(192), int32], %v13_conv_0_zero_x: Tensor[(1), int8], %v13_conv_0_zero_y: Tensor[(1), int8], %v13_conv_0_scale: Tensor[(192), float32], %v13_conv_1_weight: Tensor[(192, 1, 3, 3), int8], %v13_conv_1_bias: Tensor[(192), int32], %v13_conv_1_zero_x: Tensor[(1), int8], %v13_conv_1_zero_y: Tensor[(1), int8], %v13_conv_1_scale: Tensor[(192), float32], %v13_conv_2_weight: Tensor[(32, 192, 1, 1), int8], %v13_conv_2_bias: Tensor[(32), int32], %v13_conv_2_zero_x: Tensor[(1), int8], %v13_conv_2_zero_y: Tensor[(1), int8], %v13_conv_2_scale: Tensor[(32), float32], %v13_qadd_zero_x1: Tensor[(1), int8], %v13_qadd_zero_x2: Tensor[(1), int8], %v13_qadd_scale_x1: Tensor[(1), float32], %v13_qadd_scale_x2: Tensor[(1), float32], %v13_qadd_zero_y: Tensor[(1), int8], %v13_qadd_scale_y: Tensor[(1), float32], %v14_conv_0_weight: Tensor[(192, 32, 1, 1), int8], %v14_conv_0_bias: Tensor[(192), int32], %v14_conv_0_zero_x: Tensor[(1), int8], %v14_conv_0_zero_y: Tensor[(1), int8], %v14_conv_0_scale: Tensor[(192), float32], %v14_conv_1_weight: Tensor[(192, 1, 3, 3), int8], %v14_conv_1_bias: Tensor[(192), int32], %v14_conv_1_zero_x: Tensor[(1), int8], %v14_conv_1_zero_y: Tensor[(1), int8], %v14_conv_1_scale: Tensor[(192), float32], %v14_conv_2_weight: Tensor[(56, 192, 1, 1), int8], %v14_conv_2_bias: Tensor[(56), int32], %v14_conv_2_zero_x: Tensor[(1), int8], %v14_conv_2_zero_y: Tensor[(1), int8], %v14_conv_2_scale: Tensor[(56), float32], %v15_conv_0_weight: Tensor[(336, 56, 1, 1), int8], %v15_conv_0_bias: Tensor[(336), int32], %v15_conv_0_zero_x: Tensor[(1), int8], %v15_conv_0_zero_y: Tensor[(1), int8], %v15_conv_0_scale: Tensor[(336), float32], %v15_conv_1_weight: Tensor[(336, 1, 3, 3), int8], %v15_conv_1_bias: Tensor[(336), int32], %v15_conv_1_zero_x: Tensor[(1), int8], %v15_conv_1_zero_y: Tensor[(1), int8], %v15_conv_1_scale: Tensor[(336), float32], %v15_conv_2_weight: Tensor[(56, 336, 1, 1), int8], %v15_conv_2_bias: Tensor[(56), int32], %v15_conv_2_zero_x: Tensor[(1), int8], %v15_conv_2_zero_y: Tensor[(1), int8], %v15_conv_2_scale: Tensor[(56), float32], %v15_qadd_zero_x1: Tensor[(1), int8], %v15_qadd_zero_x2: Tensor[(1), int8], %v15_qadd_scale_x1: Tensor[(1), float32], %v15_qadd_scale_x2: Tensor[(1), float32], %v15_qadd_zero_y: Tensor[(1), int8], %v15_qadd_scale_y: Tensor[(1), float32], %v16_conv_0_weight: Tensor[(336, 56, 1, 1), int8], %v16_conv_0_bias: Tensor[(336), int32], %v16_conv_0_zero_x: Tensor[(1), int8], %v16_conv_0_zero_y: Tensor[(1), int8], %v16_conv_0_scale: Tensor[(336), float32], %v16_conv_1_weight: Tensor[(336, 1, 3, 3), int8], %v16_conv_1_bias: Tensor[(336), int32], %v16_conv_1_zero_x: Tensor[(1), int8], %v16_conv_1_zero_y: Tensor[(1), int8], %v16_conv_1_scale: Tensor[(336), float32], %v16_conv_2_weight: Tensor[(56, 336, 1, 1), int8], %v16_conv_2_bias: Tensor[(56), int32], %v16_conv_2_zero_x: Tensor[(1), int8], %v16_conv_2_zero_y: Tensor[(1), int8], %v16_conv_2_scale: Tensor[(56), float32], %v16_qadd_zero_x1: Tensor[(1), int8], %v16_qadd_zero_x2: Tensor[(1), int8], %v16_qadd_scale_x1: Tensor[(1), float32], %v16_qadd_scale_x2: Tensor[(1), float32], %v16_qadd_zero_y: Tensor[(1), int8], %v16_qadd_scale_y: Tensor[(1), float32], %v17_conv_0_weight: Tensor[(336, 56, 1, 1), int8], %v17_conv_0_bias: Tensor[(336), int32], %v17_conv_0_zero_x: Tensor[(1), int8], %v17_conv_0_zero_y: Tensor[(1), int8], %v17_conv_0_scale: Tensor[(336), float32], %v17_conv_1_weight: Tensor[(336, 1, 3, 3), int8], %v17_conv_1_bias: Tensor[(336), int32], %v17_conv_1_zero_x: Tensor[(1), int8], %v17_conv_1_zero_y: Tensor[(1), int8], %v17_conv_1_scale: Tensor[(336), float32], %v17_conv_2_weight: Tensor[(112, 336, 1, 1), int8], %v17_conv_2_bias: Tensor[(112), int32], %v17_conv_2_zero_x: Tensor[(1), int8], %v17_conv_2_zero_y: Tensor[(1), int8], %v17_conv_2_scale: Tensor[(112), float32], %v18_weight: Tensor[(10, 112, 1, 1), int8], %v18_bias: Tensor[(10), int32], %v18_zero_x: Tensor[(1), int8], %v18_zero_y: Tensor[(1), int8], %v18_scale: Tensor[(10), float32], %label: Tensor[(1, 10), float32]) -> (float32, Tensor[(10), int32], Tensor[(10, 112, 1, 1), int8], Tensor[(112), int32], Tensor[(336), int32], Tensor[(336), int32], Tensor[(56), int32], Tensor[(336), int32], Tensor[(336), int32], Tensor[(56), int32], Tensor[(336), int32], Tensor[(336), int32], Tensor[(56), int32], Tensor[(192), int32], Tensor[(192), float32], Tensor[(192, 8, 1, 1), float32], Tensor[(32), int32], Tensor[(192), int32], Tensor[(192), float32], Tensor[(192, 4, 1, 1), float32], Tensor[(32), int32], Tensor[(192), int32], Tensor[(192), int32], Tensor[(32), int32], Tensor[(144), int32], Tensor[(144), int32], Tensor[(144, 24, 1, 1), int8], Tensor[(24), int32], Tensor[(144, 24, 1, 1), int8], Tensor[(144, 24, 1, 1), int8], Tensor[(144, 24, 1, 1), int8]) {
  %0 = nn.mcuconv2d(%input, %v0_weight, %v0_bias, %v0_zero_x, %v0_zero_y, %v0_scale, strides=[2, 2], padding=[1, 1, 1, 1]) /* ty=Tensor[(1, 16, 64, 64), int32] */;
  %1 = nn.mcutruncate(%0) /* ty=Tensor[(1, 16, 64, 64), int8] */;
  %2 = nn.mcuconv2d(%1, %v1_conv_0_weight, %v1_conv_0_bias, %v1_conv_0_zero_x, %v1_conv_0_zero_y, %v1_conv_0_scale, padding=[1, 1, 1, 1], groups=16) /* ty=Tensor[(1, 16, 64, 64), int32] */;
  %3 = nn.mcutruncate(%2) /* ty=Tensor[(1, 16, 64, 64), int8] */;
  %4 = nn.mcuconv2d(%3, %v1_conv_1_weight, %v1_conv_1_bias, %v1_conv_1_zero_x, %v1_conv_1_zero_y, %v1_conv_1_scale, padding=[0, 0, 0, 0]) /* ty=Tensor[(1, 8, 64, 64), int32] */;
  %5 = nn.mcutruncate(%4) /* ty=Tensor[(1, 8, 64, 64), int8] */;
  %6 = nn.mcuconv2d(%5, %v2_conv_0_weight, %v2_conv_0_bias, %v2_conv_0_zero_x, %v2_conv_0_zero_y, %v2_conv_0_scale, padding=[0, 0, 0, 0]) /* ty=Tensor[(1, 48, 64, 64), int32] */;
  %7 = nn.mcutruncate(%6) /* ty=Tensor[(1, 48, 64, 64), int8] */;
  %8 = nn.mcuconv2d(%7, %v2_conv_1_weight, %v2_conv_1_bias, %v2_conv_1_zero_x, %v2_conv_1_zero_y, %v2_conv_1_scale, strides=[2, 2], padding=[1, 1, 1, 1], groups=48) /* ty=Tensor[(1, 48, 32, 32), int32] */;
  %9 = nn.mcutruncate(%8) /* ty=Tensor[(1, 48, 32, 32), int8] */;
  %10 = nn.mcuconv2d(%9, %v2_conv_2_weight, %v2_conv_2_bias, %v2_conv_2_zero_x, %v2_conv_2_zero_y, %v2_conv_2_scale, padding=[0, 0, 0, 0]) /* ty=Tensor[(1, 8, 32, 32), int32] */;
  %11 = nn.mcutruncate(%10) /* ty=Tensor[(1, 8, 32, 32), int8] */;
  %12 = nn.mcuconv2d(%11, %v3_conv_0_weight, %v3_conv_0_bias, %v3_conv_0_zero_x, %v3_conv_0_zero_y, %v3_conv_0_scale, padding=[0, 0, 0, 0]) /* ty=Tensor[(1, 48, 32, 32), int32] */;
  %13 = nn.mcutruncate(%12) /* ty=Tensor[(1, 48, 32, 32), int8] */;
  %14 = nn.mcuconv2d(%13, %v3_conv_1_weight, %v3_conv_1_bias, %v3_conv_1_zero_x, %v3_conv_1_zero_y, %v3_conv_1_scale, padding=[1, 1, 1, 1], groups=48) /* ty=Tensor[(1, 48, 32, 32), int32] */;
  %15 = nn.mcutruncate(%14) /* ty=Tensor[(1, 48, 32, 32), int8] */;
  %16 = nn.mcuconv2d(%15, %v3_conv_2_weight, %v3_conv_2_bias, %v3_conv_2_zero_x, %v3_conv_2_zero_y, %v3_conv_2_scale, padding=[0, 0, 0, 0]) /* ty=Tensor[(1, 8, 32, 32), int32] */;
  %17 = nn.mcutruncate(%16) /* ty=Tensor[(1, 8, 32, 32), int8] */;
  %18 = nn.mcuadd(%11, %17, %v3_qadd_zero_x1, %v3_qadd_zero_x2, %v3_qadd_scale_x1, %v3_qadd_scale_x2, %v3_qadd_zero_y, %v3_qadd_scale_y, axis=0) /* ty=Tensor[(1, 8, 32, 32), int8] */;
  %19 = nn.mcutruncate(%18) /* ty=Tensor[(1, 8, 32, 32), int8] */;
  %20 = nn.mcuconv2d(%19, %v4_conv_0_weight, %v4_conv_0_bias, %v4_conv_0_zero_x, %v4_conv_0_zero_y, %v4_conv_0_scale, padding=[0, 0, 0, 0]) /* ty=Tensor[(1, 48, 32, 32), int32] */;
  %21 = nn.mcutruncate(%20) /* ty=Tensor[(1, 48, 32, 32), int8] */;
  %22 = nn.mcuconv2d(%21, %v4_conv_1_weight, %v4_conv_1_bias, %v4_conv_1_zero_x, %v4_conv_1_zero_y, %v4_conv_1_scale, strides=[2, 2], padding=[1, 1, 1, 1], groups=48) /* ty=Tensor[(1, 48, 16, 16), int32] */;
  %23 = nn.mcutruncate(%22) /* ty=Tensor[(1, 48, 16, 16), int8] */;
  %24 = nn.mcuconv2d(%23, %v4_conv_2_weight, %v4_conv_2_bias, %v4_conv_2_zero_x, %v4_conv_2_zero_y, %v4_conv_2_scale, padding=[0, 0, 0, 0]) /* ty=Tensor[(1, 16, 16, 16), int32] */;
  %25 = nn.mcutruncate(%24) /* ty=Tensor[(1, 16, 16, 16), int8] */;
  %26 = nn.mcuconv2d(%25, %v5_conv_0_weight, %v5_conv_0_bias, %v5_conv_0_zero_x, %v5_conv_0_zero_y, %v5_conv_0_scale, padding=[0, 0, 0, 0]) /* ty=Tensor[(1, 96, 16, 16), int32] */;
  %27 = nn.mcutruncate(%26) /* ty=Tensor[(1, 96, 16, 16), int8] */;
  %28 = nn.mcuconv2d(%27, %v5_conv_1_weight, %v5_conv_1_bias, %v5_conv_1_zero_x, %v5_conv_1_zero_y, %v5_conv_1_scale, padding=[1, 1, 1, 1], groups=96) /* ty=Tensor[(1, 96, 16, 16), int32] */;
  %29 = nn.mcutruncate(%28) /* ty=Tensor[(1, 96, 16, 16), int8] */;
  %30 = nn.mcuconv2d(%29, %v5_conv_2_weight, %v5_conv_2_bias, %v5_conv_2_zero_x, %v5_conv_2_zero_y, %v5_conv_2_scale, padding=[0, 0, 0, 0]) /* ty=Tensor[(1, 16, 16, 16), int32] */;
  %31 = nn.mcutruncate(%30) /* ty=Tensor[(1, 16, 16, 16), int8] */;
  %32 = nn.mcuadd(%25, %31, %v5_qadd_zero_x1, %v5_qadd_zero_x2, %v5_qadd_scale_x1, %v5_qadd_scale_x2, %v5_qadd_zero_y, %v5_qadd_scale_y, axis=0) /* ty=Tensor[(1, 16, 16, 16), int8] */;
  %33 = nn.mcutruncate(%32) /* ty=Tensor[(1, 16, 16, 16), int8] */;
  %34 = nn.mcuconv2d(%33, %v6_conv_0_weight, %v6_conv_0_bias, %v6_conv_0_zero_x, %v6_conv_0_zero_y, %v6_conv_0_scale, padding=[0, 0, 0, 0]) /* ty=Tensor[(1, 96, 16, 16), int32] */;
  %35 = nn.mcutruncate(%34) /* ty=Tensor[(1, 96, 16, 16), int8] */;
  %36 = nn.mcuconv2d(%35, %v6_conv_1_weight, %v6_conv_1_bias, %v6_conv_1_zero_x, %v6_conv_1_zero_y, %v6_conv_1_scale, padding=[1, 1, 1, 1], groups=96) /* ty=Tensor[(1, 96, 16, 16), int32] */;
  %37 = nn.mcutruncate(%36) /* ty=Tensor[(1, 96, 16, 16), int8] */;
  %38 = nn.mcuconv2d(%37, %v6_conv_2_weight, %v6_conv_2_bias, %v6_conv_2_zero_x, %v6_conv_2_zero_y, %v6_conv_2_scale, padding=[0, 0, 0, 0]) /* ty=Tensor[(1, 16, 16, 16), int32] */;
  %39 = nn.mcutruncate(%38) /* ty=Tensor[(1, 16, 16, 16), int8] */;
  %40 = nn.mcuadd(%33, %39, %v6_qadd_zero_x1, %v6_qadd_zero_x2, %v6_qadd_scale_x1, %v6_qadd_scale_x2, %v6_qadd_zero_y, %v6_qadd_scale_y, axis=0) /* ty=Tensor[(1, 16, 16, 16), int8] */;
  %41 = nn.mcutruncate(%40) /* ty=Tensor[(1, 16, 16, 16), int8] */;
  %42 = nn.mcuconv2d(%41, %v7_conv_0_weight, %v7_conv_0_bias, %v7_conv_0_zero_x, %v7_conv_0_zero_y, %v7_conv_0_scale, padding=[0, 0, 0, 0]) /* ty=Tensor[(1, 96, 16, 16), int32] */;
  %43 = nn.mcutruncate(%42) /* ty=Tensor[(1, 96, 16, 16), int8] */;
  %44 = nn.mcuconv2d(%43, %v7_conv_1_weight, %v7_conv_1_bias, %v7_conv_1_zero_x, %v7_conv_1_zero_y, %v7_conv_1_scale, strides=[2, 2], padding=[1, 1, 1, 1], groups=96) /* ty=Tensor[(1, 96, 8, 8), int32] */;
  %45 = nn.mcutruncate(%44) /* ty=Tensor[(1, 96, 8, 8), int8] */;
  %46 = nn.mcuconv2d(%45, %v7_conv_2_weight, %v7_conv_2_bias, %v7_conv_2_zero_x, %v7_conv_2_zero_y, %v7_conv_2_scale, padding=[0, 0, 0, 0]) /* ty=Tensor[(1, 24, 8, 8), int32] */;
  %47 = nn.mcutruncate(%46) /* ty=Tensor[(1, 24, 8, 8), int8] */;
  %48 = nn.mcuconv2d(%47, %v8_conv_0_weight, %v8_conv_0_bias, %v8_conv_0_zero_x, %v8_conv_0_zero_y, %v8_conv_0_scale, padding=[0, 0, 0, 0]) /* ty=Tensor[(1, 144, 8, 8), int32] */;
  %49 = nn.mcutruncate(%48) /* ty=Tensor[(1, 144, 8, 8), int8] */;
  %50 = nn.mcuconv2d(%49, %v8_conv_1_weight, %v8_conv_1_bias, %v8_conv_1_zero_x, %v8_conv_1_zero_y, %v8_conv_1_scale, padding=[1, 1, 1, 1], groups=144) /* ty=Tensor[(1, 144, 8, 8), int32] */;
  %51 = nn.mcutruncate(%50) /* ty=Tensor[(1, 144, 8, 8), int8] */;
  %52 = nn.mcuconv2d(%51, %v8_conv_2_weight, %v8_conv_2_bias, %v8_conv_2_zero_x, %v8_conv_2_zero_y, %v8_conv_2_scale, padding=[0, 0, 0, 0]) /* ty=Tensor[(1, 24, 8, 8), int32] */;
  %53 = nn.mcutruncate(%52) /* ty=Tensor[(1, 24, 8, 8), int8] */;
  %54 = nn.mcuadd(%47, %53, %v8_qadd_zero_x1, %v8_qadd_zero_x2, %v8_qadd_scale_x1, %v8_qadd_scale_x2, %v8_qadd_zero_y, %v8_qadd_scale_y, axis=0) /* ty=Tensor[(1, 24, 8, 8), int8] */;
  %55 = nn.mcutruncate(%54) /* ty=Tensor[(1, 24, 8, 8), int8] */;
  %56 = nn.mcuconv2d(%55, %v9_conv_0_weight, %v9_conv_0_bias, %v9_conv_0_zero_x, %v9_conv_0_zero_y, %v9_conv_0_scale, padding=[0, 0, 0, 0]) /* ty=Tensor[(1, 144, 8, 8), int32] */;
  %57 = nn.mcutruncate(%56) /* ty=Tensor[(1, 144, 8, 8), int8] */;
  %58 = nn.mcuconv2d(%57, %v9_conv_1_weight, %v9_conv_1_bias, %v9_conv_1_zero_x, %v9_conv_1_zero_y, %v9_conv_1_scale, padding=[1, 1, 1, 1], groups=144) /* ty=Tensor[(1, 144, 8, 8), int32] */;
  %59 = nn.mcutruncate(%58) /* ty=Tensor[(1, 144, 8, 8), int8] */;
  %60 = nn.mcuconv2d(%59, %v9_conv_2_weight, %v9_conv_2_bias, %v9_conv_2_zero_x, %v9_conv_2_zero_y, %v9_conv_2_scale, padding=[0, 0, 0, 0]) /* ty=Tensor[(1, 24, 8, 8), int32] */;
  %61 = nn.mcutruncate(%60) /* ty=Tensor[(1, 24, 8, 8), int8] */;
  %62 = nn.mcuadd(%55, %61, %v9_qadd_zero_x1, %v9_qadd_zero_x2, %v9_qadd_scale_x1, %v9_qadd_scale_x2, %v9_qadd_zero_y, %v9_qadd_scale_y, axis=0) /* ty=Tensor[(1, 24, 8, 8), int8] */;
  %63 = nn.mcutruncate(%62) /* ty=Tensor[(1, 24, 8, 8), int8] */;
  %64 = nn.mcuconv2d(%63, %v10_conv_0_weight, %v10_conv_0_bias, %v10_conv_0_zero_x, %v10_conv_0_zero_y, %v10_conv_0_scale, padding=[0, 0, 0, 0]) /* ty=Tensor[(1, 144, 8, 8), int32] */;
  %65 = nn.mcutruncate(%64) /* ty=Tensor[(1, 144, 8, 8), int8] */;
  %66 = nn.mcuconv2d(%65, %v10_conv_1_weight, %v10_conv_1_bias, %v10_conv_1_zero_x, %v10_conv_1_zero_y, %v10_conv_1_scale, padding=[1, 1, 1, 1], groups=144) /* ty=Tensor[(1, 144, 8, 8), int32] */;
  %67 = nn.mcutruncate(%66) /* ty=Tensor[(1, 144, 8, 8), int8] */;
  %68 = nn.mcuconv2d(%67, %v10_conv_2_weight, %v10_conv_2_bias, %v10_conv_2_zero_x, %v10_conv_2_zero_y, %v10_conv_2_scale, padding=[0, 0, 0, 0]) /* ty=Tensor[(1, 24, 8, 8), int32] */;
  %69 = nn.mcutruncate(%68) /* ty=Tensor[(1, 24, 8, 8), int8] */;
  %70 = nn.mcuadd(%63, %69, %v10_qadd_zero_x1, %v10_qadd_zero_x2, %v10_qadd_scale_x1, %v10_qadd_scale_x2, %v10_qadd_zero_y, %v10_qadd_scale_y, axis=0) /* ty=Tensor[(1, 24, 8, 8), int8] */;
  %71 = nn.mcutruncate(%70) /* ty=Tensor[(1, 24, 8, 8), int8] */;
  %72 = nn.mcuconv2d(%71, %v11_conv_0_weight, %v11_conv_0_bias, %v11_conv_0_zero_x, %v11_conv_0_zero_y, %v11_conv_0_scale, padding=[0, 0, 0, 0]) /* ty=Tensor[(1, 144, 8, 8), int32] */;
  %73 = nn.mcutruncate(%72) /* ty=Tensor[(1, 144, 8, 8), int8] */;
  %74 = nn.mcuconv2d(%73, %v11_conv_1_weight, %v11_conv_1_bias, %v11_conv_1_zero_x, %v11_conv_1_zero_y, %v11_conv_1_scale, padding=[1, 1, 1, 1], groups=144) /* ty=Tensor[(1, 144, 8, 8), int32] */;
  %75 = nn.mcutruncate(%74) /* ty=Tensor[(1, 144, 8, 8), int8] */;
  %76 = nn.mcuconv2d(%75, %v11_conv_2_weight, %v11_conv_2_bias, %v11_conv_2_zero_x, %v11_conv_2_zero_y, %v11_conv_2_scale, padding=[0, 0, 0, 0]) /* ty=Tensor[(1, 32, 8, 8), int32] */;
  %77 = nn.mcutruncate(%76) /* ty=Tensor[(1, 32, 8, 8), int8] */;
  %78 = nn.mcuconv2d(%77, %v12_conv_0_weight, %v12_conv_0_bias, %v12_conv_0_zero_x, %v12_conv_0_zero_y, %v12_conv_0_scale, padding=[0, 0, 0, 0]) /* ty=Tensor[(1, 192, 8, 8), int32] */;
  %79 = nn.mcutruncate(%78) /* ty=Tensor[(1, 192, 8, 8), int8] */;
  %80 = nn.mcuconv2d(%79, %v12_conv_1_weight, %v12_conv_1_bias, %v12_conv_1_zero_x, %v12_conv_1_zero_y, %v12_conv_1_scale, padding=[1, 1, 1, 1], groups=192) /* ty=Tensor[(1, 192, 8, 8), int32] */;
  %81 = nn.mcutruncate(%80) /* ty=Tensor[(1, 192, 8, 8), int8] */;
  %82 = nn.mcuconv2d(%81, %v12_conv_2_weight, %v12_conv_2_bias, %v12_conv_2_zero_x, %v12_conv_2_zero_y, %v12_conv_2_scale, padding=[0, 0, 0, 0]) /* ty=Tensor[(1, 32, 8, 8), int32] */;
  %83 = nn.mcutruncate(%82) /* ty=Tensor[(1, 32, 8, 8), int8] */;
  %84 = nn.mcuadd(%77, %83, %v12_qadd_zero_x1, %v12_qadd_zero_x2, %v12_qadd_scale_x1, %v12_qadd_scale_x2, %v12_qadd_zero_y, %v12_qadd_scale_y, axis=0) /* ty=Tensor[(1, 32, 8, 8), int8] */;
  %85 = nn.mcutruncate(%84) /* ty=Tensor[(1, 32, 8, 8), int8] */;
  %86 = nn.mcuconv2d(%85, %v13_conv_0_weight, %v13_conv_0_bias, %v13_conv_0_zero_x, %v13_conv_0_zero_y, %v13_conv_0_scale, padding=[0, 0, 0, 0]) /* ty=Tensor[(1, 192, 8, 8), int32] */;
  %87 = nn.mcutruncate(%86) /* ty=Tensor[(1, 192, 8, 8), int8] */;
  %88 = nn.mcuconv2d(%87, %v13_conv_1_weight, %v13_conv_1_bias, %v13_conv_1_zero_x, %v13_conv_1_zero_y, %v13_conv_1_scale, padding=[1, 1, 1, 1], groups=192) /* ty=Tensor[(1, 192, 8, 8), int32] */;
  %89 = nn.mcutruncate(%88) /* ty=Tensor[(1, 192, 8, 8), int8] */;
  %90 = nn.mcuconv2d(%89, %v13_conv_2_weight, %v13_conv_2_bias, %v13_conv_2_zero_x, %v13_conv_2_zero_y, %v13_conv_2_scale, padding=[0, 0, 0, 0]) /* ty=Tensor[(1, 32, 8, 8), int32] */;
  %91 = nn.mcutruncate(%90) /* ty=Tensor[(1, 32, 8, 8), int8] */;
  %92 = nn.mcuadd(%85, %91, %v13_qadd_zero_x1, %v13_qadd_zero_x2, %v13_qadd_scale_x1, %v13_qadd_scale_x2, %v13_qadd_zero_y, %v13_qadd_scale_y, axis=0) /* ty=Tensor[(1, 32, 8, 8), int8] */;
  %93 = nn.mcutruncate(%92) /* ty=Tensor[(1, 32, 8, 8), int8] */;
  %94 = nn.mcuconv2d(%93, %v14_conv_0_weight, %v14_conv_0_bias, %v14_conv_0_zero_x, %v14_conv_0_zero_y, %v14_conv_0_scale, padding=[0, 0, 0, 0]) /* ty=Tensor[(1, 192, 8, 8), int32] */;
  %95 = nn.mcutruncate(%94) /* ty=Tensor[(1, 192, 8, 8), int8] */;
  %96 = nn.mcuconv2d(%95, %v14_conv_1_weight, %v14_conv_1_bias, %v14_conv_1_zero_x, %v14_conv_1_zero_y, %v14_conv_1_scale, strides=[2, 2], padding=[1, 1, 1, 1], groups=192) /* ty=Tensor[(1, 192, 4, 4), int32] */;
  %97 = nn.mcutruncate(%96) /* ty=Tensor[(1, 192, 4, 4), int8] */;
  %98 = nn.mcuconv2d(%97, %v14_conv_2_weight, %v14_conv_2_bias, %v14_conv_2_zero_x, %v14_conv_2_zero_y, %v14_conv_2_scale, padding=[0, 0, 0, 0]) /* ty=Tensor[(1, 56, 4, 4), int32] */;
  %99 = nn.mcutruncate(%98) /* ty=Tensor[(1, 56, 4, 4), int8] */;
  %100 = nn.mcuconv2d(%99, %v15_conv_0_weight, %v15_conv_0_bias, %v15_conv_0_zero_x, %v15_conv_0_zero_y, %v15_conv_0_scale, padding=[0, 0, 0, 0]) /* ty=Tensor[(1, 336, 4, 4), int32] */;
  %101 = nn.mcutruncate(%100) /* ty=Tensor[(1, 336, 4, 4), int8] */;
  %102 = nn.mcuconv2d(%101, %v15_conv_1_weight, %v15_conv_1_bias, %v15_conv_1_zero_x, %v15_conv_1_zero_y, %v15_conv_1_scale, padding=[1, 1, 1, 1], groups=336) /* ty=Tensor[(1, 336, 4, 4), int32] */;
  %103 = nn.mcutruncate(%102) /* ty=Tensor[(1, 336, 4, 4), int8] */;
  %104 = nn.mcuconv2d(%103, %v15_conv_2_weight, %v15_conv_2_bias, %v15_conv_2_zero_x, %v15_conv_2_zero_y, %v15_conv_2_scale, padding=[0, 0, 0, 0]) /* ty=Tensor[(1, 56, 4, 4), int32] */;
  %105 = nn.mcutruncate(%104) /* ty=Tensor[(1, 56, 4, 4), int8] */;
  %106 = nn.mcuadd(%99, %105, %v15_qadd_zero_x1, %v15_qadd_zero_x2, %v15_qadd_scale_x1, %v15_qadd_scale_x2, %v15_qadd_zero_y, %v15_qadd_scale_y, axis=0) /* ty=Tensor[(1, 56, 4, 4), int8] */;
  %107 = nn.mcutruncate(%106) /* ty=Tensor[(1, 56, 4, 4), int8] */;
  %108 = nn.mcuconv2d(%107, %v16_conv_0_weight, %v16_conv_0_bias, %v16_conv_0_zero_x, %v16_conv_0_zero_y, %v16_conv_0_scale, padding=[0, 0, 0, 0]) /* ty=Tensor[(1, 336, 4, 4), int32] */;
  %109 = nn.mcutruncate(%108) /* ty=Tensor[(1, 336, 4, 4), int8] */;
  %110 = nn.mcuconv2d(%109, %v16_conv_1_weight, %v16_conv_1_bias, %v16_conv_1_zero_x, %v16_conv_1_zero_y, %v16_conv_1_scale, padding=[1, 1, 1, 1], groups=336) /* ty=Tensor[(1, 336, 4, 4), int32] */;
  %111 = nn.mcutruncate(%110) /* ty=Tensor[(1, 336, 4, 4), int8] */;
  %112 = nn.mcuconv2d(%111, %v16_conv_2_weight, %v16_conv_2_bias, %v16_conv_2_zero_x, %v16_conv_2_zero_y, %v16_conv_2_scale, padding=[0, 0, 0, 0]) /* ty=Tensor[(1, 56, 4, 4), int32] */;
  %113 = nn.mcutruncate(%112) /* ty=Tensor[(1, 56, 4, 4), int8] */;
  %114 = nn.mcuadd(%107, %113, %v16_qadd_zero_x1, %v16_qadd_zero_x2, %v16_qadd_scale_x1, %v16_qadd_scale_x2, %v16_qadd_zero_y, %v16_qadd_scale_y, axis=0) /* ty=Tensor[(1, 56, 4, 4), int8] */;
  %115 = nn.mcutruncate(%114) /* ty=Tensor[(1, 56, 4, 4), int8] */;
  %116 = nn.mcuconv2d(%115, %v17_conv_0_weight, %v17_conv_0_bias, %v17_conv_0_zero_x, %v17_conv_0_zero_y, %v17_conv_0_scale, padding=[0, 0, 0, 0]) /* ty=Tensor[(1, 336, 4, 4), int32] */;
  %117 = nn.mcutruncate(%116) /* ty=Tensor[(1, 336, 4, 4), int8] */;
  %118 = nn.mcuconv2d(%117, %v17_conv_1_weight, %v17_conv_1_bias, %v17_conv_1_zero_x, %v17_conv_1_zero_y, %v17_conv_1_scale, padding=[1, 1, 1, 1], groups=336) /* ty=Tensor[(1, 336, 4, 4), int32] */;
  %119 = nn.mcutruncate(%118) /* ty=Tensor[(1, 336, 4, 4), int8] */;
  %120 = nn.mcuconv2d(%119, %v17_conv_2_weight, %v17_conv_2_bias, %v17_conv_2_zero_x, %v17_conv_2_zero_y, %v17_conv_2_scale, padding=[0, 0, 0, 0]) /* ty=Tensor[(1, 112, 4, 4), int32] */;
  %121 = nn.mcutruncate(%120) /* ty=Tensor[(1, 112, 4, 4), int8] */;
  %122 = mcumean(%121, axis=[2, 3], keepdims=True) /* ty=Tensor[(1, 112, 1, 1), int8] */;
  %123 = nn.mcuconv2d(%122, %v18_weight, %v18_bias, %v18_zero_x, %v18_zero_y, %v18_scale, padding=[0, 0, 0, 0]) /* ty=Tensor[(1, 10, 1, 1), int32] */;
  %124 = nn.mcutruncate(%123) /* ty=Tensor[(1, 10, 1, 1), int8] */;
  %125 = reshape(%124, newshape=[0, 0]) /* ty=Tensor[(1, 10), int8] */;
  %126 = cast(%125, dtype="float32") /* ty=Tensor[(1, 10), float32] */;
  %127 = nn.log_softmax(%126) /* ty=Tensor[(1, 10), float32] */;
  %128 = greater_equal(%123, -128 /* ty=int32 */) /* ty=Tensor[(1, 10, 1, 1), bool] */;
  %129 = less_equal(%123, 127 /* ty=int32 */) /* ty=Tensor[(1, 10, 1, 1), bool] */;
  %130 = ones(shape=[], dtype="float32") /* ty=float32 */;
  %131 = negative(%130) /* ty=float32 */;
  %132 = multiply(%131, %label) /* ty=Tensor[(1, 10), float32] */;
  %133 = sum(%132, axis=[-1], keepdims=True) /* ty=Tensor[(1, 1), float32] */;
  %134 = exp(%127) /* ty=Tensor[(1, 10), float32] */;
  %135 = multiply(%133, %134) /* ty=Tensor[(1, 10), float32] */;
  %136 = subtract(%132, %135) /* ty=Tensor[(1, 10), float32] */;
  %137 = multiply(%128, %129) /* ty=Tensor[(1, 10, 1, 1), bool] */;
  %138 = reshape(%136, newshape=[1, 10, 1, 1]) /* ty=Tensor[(1, 10, 1, 1), float32] */;
  %139 = zeros(shape=[1, 10, 1, 1], dtype="float32") /* ty=Tensor[(1, 10, 1, 1), float32] */;
  %140 = where(%137, %138, %139) /* ty=Tensor[(1, 10, 1, 1), float32] */;
  %141 = cast(%140, dtype="int32") /* ty=Tensor[(1, 10, 1, 1), int32] */;
  %142 = reshape(%122, newshape=[1, -1, 0, 0]) /* ty=Tensor[(1, 112, 1, 1), int8] */;
  %143 = tile(%140, reps=[1, 112, 1, 1]) /* ty=Tensor[(1, 1120, 1, 1), float32] */;
  %144 = cast(%142, dtype="float32") /* ty=Tensor[(1, 112, 1, 1), float32] */;
  %145 = reshape(%143, newshape=[-1, 1, 0, 0]) /* ty=Tensor[(1120, 1, 1, 1), float32] */;
  %146 = nn.conv2d(%144, %145, padding=[0, 0, 0, 0], groups=112, out_dtype="float32") /* ty=Tensor[(1, 1120, 1, 1), float32] */;
  %147 = reshape(%146, newshape=[1, 112, 10, 1, 1]) /* ty=Tensor[(1, 112, 10, 1, 1), float32] */;
  %148 = sum(%147, axis=[0]) /* ty=Tensor[(112, 10, 1, 1), float32] */;
  %149 = transpose(%148, axes=[1, 0, 2, 3]) /* ty=Tensor[(10, 112, 1, 1), float32] */;
  %150 = abs(%149) /* ty=Tensor[(10, 112, 1, 1), float32] */;
  %151 = max(%150, axis=[1], keepdims=True) /* ty=Tensor[(10, 1, 1, 1), float32] */;
  %152 = divide(%151, 127f /* ty=float32 */) /* ty=Tensor[(10, 1, 1, 1), float32] */;
  %153 = divide(%149, %152) /* ty=Tensor[(10, 112, 1, 1), float32] */;
  %154 = greater_equal(%120, -128 /* ty=int32 */) /* ty=Tensor[(1, 112, 4, 4), bool] */;
  %155 = less_equal(%120, 127 /* ty=int32 */) /* ty=Tensor[(1, 112, 4, 4), bool] */;
  %156 = cast(%v18_weight, dtype="float32") /* ty=Tensor[(10, 112, 1, 1), float32] */;
  %157 = nn.conv2d_transpose(%140, %156, channels=112, kernel_size=[1, 1], padding=[0, 0, 0, 0], kernel_layout="IOHW", out_dtype="float32") /* ty=Tensor[(1, 112, 1, 1), float32] */;
  %158 = abs(%157) /* ty=Tensor[(1, 112, 1, 1), float32] */;
  %159 = max(%158, axis=[1], keepdims=True) /* ty=Tensor[(1, 1, 1, 1), float32] */;
  %160 = divide(%159, 127f /* ty=float32 */) /* ty=Tensor[(1, 1, 1, 1), float32] */;
  %161 = divide(%157, %160) /* ty=Tensor[(1, 112, 1, 1), float32] */;
  %162 = cast(%161, dtype="int8") /* ty=Tensor[(1, 112, 1, 1), int8] */;
  %163 = cast(%162, dtype="float32") /* ty=Tensor[(1, 112, 1, 1), float32] */;
  %164 = multiply(%163, 0.0625f /* ty=float32 */) /* ty=Tensor[(1, 112, 1, 1), float32] */;
  %165 = ones(shape=[1, 112, 4, 4], dtype="float32") /* ty=Tensor[(1, 112, 4, 4), float32] */;
  %166 = multiply(%154, %155) /* ty=Tensor[(1, 112, 4, 4), bool] */;
  %167 = multiply(%164, %165) /* ty=Tensor[(1, 112, 4, 4), float32] */;
  %168 = zeros(shape=[1, 112, 4, 4], dtype="float32") /* ty=Tensor[(1, 112, 4, 4), float32] */;
  %169 = where(%166, %167, %168) /* ty=Tensor[(1, 112, 4, 4), float32] */;
  %170 = cast(%169, dtype="int32") /* ty=Tensor[(1, 112, 4, 4), int32] */;
  %171 = greater_equal(%118, -128 /* ty=int32 */) /* ty=Tensor[(1, 336, 4, 4), bool] */;
  %172 = less_equal(%118, 127 /* ty=int32 */) /* ty=Tensor[(1, 336, 4, 4), bool] */;
  %173 = cast(%v17_conv_2_weight, dtype="float32") /* ty=Tensor[(112, 336, 1, 1), float32] */;
  %174 = nn.conv2d_transpose(%169, %173, channels=336, kernel_size=[1, 1], padding=[0, 0, 0, 0], kernel_layout="IOHW", out_dtype="float32") /* ty=Tensor[(1, 336, 4, 4), float32] */;
  %175 = abs(%174) /* ty=Tensor[(1, 336, 4, 4), float32] */;
  %176 = max(%175, axis=[1], keepdims=True) /* ty=Tensor[(1, 1, 4, 4), float32] */;
  %177 = divide(%176, 127f /* ty=float32 */) /* ty=Tensor[(1, 1, 4, 4), float32] */;
  %178 = divide(%174, %177) /* ty=Tensor[(1, 336, 4, 4), float32] */;
  %179 = multiply(%171, %172) /* ty=Tensor[(1, 336, 4, 4), bool] */;
  %180 = cast(%178, dtype="int8") /* ty=Tensor[(1, 336, 4, 4), int8] */;
  %181 = zeros(shape=[1, 336, 4, 4], dtype="int8") /* ty=Tensor[(1, 336, 4, 4), int8] */;
  %182 = where(%179, %180, %181) /* ty=Tensor[(1, 336, 4, 4), int8] */;
  %183 = cast(%182, dtype="int32") /* ty=Tensor[(1, 336, 4, 4), int32] */;
  %184 = greater_equal(%116, -128 /* ty=int32 */) /* ty=Tensor[(1, 336, 4, 4), bool] */;
  %185 = less_equal(%116, 127 /* ty=int32 */) /* ty=Tensor[(1, 336, 4, 4), bool] */;
  %186 = nn.conv2d_transpose(%182, %v17_conv_1_weight, channels=336, kernel_size=[3, 3], padding=[1, 1, 1, 1], groups=336, kernel_layout="IOHW", out_dtype="int32") /* ty=Tensor[(1, 336, 4, 4), int32] */;
  %187 = abs(%186) /* ty=Tensor[(1, 336, 4, 4), int32] */;
  %188 = max(%187, axis=[1], keepdims=True) /* ty=Tensor[(1, 1, 4, 4), int32] */;
  %189 = divide(%188, 127 /* ty=int32 */) /* ty=Tensor[(1, 1, 4, 4), int32] */;
  %190 = divide(%186, %189) /* ty=Tensor[(1, 336, 4, 4), int32] */;
  %191 = multiply(%184, %185) /* ty=Tensor[(1, 336, 4, 4), bool] */;
  %192 = cast(%190, dtype="int8") /* ty=Tensor[(1, 336, 4, 4), int8] */;
  %193 = zeros(shape=[1, 336, 4, 4], dtype="int8") /* ty=Tensor[(1, 336, 4, 4), int8] */;
  %194 = where(%191, %192, %193) /* ty=Tensor[(1, 336, 4, 4), int8] */;
  %195 = cast(%194, dtype="int32") /* ty=Tensor[(1, 336, 4, 4), int32] */;
  %196 = greater_equal(%112, -128 /* ty=int32 */) /* ty=Tensor[(1, 56, 4, 4), bool] */;
  %197 = less_equal(%112, 127 /* ty=int32 */) /* ty=Tensor[(1, 56, 4, 4), bool] */;
  %198 = greater_equal(%114, meta[relay.Constant][0] /* ty=int8 */) /* ty=Tensor[(1, 56, 4, 4), bool] */;
  %199 = less_equal(%114, meta[relay.Constant][1] /* ty=int8 */) /* ty=Tensor[(1, 56, 4, 4), bool] */;
  %200 = nn.conv2d_transpose(%194, %v17_conv_0_weight, channels=56, kernel_size=[1, 1], padding=[0, 0, 0, 0], kernel_layout="IOHW", out_dtype="int32") /* ty=Tensor[(1, 56, 4, 4), int32] */;
  %201 = abs(%200) /* ty=Tensor[(1, 56, 4, 4), int32] */;
  %202 = max(%201, axis=[1], keepdims=True) /* ty=Tensor[(1, 1, 4, 4), int32] */;
  %203 = divide(%202, 127 /* ty=int32 */) /* ty=Tensor[(1, 1, 4, 4), int32] */;
  %204 = divide(%200, %203) /* ty=Tensor[(1, 56, 4, 4), int32] */;
  %205 = multiply(%198, %199) /* ty=Tensor[(1, 56, 4, 4), bool] */;
  %206 = cast(%204, dtype="int8") /* ty=Tensor[(1, 56, 4, 4), int8] */;
  %207 = zeros(shape=[1, 56, 4, 4], dtype="int8") /* ty=Tensor[(1, 56, 4, 4), int8] */;
  %208 = where(%205, %206, %207) /* ty=Tensor[(1, 56, 4, 4), int8] */;
  %209 = cast(%208, dtype="float32") /* ty=Tensor[(1, 56, 4, 4), float32] */;
  %210 = reshape(%v16_qadd_scale_y, newshape=[1, -1, 1, 1]) /* ty=Tensor[(1, 1, 1, 1), float32] */;
  %211 = divide(%209, %210) /* ty=Tensor[(1, 56, 4, 4), float32] */;
  %212 = reshape(%v16_qadd_scale_x2, newshape=[1, -1, 1, 1]) /* ty=Tensor[(1, 1, 1, 1), float32] */;
  %213 = multiply(%211, %212) /* ty=Tensor[(1, 56, 4, 4), float32] */;
  %214 = multiply(%196, %197) /* ty=Tensor[(1, 56, 4, 4), bool] */;
  %215 = cast(%213, dtype="int8") /* ty=Tensor[(1, 56, 4, 4), int8] */;
  %216 = zeros(shape=[1, 56, 4, 4], dtype="int8") /* ty=Tensor[(1, 56, 4, 4), int8] */;
  %217 = where(%214, %215, %216) /* ty=Tensor[(1, 56, 4, 4), int8] */;
  %218 = cast(%217, dtype="int32") /* ty=Tensor[(1, 56, 4, 4), int32] */;
  %219 = greater_equal(%110, -128 /* ty=int32 */) /* ty=Tensor[(1, 336, 4, 4), bool] */;
  %220 = less_equal(%110, 127 /* ty=int32 */) /* ty=Tensor[(1, 336, 4, 4), bool] */;
  %221 = nn.conv2d_transpose(%217, %v16_conv_2_weight, channels=336, kernel_size=[1, 1], padding=[0, 0, 0, 0], kernel_layout="IOHW", out_dtype="int32") /* ty=Tensor[(1, 336, 4, 4), int32] */;
  %222 = abs(%221) /* ty=Tensor[(1, 336, 4, 4), int32] */;
  %223 = max(%222, axis=[1], keepdims=True) /* ty=Tensor[(1, 1, 4, 4), int32] */;
  %224 = divide(%223, 127 /* ty=int32 */) /* ty=Tensor[(1, 1, 4, 4), int32] */;
  %225 = divide(%221, %224) /* ty=Tensor[(1, 336, 4, 4), int32] */;
  %226 = multiply(%219, %220) /* ty=Tensor[(1, 336, 4, 4), bool] */;
  %227 = cast(%225, dtype="int8") /* ty=Tensor[(1, 336, 4, 4), int8] */;
  %228 = zeros(shape=[1, 336, 4, 4], dtype="int8") /* ty=Tensor[(1, 336, 4, 4), int8] */;
  %229 = where(%226, %227, %228) /* ty=Tensor[(1, 336, 4, 4), int8] */;
  %230 = cast(%229, dtype="int32") /* ty=Tensor[(1, 336, 4, 4), int32] */;
  %231 = greater_equal(%108, -128 /* ty=int32 */) /* ty=Tensor[(1, 336, 4, 4), bool] */;
  %232 = less_equal(%108, 127 /* ty=int32 */) /* ty=Tensor[(1, 336, 4, 4), bool] */;
  %233 = nn.conv2d_transpose(%229, %v16_conv_1_weight, channels=336, kernel_size=[3, 3], padding=[1, 1, 1, 1], groups=336, kernel_layout="IOHW", out_dtype="int32") /* ty=Tensor[(1, 336, 4, 4), int32] */;
  %234 = abs(%233) /* ty=Tensor[(1, 336, 4, 4), int32] */;
  %235 = max(%234, axis=[1], keepdims=True) /* ty=Tensor[(1, 1, 4, 4), int32] */;
  %236 = divide(%235, 127 /* ty=int32 */) /* ty=Tensor[(1, 1, 4, 4), int32] */;
  %237 = divide(%233, %236) /* ty=Tensor[(1, 336, 4, 4), int32] */;
  %238 = multiply(%231, %232) /* ty=Tensor[(1, 336, 4, 4), bool] */;
  %239 = cast(%237, dtype="int8") /* ty=Tensor[(1, 336, 4, 4), int8] */;
  %240 = zeros(shape=[1, 336, 4, 4], dtype="int8") /* ty=Tensor[(1, 336, 4, 4), int8] */;
  %241 = where(%238, %239, %240) /* ty=Tensor[(1, 336, 4, 4), int8] */;
  %242 = cast(%241, dtype="int32") /* ty=Tensor[(1, 336, 4, 4), int32] */;
  %243 = greater_equal(%104, -128 /* ty=int32 */) /* ty=Tensor[(1, 56, 4, 4), bool] */;
  %244 = less_equal(%104, 127 /* ty=int32 */) /* ty=Tensor[(1, 56, 4, 4), bool] */;
  %245 = greater_equal(%106, meta[relay.Constant][2] /* ty=int8 */) /* ty=Tensor[(1, 56, 4, 4), bool] */;
  %246 = less_equal(%106, meta[relay.Constant][3] /* ty=int8 */) /* ty=Tensor[(1, 56, 4, 4), bool] */;
  %247 = nn.conv2d_transpose(%241, %v16_conv_0_weight, channels=56, kernel_size=[1, 1], padding=[0, 0, 0, 0], kernel_layout="IOHW", out_dtype="int32") /* ty=Tensor[(1, 56, 4, 4), int32] */;
  %248 = abs(%247) /* ty=Tensor[(1, 56, 4, 4), int32] */;
  %249 = max(%248, axis=[1], keepdims=True) /* ty=Tensor[(1, 1, 4, 4), int32] */;
  %250 = divide(%249, 127 /* ty=int32 */) /* ty=Tensor[(1, 1, 4, 4), int32] */;
  %251 = divide(%247, %250) /* ty=Tensor[(1, 56, 4, 4), int32] */;
  %252 = multiply(%245, %246) /* ty=Tensor[(1, 56, 4, 4), bool] */;
  %253 = cast(%251, dtype="int8") /* ty=Tensor[(1, 56, 4, 4), int8] */;
  %254 = zeros(shape=[1, 56, 4, 4], dtype="int8") /* ty=Tensor[(1, 56, 4, 4), int8] */;
  %255 = where(%252, %253, %254) /* ty=Tensor[(1, 56, 4, 4), int8] */;
  %256 = cast(%255, dtype="float32") /* ty=Tensor[(1, 56, 4, 4), float32] */;
  %257 = reshape(%v15_qadd_scale_y, newshape=[1, -1, 1, 1]) /* ty=Tensor[(1, 1, 1, 1), float32] */;
  %258 = divide(%256, %257) /* ty=Tensor[(1, 56, 4, 4), float32] */;
  %259 = reshape(%v15_qadd_scale_x2, newshape=[1, -1, 1, 1]) /* ty=Tensor[(1, 1, 1, 1), float32] */;
  %260 = multiply(%258, %259) /* ty=Tensor[(1, 56, 4, 4), float32] */;
  %261 = multiply(%243, %244) /* ty=Tensor[(1, 56, 4, 4), bool] */;
  %262 = cast(%260, dtype="int8") /* ty=Tensor[(1, 56, 4, 4), int8] */;
  %263 = zeros(shape=[1, 56, 4, 4], dtype="int8") /* ty=Tensor[(1, 56, 4, 4), int8] */;
  %264 = where(%261, %262, %263) /* ty=Tensor[(1, 56, 4, 4), int8] */;
  %265 = cast(%264, dtype="int32") /* ty=Tensor[(1, 56, 4, 4), int32] */;
  %266 = greater_equal(%102, -128 /* ty=int32 */) /* ty=Tensor[(1, 336, 4, 4), bool] */;
  %267 = less_equal(%102, 127 /* ty=int32 */) /* ty=Tensor[(1, 336, 4, 4), bool] */;
  %268 = nn.conv2d_transpose(%264, %v15_conv_2_weight, channels=336, kernel_size=[1, 1], padding=[0, 0, 0, 0], kernel_layout="IOHW", out_dtype="int32") /* ty=Tensor[(1, 336, 4, 4), int32] */;
  %269 = abs(%268) /* ty=Tensor[(1, 336, 4, 4), int32] */;
  %270 = max(%269, axis=[1], keepdims=True) /* ty=Tensor[(1, 1, 4, 4), int32] */;
  %271 = divide(%270, 127 /* ty=int32 */) /* ty=Tensor[(1, 1, 4, 4), int32] */;
  %272 = divide(%268, %271) /* ty=Tensor[(1, 336, 4, 4), int32] */;
  %273 = multiply(%266, %267) /* ty=Tensor[(1, 336, 4, 4), bool] */;
  %274 = cast(%272, dtype="int8") /* ty=Tensor[(1, 336, 4, 4), int8] */;
  %275 = zeros(shape=[1, 336, 4, 4], dtype="int8") /* ty=Tensor[(1, 336, 4, 4), int8] */;
  %276 = where(%273, %274, %275) /* ty=Tensor[(1, 336, 4, 4), int8] */;
  %277 = cast(%276, dtype="int32") /* ty=Tensor[(1, 336, 4, 4), int32] */;
  %278 = greater_equal(%100, -128 /* ty=int32 */) /* ty=Tensor[(1, 336, 4, 4), bool] */;
  %279 = less_equal(%100, 127 /* ty=int32 */) /* ty=Tensor[(1, 336, 4, 4), bool] */;
  %280 = nn.conv2d_transpose(%276, %v15_conv_1_weight, channels=336, kernel_size=[3, 3], padding=[1, 1, 1, 1], groups=336, kernel_layout="IOHW", out_dtype="int32") /* ty=Tensor[(1, 336, 4, 4), int32] */;
  %281 = abs(%280) /* ty=Tensor[(1, 336, 4, 4), int32] */;
  %282 = max(%281, axis=[1], keepdims=True) /* ty=Tensor[(1, 1, 4, 4), int32] */;
  %283 = divide(%282, 127 /* ty=int32 */) /* ty=Tensor[(1, 1, 4, 4), int32] */;
  %284 = divide(%280, %283) /* ty=Tensor[(1, 336, 4, 4), int32] */;
  %285 = multiply(%278, %279) /* ty=Tensor[(1, 336, 4, 4), bool] */;
  %286 = cast(%284, dtype="int8") /* ty=Tensor[(1, 336, 4, 4), int8] */;
  %287 = zeros(shape=[1, 336, 4, 4], dtype="int8") /* ty=Tensor[(1, 336, 4, 4), int8] */;
  %288 = where(%285, %286, %287) /* ty=Tensor[(1, 336, 4, 4), int8] */;
  %289 = cast(%288, dtype="int32") /* ty=Tensor[(1, 336, 4, 4), int32] */;
  %290 = greater_equal(%98, -128 /* ty=int32 */) /* ty=Tensor[(1, 56, 4, 4), bool] */;
  %291 = less_equal(%98, 127 /* ty=int32 */) /* ty=Tensor[(1, 56, 4, 4), bool] */;
  %292 = nn.conv2d_transpose(%288, %v15_conv_0_weight, channels=56, kernel_size=[1, 1], padding=[0, 0, 0, 0], kernel_layout="IOHW", out_dtype="int32") /* ty=Tensor[(1, 56, 4, 4), int32] */;
  %293 = abs(%292) /* ty=Tensor[(1, 56, 4, 4), int32] */;
  %294 = max(%293, axis=[1], keepdims=True) /* ty=Tensor[(1, 1, 4, 4), int32] */;
  %295 = divide(%294, 127 /* ty=int32 */) /* ty=Tensor[(1, 1, 4, 4), int32] */;
  %296 = divide(%292, %295) /* ty=Tensor[(1, 56, 4, 4), int32] */;
  %297 = multiply(%290, %291) /* ty=Tensor[(1, 56, 4, 4), bool] */;
  %298 = cast(%296, dtype="int8") /* ty=Tensor[(1, 56, 4, 4), int8] */;
  %299 = zeros(shape=[1, 56, 4, 4], dtype="int8") /* ty=Tensor[(1, 56, 4, 4), int8] */;
  %300 = where(%297, %298, %299) /* ty=Tensor[(1, 56, 4, 4), int8] */;
  %301 = cast(%300, dtype="int32") /* ty=Tensor[(1, 56, 4, 4), int32] */;
  %302 = greater_equal(%96, -128 /* ty=int32 */) /* ty=Tensor[(1, 192, 4, 4), bool] */;
  %303 = less_equal(%96, 127 /* ty=int32 */) /* ty=Tensor[(1, 192, 4, 4), bool] */;
  %304 = nn.conv2d_transpose(%300, %v14_conv_2_weight, channels=192, kernel_size=[1, 1], padding=[0, 0, 0, 0], kernel_layout="IOHW", out_dtype="int32") /* ty=Tensor[(1, 192, 4, 4), int32] */;
  %305 = abs(%304) /* ty=Tensor[(1, 192, 4, 4), int32] */;
  %306 = max(%305, axis=[1], keepdims=True) /* ty=Tensor[(1, 1, 4, 4), int32] */;
  %307 = divide(%306, 127 /* ty=int32 */) /* ty=Tensor[(1, 1, 4, 4), int32] */;
  %308 = divide(%304, %307) /* ty=Tensor[(1, 192, 4, 4), int32] */;
  %309 = multiply(%302, %303) /* ty=Tensor[(1, 192, 4, 4), bool] */;
  %310 = cast(%308, dtype="int8") /* ty=Tensor[(1, 192, 4, 4), int8] */;
  %311 = zeros(shape=[1, 192, 4, 4], dtype="int8") /* ty=Tensor[(1, 192, 4, 4), int8] */;
  %312 = where(%309, %310, %311) /* ty=Tensor[(1, 192, 4, 4), int8] */;
  %313 = cast(%312, dtype="int32") /* ty=Tensor[(1, 192, 4, 4), int32] */;
  %314 = greater_equal(%94, -128 /* ty=int32 */) /* ty=Tensor[(1, 192, 8, 8), bool] */;
  %315 = less_equal(%94, 127 /* ty=int32 */) /* ty=Tensor[(1, 192, 8, 8), bool] */;
  %316 = nn.conv2d_transpose(%312, %v14_conv_1_weight, channels=192, kernel_size=[3, 3], strides=[2, 2], output_padding=[1, 1], padding=[1, 1, 1, 1], groups=192, kernel_layout="IOHW", out_dtype="int32") /* ty=Tensor[(1, 192, 8, 8), int32] */;
  %317 = abs(%316) /* ty=Tensor[(1, 192, 8, 8), int32] */;
  %318 = max(%317, axis=[1], keepdims=True) /* ty=Tensor[(1, 1, 8, 8), int32] */;
  %319 = divide(%318, 127 /* ty=int32 */) /* ty=Tensor[(1, 1, 8, 8), int32] */;
  %320 = divide(%316, %319) /* ty=Tensor[(1, 192, 8, 8), int32] */;
  %321 = multiply(%314, %315) /* ty=Tensor[(1, 192, 8, 8), bool] */;
  %322 = cast(%320, dtype="int8") /* ty=Tensor[(1, 192, 8, 8), int8] */;
  %323 = zeros(shape=[1, 192, 8, 8], dtype="int8") /* ty=Tensor[(1, 192, 8, 8), int8] */;
  %324 = where(%321, %322, %323) /* ty=Tensor[(1, 192, 8, 8), int8] */;
  %325 = cast(%324, dtype="float32") /* ty=Tensor[(1, 192, 8, 8), float32] */;
  %326 = reshape(%v14_conv_0_scale, newshape=[1, -1, 1, 1]) /* ty=Tensor[(1, 192, 1, 1), float32] */;
  %327 = multiply(%325, %326) /* ty=Tensor[(1, 192, 8, 8), float32] */;
  %328 = cast(%93, dtype="float32") /* ty=Tensor[(1, 32, 8, 8), float32] */;
  %329 = strided_slice(%328, begin=[0, 0, 0, 0], end=[1, 8, 8, 8], strides=[1], axes=None) /* ty=Tensor[(1, 8, 8, 8), float32] */;
  %330 = tile(%327, reps=[1, 8, 1, 1]) /* ty=Tensor[(1, 1536, 8, 8), float32] */;
  %331 = reshape(%329, newshape=[1, -1, 0, 0]) /* ty=Tensor[(1, 8, 8, 8), float32] */;
  %332 = reshape(%330, newshape=[-1, 1, 0, 0]) /* ty=Tensor[(1536, 1, 8, 8), float32] */;
  %333 = nn.conv2d(%331, %332, padding=[0, 0, 0, 0], groups=8) /* ty=Tensor[(1, 1536, 1, 1), float32] */;
  %334 = reshape(%333, newshape=[1, 8, 192, 1, 1]) /* ty=Tensor[(1, 8, 192, 1, 1), float32] */;
  %335 = sum(%334, axis=[0]) /* ty=Tensor[(8, 192, 1, 1), float32] */;
  %336 = greater_equal(%90, -128 /* ty=int32 */) /* ty=Tensor[(1, 32, 8, 8), bool] */;
  %337 = less_equal(%90, 127 /* ty=int32 */) /* ty=Tensor[(1, 32, 8, 8), bool] */;
  %338 = greater_equal(%92, meta[relay.Constant][4] /* ty=int8 */) /* ty=Tensor[(1, 32, 8, 8), bool] */;
  %339 = less_equal(%92, meta[relay.Constant][5] /* ty=int8 */) /* ty=Tensor[(1, 32, 8, 8), bool] */;
  %340 = cast(%v14_conv_0_weight, dtype="float32") /* ty=Tensor[(192, 32, 1, 1), float32] */;
  %341 = multiply(%338, %339) /* ty=Tensor[(1, 32, 8, 8), bool] */;
  %342 = nn.conv2d_transpose(%327, %340, channels=32, kernel_size=[1, 1], padding=[0, 0, 0, 0], kernel_layout="IOHW") /* ty=Tensor[(1, 32, 8, 8), float32] */;
  %343 = zeros(shape=[1, 32, 8, 8], dtype="float32") /* ty=Tensor[(1, 32, 8, 8), float32] */;
  %344 = where(%341, %342, %343) /* ty=Tensor[(1, 32, 8, 8), float32] */;
  %345 = reshape(%v13_qadd_scale_y, newshape=[1, -1, 1, 1]) /* ty=Tensor[(1, 1, 1, 1), float32] */;
  %346 = divide(%344, %345) /* ty=Tensor[(1, 32, 8, 8), float32] */;
  %347 = reshape(%v13_qadd_scale_x2, newshape=[1, -1, 1, 1]) /* ty=Tensor[(1, 1, 1, 1), float32] */;
  %348 = multiply(%336, %337) /* ty=Tensor[(1, 32, 8, 8), bool] */;
  %349 = multiply(%346, %347) /* ty=Tensor[(1, 32, 8, 8), float32] */;
  %350 = zeros(shape=[1, 32, 8, 8], dtype="float32") /* ty=Tensor[(1, 32, 8, 8), float32] */;
  %351 = where(%348, %349, %350) /* ty=Tensor[(1, 32, 8, 8), float32] */;
  %352 = cast(%351, dtype="int32") /* ty=Tensor[(1, 32, 8, 8), int32] */;
  %353 = greater_equal(%88, -128 /* ty=int32 */) /* ty=Tensor[(1, 192, 8, 8), bool] */;
  %354 = less_equal(%88, 127 /* ty=int32 */) /* ty=Tensor[(1, 192, 8, 8), bool] */;
  %355 = cast(%v13_conv_2_weight, dtype="float32") /* ty=Tensor[(32, 192, 1, 1), float32] */;
  %356 = nn.conv2d_transpose(%351, %355, channels=192, kernel_size=[1, 1], padding=[0, 0, 0, 0], kernel_layout="IOHW", out_dtype="float32") /* ty=Tensor[(1, 192, 8, 8), float32] */;
  %357 = abs(%356) /* ty=Tensor[(1, 192, 8, 8), float32] */;
  %358 = max(%357, axis=[1], keepdims=True) /* ty=Tensor[(1, 1, 8, 8), float32] */;
  %359 = divide(%358, 127f /* ty=float32 */) /* ty=Tensor[(1, 1, 8, 8), float32] */;
  %360 = divide(%356, %359) /* ty=Tensor[(1, 192, 8, 8), float32] */;
  %361 = multiply(%353, %354) /* ty=Tensor[(1, 192, 8, 8), bool] */;
  %362 = cast(%360, dtype="int8") /* ty=Tensor[(1, 192, 8, 8), int8] */;
  %363 = zeros(shape=[1, 192, 8, 8], dtype="int8") /* ty=Tensor[(1, 192, 8, 8), int8] */;
  %364 = where(%361, %362, %363) /* ty=Tensor[(1, 192, 8, 8), int8] */;
  %365 = cast(%364, dtype="int32") /* ty=Tensor[(1, 192, 8, 8), int32] */;
  %366 = greater_equal(%86, -128 /* ty=int32 */) /* ty=Tensor[(1, 192, 8, 8), bool] */;
  %367 = less_equal(%86, 127 /* ty=int32 */) /* ty=Tensor[(1, 192, 8, 8), bool] */;
  %368 = nn.conv2d_transpose(%364, %v13_conv_1_weight, channels=192, kernel_size=[3, 3], padding=[1, 1, 1, 1], groups=192, kernel_layout="IOHW", out_dtype="int32") /* ty=Tensor[(1, 192, 8, 8), int32] */;
  %369 = abs(%368) /* ty=Tensor[(1, 192, 8, 8), int32] */;
  %370 = max(%369, axis=[1], keepdims=True) /* ty=Tensor[(1, 1, 8, 8), int32] */;
  %371 = divide(%370, 127 /* ty=int32 */) /* ty=Tensor[(1, 1, 8, 8), int32] */;
  %372 = divide(%368, %371) /* ty=Tensor[(1, 192, 8, 8), int32] */;
  %373 = multiply(%366, %367) /* ty=Tensor[(1, 192, 8, 8), bool] */;
  %374 = cast(%372, dtype="int8") /* ty=Tensor[(1, 192, 8, 8), int8] */;
  %375 = zeros(shape=[1, 192, 8, 8], dtype="int8") /* ty=Tensor[(1, 192, 8, 8), int8] */;
  %376 = where(%373, %374, %375) /* ty=Tensor[(1, 192, 8, 8), int8] */;
  %377 = cast(%376, dtype="float32") /* ty=Tensor[(1, 192, 8, 8), float32] */;
  %378 = reshape(%v13_conv_0_scale, newshape=[1, -1, 1, 1]) /* ty=Tensor[(1, 192, 1, 1), float32] */;
  %379 = multiply(%377, %378) /* ty=Tensor[(1, 192, 8, 8), float32] */;
  %380 = cast(%85, dtype="float32") /* ty=Tensor[(1, 32, 8, 8), float32] */;
  %381 = strided_slice(%380, begin=[0, 0, 0, 0], end=[1, 4, 8, 8], strides=[1], axes=None) /* ty=Tensor[(1, 4, 8, 8), float32] */;
  %382 = tile(%379, reps=[1, 4, 1, 1]) /* ty=Tensor[(1, 768, 8, 8), float32] */;
  %383 = reshape(%381, newshape=[1, -1, 0, 0]) /* ty=Tensor[(1, 4, 8, 8), float32] */;
  %384 = reshape(%382, newshape=[-1, 1, 0, 0]) /* ty=Tensor[(768, 1, 8, 8), float32] */;
  %385 = nn.conv2d(%383, %384, padding=[0, 0, 0, 0], groups=4) /* ty=Tensor[(1, 768, 1, 1), float32] */;
  %386 = reshape(%385, newshape=[1, 4, 192, 1, 1]) /* ty=Tensor[(1, 4, 192, 1, 1), float32] */;
  %387 = sum(%386, axis=[0]) /* ty=Tensor[(4, 192, 1, 1), float32] */;
  %388 = greater_equal(%82, -128 /* ty=int32 */) /* ty=Tensor[(1, 32, 8, 8), bool] */;
  %389 = less_equal(%82, 127 /* ty=int32 */) /* ty=Tensor[(1, 32, 8, 8), bool] */;
  %390 = greater_equal(%84, meta[relay.Constant][6] /* ty=int8 */) /* ty=Tensor[(1, 32, 8, 8), bool] */;
  %391 = less_equal(%84, meta[relay.Constant][7] /* ty=int8 */) /* ty=Tensor[(1, 32, 8, 8), bool] */;
  %392 = cast(%v13_conv_0_weight, dtype="float32") /* ty=Tensor[(192, 32, 1, 1), float32] */;
  %393 = multiply(%390, %391) /* ty=Tensor[(1, 32, 8, 8), bool] */;
  %394 = nn.conv2d_transpose(%379, %392, channels=32, kernel_size=[1, 1], padding=[0, 0, 0, 0], kernel_layout="IOHW") /* ty=Tensor[(1, 32, 8, 8), float32] */;
  %395 = zeros(shape=[1, 32, 8, 8], dtype="float32") /* ty=Tensor[(1, 32, 8, 8), float32] */;
  %396 = where(%393, %394, %395) /* ty=Tensor[(1, 32, 8, 8), float32] */;
  %397 = reshape(%v12_qadd_scale_y, newshape=[1, -1, 1, 1]) /* ty=Tensor[(1, 1, 1, 1), float32] */;
  %398 = divide(%396, %397) /* ty=Tensor[(1, 32, 8, 8), float32] */;
  %399 = reshape(%v12_qadd_scale_x2, newshape=[1, -1, 1, 1]) /* ty=Tensor[(1, 1, 1, 1), float32] */;
  %400 = multiply(%388, %389) /* ty=Tensor[(1, 32, 8, 8), bool] */;
  %401 = multiply(%398, %399) /* ty=Tensor[(1, 32, 8, 8), float32] */;
  %402 = zeros(shape=[1, 32, 8, 8], dtype="float32") /* ty=Tensor[(1, 32, 8, 8), float32] */;
  %403 = where(%400, %401, %402) /* ty=Tensor[(1, 32, 8, 8), float32] */;
  %404 = cast(%403, dtype="int32") /* ty=Tensor[(1, 32, 8, 8), int32] */;
  %405 = greater_equal(%80, -128 /* ty=int32 */) /* ty=Tensor[(1, 192, 8, 8), bool] */;
  %406 = less_equal(%80, 127 /* ty=int32 */) /* ty=Tensor[(1, 192, 8, 8), bool] */;
  %407 = cast(%v12_conv_2_weight, dtype="float32") /* ty=Tensor[(32, 192, 1, 1), float32] */;
  %408 = nn.conv2d_transpose(%403, %407, channels=192, kernel_size=[1, 1], padding=[0, 0, 0, 0], kernel_layout="IOHW", out_dtype="float32") /* ty=Tensor[(1, 192, 8, 8), float32] */;
  %409 = abs(%408) /* ty=Tensor[(1, 192, 8, 8), float32] */;
  %410 = max(%409, axis=[1], keepdims=True) /* ty=Tensor[(1, 1, 8, 8), float32] */;
  %411 = divide(%410, 127f /* ty=float32 */) /* ty=Tensor[(1, 1, 8, 8), float32] */;
  %412 = divide(%408, %411) /* ty=Tensor[(1, 192, 8, 8), float32] */;
  %413 = multiply(%405, %406) /* ty=Tensor[(1, 192, 8, 8), bool] */;
  %414 = cast(%412, dtype="int8") /* ty=Tensor[(1, 192, 8, 8), int8] */;
  %415 = zeros(shape=[1, 192, 8, 8], dtype="int8") /* ty=Tensor[(1, 192, 8, 8), int8] */;
  %416 = where(%413, %414, %415) /* ty=Tensor[(1, 192, 8, 8), int8] */;
  %417 = cast(%416, dtype="int32") /* ty=Tensor[(1, 192, 8, 8), int32] */;
  %418 = greater_equal(%78, -128 /* ty=int32 */) /* ty=Tensor[(1, 192, 8, 8), bool] */;
  %419 = less_equal(%78, 127 /* ty=int32 */) /* ty=Tensor[(1, 192, 8, 8), bool] */;
  %420 = nn.conv2d_transpose(%416, %v12_conv_1_weight, channels=192, kernel_size=[3, 3], padding=[1, 1, 1, 1], groups=192, kernel_layout="IOHW", out_dtype="int32") /* ty=Tensor[(1, 192, 8, 8), int32] */;
  %421 = abs(%420) /* ty=Tensor[(1, 192, 8, 8), int32] */;
  %422 = max(%421, axis=[1], keepdims=True) /* ty=Tensor[(1, 1, 8, 8), int32] */;
  %423 = divide(%422, 127 /* ty=int32 */) /* ty=Tensor[(1, 1, 8, 8), int32] */;
  %424 = divide(%420, %423) /* ty=Tensor[(1, 192, 8, 8), int32] */;
  %425 = multiply(%418, %419) /* ty=Tensor[(1, 192, 8, 8), bool] */;
  %426 = cast(%424, dtype="int8") /* ty=Tensor[(1, 192, 8, 8), int8] */;
  %427 = zeros(shape=[1, 192, 8, 8], dtype="int8") /* ty=Tensor[(1, 192, 8, 8), int8] */;
  %428 = where(%425, %426, %427) /* ty=Tensor[(1, 192, 8, 8), int8] */;
  %429 = cast(%428, dtype="int32") /* ty=Tensor[(1, 192, 8, 8), int32] */;
  %430 = greater_equal(%76, -128 /* ty=int32 */) /* ty=Tensor[(1, 32, 8, 8), bool] */;
  %431 = less_equal(%76, 127 /* ty=int32 */) /* ty=Tensor[(1, 32, 8, 8), bool] */;
  %432 = nn.conv2d_transpose(%428, %v12_conv_0_weight, channels=32, kernel_size=[1, 1], padding=[0, 0, 0, 0], kernel_layout="IOHW", out_dtype="int32") /* ty=Tensor[(1, 32, 8, 8), int32] */;
  %433 = abs(%432) /* ty=Tensor[(1, 32, 8, 8), int32] */;
  %434 = max(%433, axis=[1], keepdims=True) /* ty=Tensor[(1, 1, 8, 8), int32] */;
  %435 = divide(%434, 127 /* ty=int32 */) /* ty=Tensor[(1, 1, 8, 8), int32] */;
  %436 = divide(%432, %435) /* ty=Tensor[(1, 32, 8, 8), int32] */;
  %437 = multiply(%430, %431) /* ty=Tensor[(1, 32, 8, 8), bool] */;
  %438 = cast(%436, dtype="int8") /* ty=Tensor[(1, 32, 8, 8), int8] */;
  %439 = zeros(shape=[1, 32, 8, 8], dtype="int8") /* ty=Tensor[(1, 32, 8, 8), int8] */;
  %440 = where(%437, %438, %439) /* ty=Tensor[(1, 32, 8, 8), int8] */;
  %441 = cast(%440, dtype="int32") /* ty=Tensor[(1, 32, 8, 8), int32] */;
  %442 = greater_equal(%74, -128 /* ty=int32 */) /* ty=Tensor[(1, 144, 8, 8), bool] */;
  %443 = less_equal(%74, 127 /* ty=int32 */) /* ty=Tensor[(1, 144, 8, 8), bool] */;
  %444 = nn.conv2d_transpose(%440, %v11_conv_2_weight, channels=144, kernel_size=[1, 1], padding=[0, 0, 0, 0], kernel_layout="IOHW", out_dtype="int32") /* ty=Tensor[(1, 144, 8, 8), int32] */;
  %445 = abs(%444) /* ty=Tensor[(1, 144, 8, 8), int32] */;
  %446 = max(%445, axis=[1], keepdims=True) /* ty=Tensor[(1, 1, 8, 8), int32] */;
  %447 = divide(%446, 127 /* ty=int32 */) /* ty=Tensor[(1, 1, 8, 8), int32] */;
  %448 = divide(%444, %447) /* ty=Tensor[(1, 144, 8, 8), int32] */;
  %449 = multiply(%442, %443) /* ty=Tensor[(1, 144, 8, 8), bool] */;
  %450 = cast(%448, dtype="int8") /* ty=Tensor[(1, 144, 8, 8), int8] */;
  %451 = zeros(shape=[1, 144, 8, 8], dtype="int8") /* ty=Tensor[(1, 144, 8, 8), int8] */;
  %452 = where(%449, %450, %451) /* ty=Tensor[(1, 144, 8, 8), int8] */;
  %453 = cast(%452, dtype="int32") /* ty=Tensor[(1, 144, 8, 8), int32] */;
  %454 = greater_equal(%72, -128 /* ty=int32 */) /* ty=Tensor[(1, 144, 8, 8), bool] */;
  %455 = less_equal(%72, 127 /* ty=int32 */) /* ty=Tensor[(1, 144, 8, 8), bool] */;
  %456 = nn.conv2d_transpose(%452, %v11_conv_1_weight, channels=144, kernel_size=[3, 3], padding=[1, 1, 1, 1], groups=144, kernel_layout="IOHW", out_dtype="int32") /* ty=Tensor[(1, 144, 8, 8), int32] */;
  %457 = abs(%456) /* ty=Tensor[(1, 144, 8, 8), int32] */;
  %458 = max(%457, axis=[1], keepdims=True) /* ty=Tensor[(1, 1, 8, 8), int32] */;
  %459 = divide(%458, 127 /* ty=int32 */) /* ty=Tensor[(1, 1, 8, 8), int32] */;
  %460 = divide(%456, %459) /* ty=Tensor[(1, 144, 8, 8), int32] */;
  %461 = multiply(%454, %455) /* ty=Tensor[(1, 144, 8, 8), bool] */;
  %462 = cast(%460, dtype="int8") /* ty=Tensor[(1, 144, 8, 8), int8] */;
  %463 = zeros(shape=[1, 144, 8, 8], dtype="int8") /* ty=Tensor[(1, 144, 8, 8), int8] */;
  %464 = where(%461, %462, %463) /* ty=Tensor[(1, 144, 8, 8), int8] */;
  %465 = cast(%464, dtype="int32") /* ty=Tensor[(1, 144, 8, 8), int32] */;
  %466 = tile(%464, reps=[1, 24, 1, 1]) /* ty=Tensor[(1, 3456, 8, 8), int8] */;
  %467 = reshape(%71, newshape=[1, -1, 0, 0]) /* ty=Tensor[(1, 24, 8, 8), int8] */;
  %468 = reshape(%466, newshape=[-1, 1, 0, 0]) /* ty=Tensor[(3456, 1, 8, 8), int8] */;
  %469 = nn.conv2d(%467, %468, padding=[0, 0, 0, 0], groups=24, out_dtype="int32") /* ty=Tensor[(1, 3456, 1, 1), int32] */;
  %470 = reshape(%469, newshape=[1, 24, 144, 1, 1]) /* ty=Tensor[(1, 24, 144, 1, 1), int32] */;
  %471 = sum(%470, axis=[0]) /* ty=Tensor[(24, 144, 1, 1), int32] */;
  %472 = transpose(%471, axes=[1, 0, 2, 3]) /* ty=Tensor[(144, 24, 1, 1), int32] */;
  %473 = abs(%472) /* ty=Tensor[(144, 24, 1, 1), int32] */;
  %474 = max(%473, axis=[1], keepdims=True) /* ty=Tensor[(144, 1, 1, 1), int32] */;
  %475 = divide(%474, 127 /* ty=int32 */) /* ty=Tensor[(144, 1, 1, 1), int32] */;
  %476 = divide(%472, %475) /* ty=Tensor[(144, 24, 1, 1), int32] */;
  %477 = greater_equal(%68, -128 /* ty=int32 */) /* ty=Tensor[(1, 24, 8, 8), bool] */;
  %478 = less_equal(%68, 127 /* ty=int32 */) /* ty=Tensor[(1, 24, 8, 8), bool] */;
  %479 = greater_equal(%70, meta[relay.Constant][8] /* ty=int8 */) /* ty=Tensor[(1, 24, 8, 8), bool] */;
  %480 = less_equal(%70, meta[relay.Constant][9] /* ty=int8 */) /* ty=Tensor[(1, 24, 8, 8), bool] */;
  %481 = nn.conv2d_transpose(%464, %v11_conv_0_weight, channels=24, kernel_size=[1, 1], padding=[0, 0, 0, 0], kernel_layout="IOHW", out_dtype="int32") /* ty=Tensor[(1, 24, 8, 8), int32] */;
  %482 = abs(%481) /* ty=Tensor[(1, 24, 8, 8), int32] */;
  %483 = max(%482, axis=[1], keepdims=True) /* ty=Tensor[(1, 1, 8, 8), int32] */;
  %484 = divide(%483, 127 /* ty=int32 */) /* ty=Tensor[(1, 1, 8, 8), int32] */;
  %485 = divide(%481, %484) /* ty=Tensor[(1, 24, 8, 8), int32] */;
  %486 = multiply(%479, %480) /* ty=Tensor[(1, 24, 8, 8), bool] */;
  %487 = cast(%485, dtype="int8") /* ty=Tensor[(1, 24, 8, 8), int8] */;
  %488 = zeros(shape=[1, 24, 8, 8], dtype="int8") /* ty=Tensor[(1, 24, 8, 8), int8] */;
  %489 = where(%486, %487, %488) /* ty=Tensor[(1, 24, 8, 8), int8] */;
  %490 = cast(%489, dtype="float32") /* ty=Tensor[(1, 24, 8, 8), float32] */;
  %491 = reshape(%v10_qadd_scale_y, newshape=[1, -1, 1, 1]) /* ty=Tensor[(1, 1, 1, 1), float32] */;
  %492 = divide(%490, %491) /* ty=Tensor[(1, 24, 8, 8), float32] */;
  %493 = reshape(%v10_qadd_scale_x2, newshape=[1, -1, 1, 1]) /* ty=Tensor[(1, 1, 1, 1), float32] */;
  %494 = multiply(%492, %493) /* ty=Tensor[(1, 24, 8, 8), float32] */;
  %495 = multiply(%477, %478) /* ty=Tensor[(1, 24, 8, 8), bool] */;
  %496 = cast(%494, dtype="int8") /* ty=Tensor[(1, 24, 8, 8), int8] */;
  %497 = zeros(shape=[1, 24, 8, 8], dtype="int8") /* ty=Tensor[(1, 24, 8, 8), int8] */;
  %498 = where(%495, %496, %497) /* ty=Tensor[(1, 24, 8, 8), int8] */;
  %499 = cast(%498, dtype="int32") /* ty=Tensor[(1, 24, 8, 8), int32] */;
  %500 = greater_equal(%64, -128 /* ty=int32 */) /* ty=Tensor[(1, 144, 8, 8), bool] */;
  %501 = less_equal(%64, 127 /* ty=int32 */) /* ty=Tensor[(1, 144, 8, 8), bool] */;
  %502 = greater_equal(%66, -128 /* ty=int32 */) /* ty=Tensor[(1, 144, 8, 8), bool] */;
  %503 = less_equal(%66, 127 /* ty=int32 */) /* ty=Tensor[(1, 144, 8, 8), bool] */;
  %504 = nn.conv2d_transpose(%498, %v10_conv_2_weight, channels=144, kernel_size=[1, 1], padding=[0, 0, 0, 0], kernel_layout="IOHW", out_dtype="int32") /* ty=Tensor[(1, 144, 8, 8), int32] */;
  %505 = abs(%504) /* ty=Tensor[(1, 144, 8, 8), int32] */;
  %506 = max(%505, axis=[1], keepdims=True) /* ty=Tensor[(1, 1, 8, 8), int32] */;
  %507 = divide(%506, 127 /* ty=int32 */) /* ty=Tensor[(1, 1, 8, 8), int32] */;
  %508 = divide(%504, %507) /* ty=Tensor[(1, 144, 8, 8), int32] */;
  %509 = multiply(%502, %503) /* ty=Tensor[(1, 144, 8, 8), bool] */;
  %510 = cast(%508, dtype="int8") /* ty=Tensor[(1, 144, 8, 8), int8] */;
  %511 = zeros(shape=[1, 144, 8, 8], dtype="int8") /* ty=Tensor[(1, 144, 8, 8), int8] */;
  %512 = where(%509, %510, %511) /* ty=Tensor[(1, 144, 8, 8), int8] */;
  %513 = nn.conv2d_transpose(%512, %v10_conv_1_weight, channels=144, kernel_size=[3, 3], padding=[1, 1, 1, 1], groups=144, kernel_layout="IOHW", out_dtype="int32") /* ty=Tensor[(1, 144, 8, 8), int32] */;
  %514 = abs(%513) /* ty=Tensor[(1, 144, 8, 8), int32] */;
  %515 = max(%514, axis=[1], keepdims=True) /* ty=Tensor[(1, 1, 8, 8), int32] */;
  %516 = divide(%515, 127 /* ty=int32 */) /* ty=Tensor[(1, 1, 8, 8), int32] */;
  %517 = divide(%513, %516) /* ty=Tensor[(1, 144, 8, 8), int32] */;
  %518 = multiply(%500, %501) /* ty=Tensor[(1, 144, 8, 8), bool] */;
  %519 = cast(%517, dtype="int8") /* ty=Tensor[(1, 144, 8, 8), int8] */;
  %520 = zeros(shape=[1, 144, 8, 8], dtype="int8") /* ty=Tensor[(1, 144, 8, 8), int8] */;
  %521 = where(%518, %519, %520) /* ty=Tensor[(1, 144, 8, 8), int8] */;
  %522 = tile(%521, reps=[1, 24, 1, 1]) /* ty=Tensor[(1, 3456, 8, 8), int8] */;
  %523 = reshape(%63, newshape=[1, -1, 0, 0]) /* ty=Tensor[(1, 24, 8, 8), int8] */;
  %524 = reshape(%522, newshape=[-1, 1, 0, 0]) /* ty=Tensor[(3456, 1, 8, 8), int8] */;
  %525 = nn.conv2d(%523, %524, padding=[0, 0, 0, 0], groups=24, out_dtype="int32") /* ty=Tensor[(1, 3456, 1, 1), int32] */;
  %526 = reshape(%525, newshape=[1, 24, 144, 1, 1]) /* ty=Tensor[(1, 24, 144, 1, 1), int32] */;
  %527 = sum(%526, axis=[0]) /* ty=Tensor[(24, 144, 1, 1), int32] */;
  %528 = transpose(%527, axes=[1, 0, 2, 3]) /* ty=Tensor[(144, 24, 1, 1), int32] */;
  %529 = abs(%528) /* ty=Tensor[(144, 24, 1, 1), int32] */;
  %530 = max(%529, axis=[1], keepdims=True) /* ty=Tensor[(144, 1, 1, 1), int32] */;
  %531 = divide(%530, 127 /* ty=int32 */) /* ty=Tensor[(144, 1, 1, 1), int32] */;
  %532 = divide(%528, %531) /* ty=Tensor[(144, 24, 1, 1), int32] */;
  %533 = greater_equal(%56, -128 /* ty=int32 */) /* ty=Tensor[(1, 144, 8, 8), bool] */;
  %534 = less_equal(%56, 127 /* ty=int32 */) /* ty=Tensor[(1, 144, 8, 8), bool] */;
  %535 = greater_equal(%58, -128 /* ty=int32 */) /* ty=Tensor[(1, 144, 8, 8), bool] */;
  %536 = less_equal(%58, 127 /* ty=int32 */) /* ty=Tensor[(1, 144, 8, 8), bool] */;
  %537 = greater_equal(%60, -128 /* ty=int32 */) /* ty=Tensor[(1, 24, 8, 8), bool] */;
  %538 = less_equal(%60, 127 /* ty=int32 */) /* ty=Tensor[(1, 24, 8, 8), bool] */;
  %539 = greater_equal(%62, meta[relay.Constant][10] /* ty=int8 */) /* ty=Tensor[(1, 24, 8, 8), bool] */;
  %540 = less_equal(%62, meta[relay.Constant][11] /* ty=int8 */) /* ty=Tensor[(1, 24, 8, 8), bool] */;
  %541 = nn.conv2d_transpose(%521, %v10_conv_0_weight, channels=24, kernel_size=[1, 1], padding=[0, 0, 0, 0], kernel_layout="IOHW", out_dtype="int32") /* ty=Tensor[(1, 24, 8, 8), int32] */;
  %542 = abs(%541) /* ty=Tensor[(1, 24, 8, 8), int32] */;
  %543 = max(%542, axis=[1], keepdims=True) /* ty=Tensor[(1, 1, 8, 8), int32] */;
  %544 = divide(%543, 127 /* ty=int32 */) /* ty=Tensor[(1, 1, 8, 8), int32] */;
  %545 = divide(%541, %544) /* ty=Tensor[(1, 24, 8, 8), int32] */;
  %546 = multiply(%539, %540) /* ty=Tensor[(1, 24, 8, 8), bool] */;
  %547 = cast(%545, dtype="int8") /* ty=Tensor[(1, 24, 8, 8), int8] */;
  %548 = zeros(shape=[1, 24, 8, 8], dtype="int8") /* ty=Tensor[(1, 24, 8, 8), int8] */;
  %549 = where(%546, %547, %548) /* ty=Tensor[(1, 24, 8, 8), int8] */;
  %550 = cast(%549, dtype="float32") /* ty=Tensor[(1, 24, 8, 8), float32] */;
  %551 = reshape(%v9_qadd_scale_y, newshape=[1, -1, 1, 1]) /* ty=Tensor[(1, 1, 1, 1), float32] */;
  %552 = divide(%550, %551) /* ty=Tensor[(1, 24, 8, 8), float32] */;
  %553 = reshape(%v9_qadd_scale_x2, newshape=[1, -1, 1, 1]) /* ty=Tensor[(1, 1, 1, 1), float32] */;
  %554 = multiply(%552, %553) /* ty=Tensor[(1, 24, 8, 8), float32] */;
  %555 = multiply(%537, %538) /* ty=Tensor[(1, 24, 8, 8), bool] */;
  %556 = cast(%554, dtype="int8") /* ty=Tensor[(1, 24, 8, 8), int8] */;
  %557 = zeros(shape=[1, 24, 8, 8], dtype="int8") /* ty=Tensor[(1, 24, 8, 8), int8] */;
  %558 = where(%555, %556, %557) /* ty=Tensor[(1, 24, 8, 8), int8] */;
  %559 = nn.conv2d_transpose(%558, %v9_conv_2_weight, channels=144, kernel_size=[1, 1], padding=[0, 0, 0, 0], kernel_layout="IOHW", out_dtype="int32") /* ty=Tensor[(1, 144, 8, 8), int32] */;
  %560 = abs(%559) /* ty=Tensor[(1, 144, 8, 8), int32] */;
  %561 = max(%560, axis=[1], keepdims=True) /* ty=Tensor[(1, 1, 8, 8), int32] */;
  %562 = divide(%561, 127 /* ty=int32 */) /* ty=Tensor[(1, 1, 8, 8), int32] */;
  %563 = divide(%559, %562) /* ty=Tensor[(1, 144, 8, 8), int32] */;
  %564 = multiply(%535, %536) /* ty=Tensor[(1, 144, 8, 8), bool] */;
  %565 = cast(%563, dtype="int8") /* ty=Tensor[(1, 144, 8, 8), int8] */;
  %566 = zeros(shape=[1, 144, 8, 8], dtype="int8") /* ty=Tensor[(1, 144, 8, 8), int8] */;
  %567 = where(%564, %565, %566) /* ty=Tensor[(1, 144, 8, 8), int8] */;
  %568 = nn.conv2d_transpose(%567, %v9_conv_1_weight, channels=144, kernel_size=[3, 3], padding=[1, 1, 1, 1], groups=144, kernel_layout="IOHW", out_dtype="int32") /* ty=Tensor[(1, 144, 8, 8), int32] */;
  %569 = abs(%568) /* ty=Tensor[(1, 144, 8, 8), int32] */;
  %570 = max(%569, axis=[1], keepdims=True) /* ty=Tensor[(1, 1, 8, 8), int32] */;
  %571 = divide(%570, 127 /* ty=int32 */) /* ty=Tensor[(1, 1, 8, 8), int32] */;
  %572 = divide(%568, %571) /* ty=Tensor[(1, 144, 8, 8), int32] */;
  %573 = multiply(%533, %534) /* ty=Tensor[(1, 144, 8, 8), bool] */;
  %574 = cast(%572, dtype="int8") /* ty=Tensor[(1, 144, 8, 8), int8] */;
  %575 = zeros(shape=[1, 144, 8, 8], dtype="int8") /* ty=Tensor[(1, 144, 8, 8), int8] */;
  %576 = where(%573, %574, %575) /* ty=Tensor[(1, 144, 8, 8), int8] */;
  %577 = tile(%576, reps=[1, 24, 1, 1]) /* ty=Tensor[(1, 3456, 8, 8), int8] */;
  %578 = reshape(%55, newshape=[1, -1, 0, 0]) /* ty=Tensor[(1, 24, 8, 8), int8] */;
  %579 = reshape(%577, newshape=[-1, 1, 0, 0]) /* ty=Tensor[(3456, 1, 8, 8), int8] */;
  %580 = nn.conv2d(%578, %579, padding=[0, 0, 0, 0], groups=24, out_dtype="int32") /* ty=Tensor[(1, 3456, 1, 1), int32] */;
  %581 = reshape(%580, newshape=[1, 24, 144, 1, 1]) /* ty=Tensor[(1, 24, 144, 1, 1), int32] */;
  %582 = sum(%581, axis=[0]) /* ty=Tensor[(24, 144, 1, 1), int32] */;
  %583 = transpose(%582, axes=[1, 0, 2, 3]) /* ty=Tensor[(144, 24, 1, 1), int32] */;
  %584 = abs(%583) /* ty=Tensor[(144, 24, 1, 1), int32] */;
  %585 = max(%584, axis=[1], keepdims=True) /* ty=Tensor[(144, 1, 1, 1), int32] */;
  %586 = divide(%585, 127 /* ty=int32 */) /* ty=Tensor[(144, 1, 1, 1), int32] */;
  %587 = divide(%583, %586) /* ty=Tensor[(144, 24, 1, 1), int32] */;
  %588 = greater_equal(%48, -128 /* ty=int32 */) /* ty=Tensor[(1, 144, 8, 8), bool] */;
  %589 = less_equal(%48, 127 /* ty=int32 */) /* ty=Tensor[(1, 144, 8, 8), bool] */;
  %590 = greater_equal(%50, -128 /* ty=int32 */) /* ty=Tensor[(1, 144, 8, 8), bool] */;
  %591 = less_equal(%50, 127 /* ty=int32 */) /* ty=Tensor[(1, 144, 8, 8), bool] */;
  %592 = greater_equal(%52, -128 /* ty=int32 */) /* ty=Tensor[(1, 24, 8, 8), bool] */;
  %593 = less_equal(%52, 127 /* ty=int32 */) /* ty=Tensor[(1, 24, 8, 8), bool] */;
  %594 = greater_equal(%54, meta[relay.Constant][12] /* ty=int8 */) /* ty=Tensor[(1, 24, 8, 8), bool] */;
  %595 = less_equal(%54, meta[relay.Constant][13] /* ty=int8 */) /* ty=Tensor[(1, 24, 8, 8), bool] */;
  %596 = nn.conv2d_transpose(%576, %v9_conv_0_weight, channels=24, kernel_size=[1, 1], padding=[0, 0, 0, 0], kernel_layout="IOHW", out_dtype="int32") /* ty=Tensor[(1, 24, 8, 8), int32] */;
  %597 = abs(%596) /* ty=Tensor[(1, 24, 8, 8), int32] */;
  %598 = max(%597, axis=[1], keepdims=True) /* ty=Tensor[(1, 1, 8, 8), int32] */;
  %599 = divide(%598, 127 /* ty=int32 */) /* ty=Tensor[(1, 1, 8, 8), int32] */;
  %600 = divide(%596, %599) /* ty=Tensor[(1, 24, 8, 8), int32] */;
  %601 = multiply(%594, %595) /* ty=Tensor[(1, 24, 8, 8), bool] */;
  %602 = cast(%600, dtype="int8") /* ty=Tensor[(1, 24, 8, 8), int8] */;
  %603 = zeros(shape=[1, 24, 8, 8], dtype="int8") /* ty=Tensor[(1, 24, 8, 8), int8] */;
  %604 = where(%601, %602, %603) /* ty=Tensor[(1, 24, 8, 8), int8] */;
  %605 = cast(%604, dtype="float32") /* ty=Tensor[(1, 24, 8, 8), float32] */;
  %606 = reshape(%v8_qadd_scale_y, newshape=[1, -1, 1, 1]) /* ty=Tensor[(1, 1, 1, 1), float32] */;
  %607 = divide(%605, %606) /* ty=Tensor[(1, 24, 8, 8), float32] */;
  %608 = reshape(%v8_qadd_scale_x2, newshape=[1, -1, 1, 1]) /* ty=Tensor[(1, 1, 1, 1), float32] */;
  %609 = multiply(%607, %608) /* ty=Tensor[(1, 24, 8, 8), float32] */;
  %610 = multiply(%592, %593) /* ty=Tensor[(1, 24, 8, 8), bool] */;
  %611 = cast(%609, dtype="int8") /* ty=Tensor[(1, 24, 8, 8), int8] */;
  %612 = zeros(shape=[1, 24, 8, 8], dtype="int8") /* ty=Tensor[(1, 24, 8, 8), int8] */;
  %613 = where(%610, %611, %612) /* ty=Tensor[(1, 24, 8, 8), int8] */;
  %614 = nn.conv2d_transpose(%613, %v8_conv_2_weight, channels=144, kernel_size=[1, 1], padding=[0, 0, 0, 0], kernel_layout="IOHW", out_dtype="int32") /* ty=Tensor[(1, 144, 8, 8), int32] */;
  %615 = abs(%614) /* ty=Tensor[(1, 144, 8, 8), int32] */;
  %616 = max(%615, axis=[1], keepdims=True) /* ty=Tensor[(1, 1, 8, 8), int32] */;
  %617 = divide(%616, 127 /* ty=int32 */) /* ty=Tensor[(1, 1, 8, 8), int32] */;
  %618 = divide(%614, %617) /* ty=Tensor[(1, 144, 8, 8), int32] */;
  %619 = multiply(%590, %591) /* ty=Tensor[(1, 144, 8, 8), bool] */;
  %620 = cast(%618, dtype="int8") /* ty=Tensor[(1, 144, 8, 8), int8] */;
  %621 = zeros(shape=[1, 144, 8, 8], dtype="int8") /* ty=Tensor[(1, 144, 8, 8), int8] */;
  %622 = where(%619, %620, %621) /* ty=Tensor[(1, 144, 8, 8), int8] */;
  %623 = nn.conv2d_transpose(%622, %v8_conv_1_weight, channels=144, kernel_size=[3, 3], padding=[1, 1, 1, 1], groups=144, kernel_layout="IOHW", out_dtype="int32") /* ty=Tensor[(1, 144, 8, 8), int32] */;
  %624 = abs(%623) /* ty=Tensor[(1, 144, 8, 8), int32] */;
  %625 = max(%624, axis=[1], keepdims=True) /* ty=Tensor[(1, 1, 8, 8), int32] */;
  %626 = divide(%625, 127 /* ty=int32 */) /* ty=Tensor[(1, 1, 8, 8), int32] */;
  %627 = divide(%623, %626) /* ty=Tensor[(1, 144, 8, 8), int32] */;
  %628 = multiply(%588, %589) /* ty=Tensor[(1, 144, 8, 8), bool] */;
  %629 = cast(%627, dtype="int8") /* ty=Tensor[(1, 144, 8, 8), int8] */;
  %630 = zeros(shape=[1, 144, 8, 8], dtype="int8") /* ty=Tensor[(1, 144, 8, 8), int8] */;
  %631 = where(%628, %629, %630) /* ty=Tensor[(1, 144, 8, 8), int8] */;
  %632 = tile(%631, reps=[1, 24, 1, 1]) /* ty=Tensor[(1, 3456, 8, 8), int8] */;
  %633 = reshape(%47, newshape=[1, -1, 0, 0]) /* ty=Tensor[(1, 24, 8, 8), int8] */;
  %634 = reshape(%632, newshape=[-1, 1, 0, 0]) /* ty=Tensor[(3456, 1, 8, 8), int8] */;
  %635 = nn.conv2d(%633, %634, padding=[0, 0, 0, 0], groups=24, out_dtype="int32") /* ty=Tensor[(1, 3456, 1, 1), int32] */;
  %636 = reshape(%635, newshape=[1, 24, 144, 1, 1]) /* ty=Tensor[(1, 24, 144, 1, 1), int32] */;
  %637 = sum(%636, axis=[0]) /* ty=Tensor[(24, 144, 1, 1), int32] */;
  %638 = transpose(%637, axes=[1, 0, 2, 3]) /* ty=Tensor[(144, 24, 1, 1), int32] */;
  %639 = abs(%638) /* ty=Tensor[(144, 24, 1, 1), int32] */;
  %640 = max(%639, axis=[1], keepdims=True) /* ty=Tensor[(144, 1, 1, 1), int32] */;
  %641 = divide(%640, 127 /* ty=int32 */) /* ty=Tensor[(144, 1, 1, 1), int32] */;
  %642 = divide(%638, %641) /* ty=Tensor[(144, 24, 1, 1), int32] */;
  %643 = nn.cross_entropy_with_logits(%127, %label) /* ty=float32 */;
  %644 = sum(%141, axis=[1], exclude=True) /* ty=Tensor[(10), int32] */;
  %645 = cast(%153, dtype="int8") /* ty=Tensor[(10, 112, 1, 1), int8] */;
  %646 = sum(%170, axis=[1], exclude=True) /* ty=Tensor[(112), int32] */;
  %647 = sum(%183, axis=[1], exclude=True) /* ty=Tensor[(336), int32] */;
  %648 = sum(%195, axis=[1], exclude=True) /* ty=Tensor[(336), int32] */;
  %649 = sum(%218, axis=[1], exclude=True) /* ty=Tensor[(56), int32] */;
  %650 = sum(%230, axis=[1], exclude=True) /* ty=Tensor[(336), int32] */;
  %651 = sum(%242, axis=[1], exclude=True) /* ty=Tensor[(336), int32] */;
  %652 = sum(%265, axis=[1], exclude=True) /* ty=Tensor[(56), int32] */;
  %653 = sum(%277, axis=[1], exclude=True) /* ty=Tensor[(336), int32] */;
  %654 = sum(%289, axis=[1], exclude=True) /* ty=Tensor[(336), int32] */;
  %655 = sum(%301, axis=[1], exclude=True) /* ty=Tensor[(56), int32] */;
  %656 = sum(%313, axis=[1], exclude=True) /* ty=Tensor[(192), int32] */;
  %657 = sum(%327, axis=[1], exclude=True) /* ty=Tensor[(192), float32] */;
  %658 = transpose(%335, axes=[1, 0, 2, 3]) /* ty=Tensor[(192, 8, 1, 1), float32] */;
  %659 = sum(%352, axis=[1], exclude=True) /* ty=Tensor[(32), int32] */;
  %660 = sum(%365, axis=[1], exclude=True) /* ty=Tensor[(192), int32] */;
  %661 = sum(%379, axis=[1], exclude=True) /* ty=Tensor[(192), float32] */;
  %662 = transpose(%387, axes=[1, 0, 2, 3]) /* ty=Tensor[(192, 4, 1, 1), float32] */;
  %663 = sum(%404, axis=[1], exclude=True) /* ty=Tensor[(32), int32] */;
  %664 = sum(%417, axis=[1], exclude=True) /* ty=Tensor[(192), int32] */;
  %665 = sum(%429, axis=[1], exclude=True) /* ty=Tensor[(192), int32] */;
  %666 = sum(%441, axis=[1], exclude=True) /* ty=Tensor[(32), int32] */;
  %667 = sum(%453, axis=[1], exclude=True) /* ty=Tensor[(144), int32] */;
  %668 = sum(%465, axis=[1], exclude=True) /* ty=Tensor[(144), int32] */;
  %669 = cast(%476, dtype="int8") /* ty=Tensor[(144, 24, 1, 1), int8] */;
  %670 = sum(%499, axis=[1], exclude=True) /* ty=Tensor[(24), int32] */;
  %671 = cast(%532, dtype="int8") /* ty=Tensor[(144, 24, 1, 1), int8] */;
  %672 = cast(%587, dtype="int8") /* ty=Tensor[(144, 24, 1, 1), int8] */;
  %673 = cast(%642, dtype="int8") /* ty=Tensor[(144, 24, 1, 1), int8] */;
  (%643, %644, %645, %646, %647, %648, %649, %650, %651, %652, %653, %654, %655, %656, %657, %658, %659, %660, %661, %662, %663, %664, %665, %666, %667, %668, %669, %670, %671, %672, %673)
}

