def @main(%input: Tensor[(1, 3, 128, 128), int8], %v0_weight: Tensor[(16, 3, 3, 3), int8], %v0_bias: Tensor[(16), int32], %v0_zero_x: Tensor[(1), int8], %v0_zero_y: Tensor[(1), int8], %v0_scale: Tensor[(16), float32], %v1_conv_0_weight: Tensor[(16, 1, 3, 3), int8], %v1_conv_0_bias: Tensor[(16), int32], %v1_conv_0_zero_x: Tensor[(1), int8], %v1_conv_0_zero_y: Tensor[(1), int8], %v1_conv_0_scale: Tensor[(16), float32], %v1_conv_1_weight: Tensor[(8, 16, 1, 1), int8], %v1_conv_1_bias: Tensor[(8), int32], %v1_conv_1_zero_x: Tensor[(1), int8], %v1_conv_1_zero_y: Tensor[(1), int8], %v1_conv_1_scale: Tensor[(8), float32], %v2_conv_0_weight: Tensor[(24, 8, 1, 1), int8], %v2_conv_0_bias: Tensor[(24), int32], %v2_conv_0_zero_x: Tensor[(1), int8], %v2_conv_0_zero_y: Tensor[(1), int8], %v2_conv_0_scale: Tensor[(24), float32], %v2_conv_1_weight: Tensor[(24, 1, 5, 5), int8], %v2_conv_1_bias: Tensor[(24), int32], %v2_conv_1_zero_x: Tensor[(1), int8], %v2_conv_1_zero_y: Tensor[(1), int8], %v2_conv_1_scale: Tensor[(24), float32], %v2_conv_2_weight: Tensor[(16, 24, 1, 1), int8], %v2_conv_2_bias: Tensor[(16), int32], %v2_conv_2_zero_x: Tensor[(1), int8], %v2_conv_2_zero_y: Tensor[(1), int8], %v2_conv_2_scale: Tensor[(16), float32], %v3_conv_0_weight: Tensor[(48, 16, 1, 1), int8], %v3_conv_0_bias: Tensor[(48), int32], %v3_conv_0_zero_x: Tensor[(1), int8], %v3_conv_0_zero_y: Tensor[(1), int8], %v3_conv_0_scale: Tensor[(48), float32], %v3_conv_1_weight: Tensor[(48, 1, 3, 3), int8], %v3_conv_1_bias: Tensor[(48), int32], %v3_conv_1_zero_x: Tensor[(1), int8], %v3_conv_1_zero_y: Tensor[(1), int8], %v3_conv_1_scale: Tensor[(48), float32], %v3_conv_2_weight: Tensor[(16, 48, 1, 1), int8], %v3_conv_2_bias: Tensor[(16), int32], %v3_conv_2_zero_x: Tensor[(1), int8], %v3_conv_2_zero_y: Tensor[(1), int8], %v3_conv_2_scale: Tensor[(16), float32], %v3_qadd_zero_x1: Tensor[(1), int8], %v3_qadd_zero_x2: Tensor[(1), int8], %v3_qadd_scale_x1: Tensor[(1), float32], %v3_qadd_scale_x2: Tensor[(1), float32], %v3_qadd_zero_y: Tensor[(1), int8], %v3_qadd_scale_y: Tensor[(1), float32], %v4_conv_0_weight: Tensor[(48, 16, 1, 1), int8], %v4_conv_0_bias: Tensor[(48), int32], %v4_conv_0_zero_x: Tensor[(1), int8], %v4_conv_0_zero_y: Tensor[(1), int8], %v4_conv_0_scale: Tensor[(48), float32], %v4_conv_1_weight: Tensor[(48, 1, 7, 7), int8], %v4_conv_1_bias: Tensor[(48), int32], %v4_conv_1_zero_x: Tensor[(1), int8], %v4_conv_1_zero_y: Tensor[(1), int8], %v4_conv_1_scale: Tensor[(48), float32], %v4_conv_2_weight: Tensor[(16, 48, 1, 1), int8], %v4_conv_2_bias: Tensor[(16), int32], %v4_conv_2_zero_x: Tensor[(1), int8], %v4_conv_2_zero_y: Tensor[(1), int8], %v4_conv_2_scale: Tensor[(16), float32], %v5_conv_0_weight: Tensor[(48, 16, 1, 1), int8], %v5_conv_0_bias: Tensor[(48), int32], %v5_conv_0_zero_x: Tensor[(1), int8], %v5_conv_0_zero_y: Tensor[(1), int8], %v5_conv_0_scale: Tensor[(48), float32], %v5_conv_1_weight: Tensor[(48, 1, 3, 3), int8], %v5_conv_1_bias: Tensor[(48), int32], %v5_conv_1_zero_x: Tensor[(1), int8], %v5_conv_1_zero_y: Tensor[(1), int8], %v5_conv_1_scale: Tensor[(48), float32], %v5_conv_2_weight: Tensor[(16, 48, 1, 1), int8], %v5_conv_2_bias: Tensor[(16), int32], %v5_conv_2_zero_x: Tensor[(1), int8], %v5_conv_2_zero_y: Tensor[(1), int8], %v5_conv_2_scale: Tensor[(16), float32], %v5_qadd_zero_x1: Tensor[(1), int8], %v5_qadd_zero_x2: Tensor[(1), int8], %v5_qadd_scale_x1: Tensor[(1), float32], %v5_qadd_scale_x2: Tensor[(1), float32], %v5_qadd_zero_y: Tensor[(1), int8], %v5_qadd_scale_y: Tensor[(1), float32], %v6_conv_0_weight: Tensor[(48, 16, 1, 1), int8], %v6_conv_0_bias: Tensor[(48), int32], %v6_conv_0_zero_x: Tensor[(1), int8], %v6_conv_0_zero_y: Tensor[(1), int8], %v6_conv_0_scale: Tensor[(48), float32], %v6_conv_1_weight: Tensor[(48, 1, 5, 5), int8], %v6_conv_1_bias: Tensor[(48), int32], %v6_conv_1_zero_x: Tensor[(1), int8], %v6_conv_1_zero_y: Tensor[(1), int8], %v6_conv_1_scale: Tensor[(48), float32], %v6_conv_2_weight: Tensor[(16, 48, 1, 1), int8], %v6_conv_2_bias: Tensor[(16), int32], %v6_conv_2_zero_x: Tensor[(1), int8], %v6_conv_2_zero_y: Tensor[(1), int8], %v6_conv_2_scale: Tensor[(16), float32], %v6_qadd_zero_x1: Tensor[(1), int8], %v6_qadd_zero_x2: Tensor[(1), int8], %v6_qadd_scale_x1: Tensor[(1), float32], %v6_qadd_scale_x2: Tensor[(1), float32], %v6_qadd_zero_y: Tensor[(1), int8], %v6_qadd_scale_y: Tensor[(1), float32], %v7_conv_0_weight: Tensor[(48, 16, 1, 1), int8], %v7_conv_0_bias: Tensor[(48), int32], %v7_conv_0_zero_x: Tensor[(1), int8], %v7_conv_0_zero_y: Tensor[(1), int8], %v7_conv_0_scale: Tensor[(48), float32], %v7_conv_1_weight: Tensor[(48, 1, 5, 5), int8], %v7_conv_1_bias: Tensor[(48), int32], %v7_conv_1_zero_x: Tensor[(1), int8], %v7_conv_1_zero_y: Tensor[(1), int8], %v7_conv_1_scale: Tensor[(48), float32], %v7_conv_2_weight: Tensor[(16, 48, 1, 1), int8], %v7_conv_2_bias: Tensor[(16), int32], %v7_conv_2_zero_x: Tensor[(1), int8], %v7_conv_2_zero_y: Tensor[(1), int8], %v7_conv_2_scale: Tensor[(16), float32], %v7_qadd_zero_x1: Tensor[(1), int8], %v7_qadd_zero_x2: Tensor[(1), int8], %v7_qadd_scale_x1: Tensor[(1), float32], %v7_qadd_scale_x2: Tensor[(1), float32], %v7_qadd_zero_y: Tensor[(1), int8], %v7_qadd_scale_y: Tensor[(1), float32], %v8_conv_0_weight: Tensor[(96, 16, 1, 1), int8], %v8_conv_0_bias: Tensor[(96), int32], %v8_conv_0_zero_x: Tensor[(1), int8], %v8_conv_0_zero_y: Tensor[(1), int8], %v8_conv_0_scale: Tensor[(96), float32], %v8_conv_1_weight: Tensor[(96, 1, 7, 7), int8], %v8_conv_1_bias: Tensor[(96), int32], %v8_conv_1_zero_x: Tensor[(1), int8], %v8_conv_1_zero_y: Tensor[(1), int8], %v8_conv_1_scale: Tensor[(96), float32], %v8_conv_2_weight: Tensor[(24, 96, 1, 1), int8], %v8_conv_2_bias: Tensor[(24), int32], %v8_conv_2_zero_x: Tensor[(1), int8], %v8_conv_2_zero_y: Tensor[(1), int8], %v8_conv_2_scale: Tensor[(24), float32], %v9_conv_0_weight: Tensor[(72, 24, 1, 1), int8], %v9_conv_0_bias: Tensor[(72), int32], %v9_conv_0_zero_x: Tensor[(1), int8], %v9_conv_0_zero_y: Tensor[(1), int8], %v9_conv_0_scale: Tensor[(72), float32], %v9_conv_1_weight: Tensor[(72, 1, 5, 5), int8], %v9_conv_1_bias: Tensor[(72), int32], %v9_conv_1_zero_x: Tensor[(1), int8], %v9_conv_1_zero_y: Tensor[(1), int8], %v9_conv_1_scale: Tensor[(72), float32], %v9_conv_2_weight: Tensor[(24, 72, 1, 1), int8], %v9_conv_2_bias: Tensor[(24), int32], %v9_conv_2_zero_x: Tensor[(1), int8], %v9_conv_2_zero_y: Tensor[(1), int8], %v9_conv_2_scale: Tensor[(24), float32], %v9_qadd_zero_x1: Tensor[(1), int8], %v9_qadd_zero_x2: Tensor[(1), int8], %v9_qadd_scale_x1: Tensor[(1), float32], %v9_qadd_scale_x2: Tensor[(1), float32], %v9_qadd_zero_y: Tensor[(1), int8], %v9_qadd_scale_y: Tensor[(1), float32], %v10_conv_0_weight: Tensor[(72, 24, 1, 1), int8], %v10_conv_0_bias: Tensor[(72), int32], %v10_conv_0_zero_x: Tensor[(1), int8], %v10_conv_0_zero_y: Tensor[(1), int8], %v10_conv_0_scale: Tensor[(72), float32], %v10_conv_1_weight: Tensor[(72, 1, 5, 5), int8], %v10_conv_1_bias: Tensor[(72), int32], %v10_conv_1_zero_x: Tensor[(1), int8], %v10_conv_1_zero_y: Tensor[(1), int8], %v10_conv_1_scale: Tensor[(72), float32], %v10_conv_2_weight: Tensor[(24, 72, 1, 1), int8], %v10_conv_2_bias: Tensor[(24), int32], %v10_conv_2_zero_x: Tensor[(1), int8], %v10_conv_2_zero_y: Tensor[(1), int8], %v10_conv_2_scale: Tensor[(24), float32], %v10_qadd_zero_x1: Tensor[(1), int8], %v10_qadd_zero_x2: Tensor[(1), int8], %v10_qadd_scale_x1: Tensor[(1), float32], %v10_qadd_scale_x2: Tensor[(1), float32], %v10_qadd_zero_y: Tensor[(1), int8], %v10_qadd_scale_y: Tensor[(1), float32], %v11_conv_0_weight: Tensor[(72, 24, 1, 1), int8], %v11_conv_0_bias: Tensor[(72), int32], %v11_conv_0_zero_x: Tensor[(1), int8], %v11_conv_0_zero_y: Tensor[(1), int8], %v11_conv_0_scale: Tensor[(72), float32], %v11_conv_1_weight: Tensor[(72, 1, 5, 5), int8], %v11_conv_1_bias: Tensor[(72), int32], %v11_conv_1_zero_x: Tensor[(1), int8], %v11_conv_1_zero_y: Tensor[(1), int8], %v11_conv_1_scale: Tensor[(72), float32], %v11_conv_2_weight: Tensor[(24, 72, 1, 1), int8], %v11_conv_2_bias: Tensor[(24), int32], %v11_conv_2_zero_x: Tensor[(1), int8], %v11_conv_2_zero_y: Tensor[(1), int8], %v11_conv_2_scale: Tensor[(24), float32], %v11_qadd_zero_x1: Tensor[(1), int8], %v11_qadd_zero_x2: Tensor[(1), int8], %v11_qadd_scale_x1: Tensor[(1), float32], %v11_qadd_scale_x2: Tensor[(1), float32], %v11_qadd_zero_y: Tensor[(1), int8], %v11_qadd_scale_y: Tensor[(1), float32], %v12_conv_0_weight: Tensor[(144, 24, 1, 1), int8], %v12_conv_0_bias: Tensor[(144), int32], %v12_conv_0_zero_x: Tensor[(1), int8], %v12_conv_0_zero_y: Tensor[(1), int8], %v12_conv_0_scale: Tensor[(144), float32], %v12_conv_1_weight: Tensor[(144, 1, 5, 5), int8], %v12_conv_1_bias: Tensor[(144), int32], %v12_conv_1_zero_x: Tensor[(1), int8], %v12_conv_1_zero_y: Tensor[(1), int8], %v12_conv_1_scale: Tensor[(144), float32], %v12_conv_2_weight: Tensor[(32, 144, 1, 1), int8], %v12_conv_2_bias: Tensor[(32), int32], %v12_conv_2_zero_x: Tensor[(1), int8], %v12_conv_2_zero_y: Tensor[(1), int8], %v12_conv_2_scale: Tensor[(32), float32], %v13_conv_0_weight: Tensor[(96, 32, 1, 1), int8], %v13_conv_0_bias: Tensor[(96), int32], %v13_conv_0_zero_x: Tensor[(1), int8], %v13_conv_0_zero_y: Tensor[(1), int8], %v13_conv_0_scale: Tensor[(96), float32], %v13_conv_1_weight: Tensor[(96, 1, 5, 5), int8], %v13_conv_1_bias: Tensor[(96), int32], %v13_conv_1_zero_x: Tensor[(1), int8], %v13_conv_1_zero_y: Tensor[(1), int8], %v13_conv_1_scale: Tensor[(96), float32], %v13_conv_2_weight: Tensor[(32, 96, 1, 1), int8], %v13_conv_2_bias: Tensor[(32), int32], %v13_conv_2_zero_x: Tensor[(1), int8], %v13_conv_2_zero_y: Tensor[(1), int8], %v13_conv_2_scale: Tensor[(32), float32], %v13_qadd_zero_x1: Tensor[(1), int8], %v13_qadd_zero_x2: Tensor[(1), int8], %v13_qadd_scale_x1: Tensor[(1), float32], %v13_qadd_scale_x2: Tensor[(1), float32], %v13_qadd_zero_y: Tensor[(1), int8], %v13_qadd_scale_y: Tensor[(1), float32], %v14_conv_0_weight: Tensor[(96, 32, 1, 1), int8], %v14_conv_0_bias: Tensor[(96), int32], %v14_conv_0_zero_x: Tensor[(1), int8], %v14_conv_0_zero_y: Tensor[(1), int8], %v14_conv_0_scale: Tensor[(96), float32], %v14_conv_1_weight: Tensor[(96, 1, 5, 5), int8], %v14_conv_1_bias: Tensor[(96), int32], %v14_conv_1_zero_x: Tensor[(1), int8], %v14_conv_1_zero_y: Tensor[(1), int8], %v14_conv_1_scale: Tensor[(96), float32], %v14_conv_2_weight: Tensor[(32, 96, 1, 1), int8], %v14_conv_2_bias: Tensor[(32), int32], %v14_conv_2_zero_x: Tensor[(1), int8], %v14_conv_2_zero_y: Tensor[(1), int8], %v14_conv_2_scale: Tensor[(32), float32], %v14_qadd_zero_x1: Tensor[(1), int8], %v14_qadd_zero_x2: Tensor[(1), int8], %v14_qadd_scale_x1: Tensor[(1), float32], %v14_qadd_scale_x2: Tensor[(1), float32], %v14_qadd_zero_y: Tensor[(1), int8], %v14_qadd_scale_y: Tensor[(1), float32], %v15_conv_0_weight: Tensor[(96, 32, 1, 1), int8], %v15_conv_0_bias: Tensor[(96), int32], %v15_conv_0_zero_x: Tensor[(1), int8], %v15_conv_0_zero_y: Tensor[(1), int8], %v15_conv_0_scale: Tensor[(96), float32], %v15_conv_1_weight: Tensor[(96, 1, 5, 5), int8], %v15_conv_1_bias: Tensor[(96), int32], %v15_conv_1_zero_x: Tensor[(1), int8], %v15_conv_1_zero_y: Tensor[(1), int8], %v15_conv_1_scale: Tensor[(96), float32], %v15_conv_2_weight: Tensor[(32, 96, 1, 1), int8], %v15_conv_2_bias: Tensor[(32), int32], %v15_conv_2_zero_x: Tensor[(1), int8], %v15_conv_2_zero_y: Tensor[(1), int8], %v15_conv_2_scale: Tensor[(32), float32], %v15_qadd_zero_x1: Tensor[(1), int8], %v15_qadd_zero_x2: Tensor[(1), int8], %v15_qadd_scale_x1: Tensor[(1), float32], %v15_qadd_scale_x2: Tensor[(1), float32], %v15_qadd_zero_y: Tensor[(1), int8], %v15_qadd_scale_y: Tensor[(1), float32], %v16_conv_0_weight: Tensor[(192, 32, 1, 1), int8], %v16_conv_0_bias: Tensor[(192), int32], %v16_conv_0_zero_x: Tensor[(1), int8], %v16_conv_0_zero_y: Tensor[(1), int8], %v16_conv_0_scale: Tensor[(192), float32], %v16_conv_1_weight: Tensor[(192, 1, 7, 7), int8], %v16_conv_1_bias: Tensor[(192), int32], %v16_conv_1_zero_x: Tensor[(1), int8], %v16_conv_1_zero_y: Tensor[(1), int8], %v16_conv_1_scale: Tensor[(192), float32], %v16_conv_2_weight: Tensor[(64, 192, 1, 1), int8], %v16_conv_2_bias: Tensor[(64), int32], %v16_conv_2_zero_x: Tensor[(1), int8], %v16_conv_2_zero_y: Tensor[(1), int8], %v16_conv_2_scale: Tensor[(64), float32], %v17_conv_0_weight: Tensor[(384, 64, 1, 1), int8], %v17_conv_0_bias: Tensor[(384), int32], %v17_conv_0_zero_x: Tensor[(1), int8], %v17_conv_0_zero_y: Tensor[(1), int8], %v17_conv_0_scale: Tensor[(384), float32], %v17_conv_1_weight: Tensor[(384, 1, 7, 7), int8], %v17_conv_1_bias: Tensor[(384), int32], %v17_conv_1_zero_x: Tensor[(1), int8], %v17_conv_1_zero_y: Tensor[(1), int8], %v17_conv_1_scale: Tensor[(384), float32], %v17_conv_2_weight: Tensor[(64, 384, 1, 1), int8], %v17_conv_2_bias: Tensor[(64), int32], %v17_conv_2_zero_x: Tensor[(1), int8], %v17_conv_2_zero_y: Tensor[(1), int8], %v17_conv_2_scale: Tensor[(64), float32], %v17_qadd_zero_x1: Tensor[(1), int8], %v17_qadd_zero_x2: Tensor[(1), int8], %v17_qadd_scale_x1: Tensor[(1), float32], %v17_qadd_scale_x2: Tensor[(1), float32], %v17_qadd_zero_y: Tensor[(1), int8], %v17_qadd_scale_y: Tensor[(1), float32], %v18_conv_0_weight: Tensor[(192, 64, 1, 1), int8], %v18_conv_0_bias: Tensor[(192), int32], %v18_conv_0_zero_x: Tensor[(1), int8], %v18_conv_0_zero_y: Tensor[(1), int8], %v18_conv_0_scale: Tensor[(192), float32], %v18_conv_1_weight: Tensor[(192, 1, 7, 7), int8], %v18_conv_1_bias: Tensor[(192), int32], %v18_conv_1_zero_x: Tensor[(1), int8], %v18_conv_1_zero_y: Tensor[(1), int8], %v18_conv_1_scale: Tensor[(192), float32], %v18_conv_2_weight: Tensor[(64, 192, 1, 1), int8], %v18_conv_2_bias: Tensor[(64), int32], %v18_conv_2_zero_x: Tensor[(1), int8], %v18_conv_2_zero_y: Tensor[(1), int8], %v18_conv_2_scale: Tensor[(64), float32], %v18_qadd_zero_x1: Tensor[(1), int8], %v18_qadd_zero_x2: Tensor[(1), int8], %v18_qadd_scale_x1: Tensor[(1), float32], %v18_qadd_scale_x2: Tensor[(1), float32], %v18_qadd_zero_y: Tensor[(1), int8], %v18_qadd_scale_y: Tensor[(1), float32], %v19_conv_0_weight: Tensor[(192, 64, 1, 1), int8], %v19_conv_0_bias: Tensor[(192), int32], %v19_conv_0_zero_x: Tensor[(1), int8], %v19_conv_0_zero_y: Tensor[(1), int8], %v19_conv_0_scale: Tensor[(192), float32], %v19_conv_1_weight: Tensor[(192, 1, 7, 7), int8], %v19_conv_1_bias: Tensor[(192), int32], %v19_conv_1_zero_x: Tensor[(1), int8], %v19_conv_1_zero_y: Tensor[(1), int8], %v19_conv_1_scale: Tensor[(192), float32], %v19_conv_2_weight: Tensor[(64, 192, 1, 1), int8], %v19_conv_2_bias: Tensor[(64), int32], %v19_conv_2_zero_x: Tensor[(1), int8], %v19_conv_2_zero_y: Tensor[(1), int8], %v19_conv_2_scale: Tensor[(64), float32], %v19_qadd_zero_x1: Tensor[(1), int8], %v19_qadd_zero_x2: Tensor[(1), int8], %v19_qadd_scale_x1: Tensor[(1), float32], %v19_qadd_scale_x2: Tensor[(1), float32], %v19_qadd_zero_y: Tensor[(1), int8], %v19_qadd_scale_y: Tensor[(1), float32], %v20_conv_0_weight: Tensor[(384, 64, 1, 1), int8], %v20_conv_0_bias: Tensor[(384), int32], %v20_conv_0_zero_x: Tensor[(1), int8], %v20_conv_0_zero_y: Tensor[(1), int8], %v20_conv_0_scale: Tensor[(384), float32], %v20_conv_1_weight: Tensor[(384, 1, 7, 7), int8], %v20_conv_1_bias: Tensor[(384), int32], %v20_conv_1_zero_x: Tensor[(1), int8], %v20_conv_1_zero_y: Tensor[(1), int8], %v20_conv_1_scale: Tensor[(384), float32], %v20_conv_2_weight: Tensor[(96, 384, 1, 1), int8], %v20_conv_2_bias: Tensor[(96), int32], %v20_conv_2_zero_x: Tensor[(1), int8], %v20_conv_2_zero_y: Tensor[(1), int8], %v20_conv_2_scale: Tensor[(96), float32], %v21_weight: Tensor[(10, 96, 1, 1), int8], %v21_bias: Tensor[(10), int32], %v21_zero_x: Tensor[(1), int8], %v21_zero_y: Tensor[(1), int8], %v21_scale: Tensor[(10), float32], %label: Tensor[(1, 10), float32]) -> (float32, Tensor[(10), int32], Tensor[(10, 96, 1, 1), int8], Tensor[(96), int32], Tensor[(384), int32], Tensor[(384), int32], Tensor[(384, 64, 1, 1), int8], Tensor[(64), int32], Tensor[(192), int32], Tensor[(192), int32], Tensor[(192, 64, 1, 1), int8], Tensor[(64), int32], Tensor[(192), int32], Tensor[(192), float32], Tensor[(192, 32, 1, 1), float32], Tensor[(64), int32], Tensor[(384), int32], Tensor[(384), float32], Tensor[(384, 16, 1, 1), float32], Tensor[(64), int32], Tensor[(192), int32], Tensor[(192), int32], Tensor[(192, 32, 1, 1), int8], Tensor[(32), int32], Tensor[(96), int32], Tensor[(96), int32], Tensor[(96, 32, 1, 1), int8], Tensor[(32), int32], Tensor[(96), int32], Tensor[(96), float32], Tensor[(96, 16, 1, 1), float32], Tensor[(32), int32], Tensor[(96), int32], Tensor[(96), int32], Tensor[(96, 32, 1, 1), int8], Tensor[(32), int32]) {
  %0 = nn.mcuconv2d(%input, %v0_weight, %v0_bias, %v0_zero_x, %v0_zero_y, %v0_scale, strides=[2, 2], padding=[1, 1, 1, 1]) /* ty=Tensor[(1, 16, 64, 64), int32] */;
  %1 = nn.mcutruncate(%0) /* ty=Tensor[(1, 16, 64, 64), int8] */;
  %2 = nn.mcuconv2d(%1, %v1_conv_0_weight, %v1_conv_0_bias, %v1_conv_0_zero_x, %v1_conv_0_zero_y, %v1_conv_0_scale, padding=[1, 1, 1, 1], groups=16) /* ty=Tensor[(1, 16, 64, 64), int32] */;
  %3 = nn.mcutruncate(%2) /* ty=Tensor[(1, 16, 64, 64), int8] */;
  %4 = nn.mcuconv2d(%3, %v1_conv_1_weight, %v1_conv_1_bias, %v1_conv_1_zero_x, %v1_conv_1_zero_y, %v1_conv_1_scale, padding=[0, 0, 0, 0]) /* ty=Tensor[(1, 8, 64, 64), int32] */;
  %5 = nn.mcutruncate(%4) /* ty=Tensor[(1, 8, 64, 64), int8] */;
  %6 = nn.mcuconv2d(%5, %v2_conv_0_weight, %v2_conv_0_bias, %v2_conv_0_zero_x, %v2_conv_0_zero_y, %v2_conv_0_scale, padding=[0, 0, 0, 0]) /* ty=Tensor[(1, 24, 64, 64), int32] */;
  %7 = nn.mcutruncate(%6) /* ty=Tensor[(1, 24, 64, 64), int8] */;
  %8 = nn.mcuconv2d(%7, %v2_conv_1_weight, %v2_conv_1_bias, %v2_conv_1_zero_x, %v2_conv_1_zero_y, %v2_conv_1_scale, strides=[2, 2], padding=[2, 2, 2, 2], groups=24) /* ty=Tensor[(1, 24, 32, 32), int32] */;
  %9 = nn.mcutruncate(%8) /* ty=Tensor[(1, 24, 32, 32), int8] */;
  %10 = nn.mcuconv2d(%9, %v2_conv_2_weight, %v2_conv_2_bias, %v2_conv_2_zero_x, %v2_conv_2_zero_y, %v2_conv_2_scale, padding=[0, 0, 0, 0]) /* ty=Tensor[(1, 16, 32, 32), int32] */;
  %11 = nn.mcutruncate(%10) /* ty=Tensor[(1, 16, 32, 32), int8] */;
  %12 = nn.mcuconv2d(%11, %v3_conv_0_weight, %v3_conv_0_bias, %v3_conv_0_zero_x, %v3_conv_0_zero_y, %v3_conv_0_scale, padding=[0, 0, 0, 0]) /* ty=Tensor[(1, 48, 32, 32), int32] */;
  %13 = nn.mcutruncate(%12) /* ty=Tensor[(1, 48, 32, 32), int8] */;
  %14 = nn.mcuconv2d(%13, %v3_conv_1_weight, %v3_conv_1_bias, %v3_conv_1_zero_x, %v3_conv_1_zero_y, %v3_conv_1_scale, padding=[1, 1, 1, 1], groups=48) /* ty=Tensor[(1, 48, 32, 32), int32] */;
  %15 = nn.mcutruncate(%14) /* ty=Tensor[(1, 48, 32, 32), int8] */;
  %16 = nn.mcuconv2d(%15, %v3_conv_2_weight, %v3_conv_2_bias, %v3_conv_2_zero_x, %v3_conv_2_zero_y, %v3_conv_2_scale, padding=[0, 0, 0, 0]) /* ty=Tensor[(1, 16, 32, 32), int32] */;
  %17 = nn.mcutruncate(%16) /* ty=Tensor[(1, 16, 32, 32), int8] */;
  %18 = nn.mcuadd(%11, %17, %v3_qadd_zero_x1, %v3_qadd_zero_x2, %v3_qadd_scale_x1, %v3_qadd_scale_x2, %v3_qadd_zero_y, %v3_qadd_scale_y, axis=0) /* ty=Tensor[(1, 16, 32, 32), int8] */;
  %19 = nn.mcutruncate(%18) /* ty=Tensor[(1, 16, 32, 32), int8] */;
  %20 = nn.mcuconv2d(%19, %v4_conv_0_weight, %v4_conv_0_bias, %v4_conv_0_zero_x, %v4_conv_0_zero_y, %v4_conv_0_scale, padding=[0, 0, 0, 0]) /* ty=Tensor[(1, 48, 32, 32), int32] */;
  %21 = nn.mcutruncate(%20) /* ty=Tensor[(1, 48, 32, 32), int8] */;
  %22 = nn.mcuconv2d(%21, %v4_conv_1_weight, %v4_conv_1_bias, %v4_conv_1_zero_x, %v4_conv_1_zero_y, %v4_conv_1_scale, strides=[2, 2], padding=[3, 3, 3, 3], groups=48) /* ty=Tensor[(1, 48, 16, 16), int32] */;
  %23 = nn.mcutruncate(%22) /* ty=Tensor[(1, 48, 16, 16), int8] */;
  %24 = nn.mcuconv2d(%23, %v4_conv_2_weight, %v4_conv_2_bias, %v4_conv_2_zero_x, %v4_conv_2_zero_y, %v4_conv_2_scale, padding=[0, 0, 0, 0]) /* ty=Tensor[(1, 16, 16, 16), int32] */;
  %25 = nn.mcutruncate(%24) /* ty=Tensor[(1, 16, 16, 16), int8] */;
  %26 = nn.mcuconv2d(%25, %v5_conv_0_weight, %v5_conv_0_bias, %v5_conv_0_zero_x, %v5_conv_0_zero_y, %v5_conv_0_scale, padding=[0, 0, 0, 0]) /* ty=Tensor[(1, 48, 16, 16), int32] */;
  %27 = nn.mcutruncate(%26) /* ty=Tensor[(1, 48, 16, 16), int8] */;
  %28 = nn.mcuconv2d(%27, %v5_conv_1_weight, %v5_conv_1_bias, %v5_conv_1_zero_x, %v5_conv_1_zero_y, %v5_conv_1_scale, padding=[1, 1, 1, 1], groups=48) /* ty=Tensor[(1, 48, 16, 16), int32] */;
  %29 = nn.mcutruncate(%28) /* ty=Tensor[(1, 48, 16, 16), int8] */;
  %30 = nn.mcuconv2d(%29, %v5_conv_2_weight, %v5_conv_2_bias, %v5_conv_2_zero_x, %v5_conv_2_zero_y, %v5_conv_2_scale, padding=[0, 0, 0, 0]) /* ty=Tensor[(1, 16, 16, 16), int32] */;
  %31 = nn.mcutruncate(%30) /* ty=Tensor[(1, 16, 16, 16), int8] */;
  %32 = nn.mcuadd(%25, %31, %v5_qadd_zero_x1, %v5_qadd_zero_x2, %v5_qadd_scale_x1, %v5_qadd_scale_x2, %v5_qadd_zero_y, %v5_qadd_scale_y, axis=0) /* ty=Tensor[(1, 16, 16, 16), int8] */;
  %33 = nn.mcutruncate(%32) /* ty=Tensor[(1, 16, 16, 16), int8] */;
  %34 = nn.mcuconv2d(%33, %v6_conv_0_weight, %v6_conv_0_bias, %v6_conv_0_zero_x, %v6_conv_0_zero_y, %v6_conv_0_scale, padding=[0, 0, 0, 0]) /* ty=Tensor[(1, 48, 16, 16), int32] */;
  %35 = nn.mcutruncate(%34) /* ty=Tensor[(1, 48, 16, 16), int8] */;
  %36 = nn.mcuconv2d(%35, %v6_conv_1_weight, %v6_conv_1_bias, %v6_conv_1_zero_x, %v6_conv_1_zero_y, %v6_conv_1_scale, padding=[2, 2, 2, 2], groups=48) /* ty=Tensor[(1, 48, 16, 16), int32] */;
  %37 = nn.mcutruncate(%36) /* ty=Tensor[(1, 48, 16, 16), int8] */;
  %38 = nn.mcuconv2d(%37, %v6_conv_2_weight, %v6_conv_2_bias, %v6_conv_2_zero_x, %v6_conv_2_zero_y, %v6_conv_2_scale, padding=[0, 0, 0, 0]) /* ty=Tensor[(1, 16, 16, 16), int32] */;
  %39 = nn.mcutruncate(%38) /* ty=Tensor[(1, 16, 16, 16), int8] */;
  %40 = nn.mcuadd(%33, %39, %v6_qadd_zero_x1, %v6_qadd_zero_x2, %v6_qadd_scale_x1, %v6_qadd_scale_x2, %v6_qadd_zero_y, %v6_qadd_scale_y, axis=0) /* ty=Tensor[(1, 16, 16, 16), int8] */;
  %41 = nn.mcutruncate(%40) /* ty=Tensor[(1, 16, 16, 16), int8] */;
  %42 = nn.mcuconv2d(%41, %v7_conv_0_weight, %v7_conv_0_bias, %v7_conv_0_zero_x, %v7_conv_0_zero_y, %v7_conv_0_scale, padding=[0, 0, 0, 0]) /* ty=Tensor[(1, 48, 16, 16), int32] */;
  %43 = nn.mcutruncate(%42) /* ty=Tensor[(1, 48, 16, 16), int8] */;
  %44 = nn.mcuconv2d(%43, %v7_conv_1_weight, %v7_conv_1_bias, %v7_conv_1_zero_x, %v7_conv_1_zero_y, %v7_conv_1_scale, padding=[2, 2, 2, 2], groups=48) /* ty=Tensor[(1, 48, 16, 16), int32] */;
  %45 = nn.mcutruncate(%44) /* ty=Tensor[(1, 48, 16, 16), int8] */;
  %46 = nn.mcuconv2d(%45, %v7_conv_2_weight, %v7_conv_2_bias, %v7_conv_2_zero_x, %v7_conv_2_zero_y, %v7_conv_2_scale, padding=[0, 0, 0, 0]) /* ty=Tensor[(1, 16, 16, 16), int32] */;
  %47 = nn.mcutruncate(%46) /* ty=Tensor[(1, 16, 16, 16), int8] */;
  %48 = nn.mcuadd(%41, %47, %v7_qadd_zero_x1, %v7_qadd_zero_x2, %v7_qadd_scale_x1, %v7_qadd_scale_x2, %v7_qadd_zero_y, %v7_qadd_scale_y, axis=0) /* ty=Tensor[(1, 16, 16, 16), int8] */;
  %49 = nn.mcutruncate(%48) /* ty=Tensor[(1, 16, 16, 16), int8] */;
  %50 = nn.mcuconv2d(%49, %v8_conv_0_weight, %v8_conv_0_bias, %v8_conv_0_zero_x, %v8_conv_0_zero_y, %v8_conv_0_scale, padding=[0, 0, 0, 0]) /* ty=Tensor[(1, 96, 16, 16), int32] */;
  %51 = nn.mcutruncate(%50) /* ty=Tensor[(1, 96, 16, 16), int8] */;
  %52 = nn.mcuconv2d(%51, %v8_conv_1_weight, %v8_conv_1_bias, %v8_conv_1_zero_x, %v8_conv_1_zero_y, %v8_conv_1_scale, strides=[2, 2], padding=[3, 3, 3, 3], groups=96) /* ty=Tensor[(1, 96, 8, 8), int32] */;
  %53 = nn.mcutruncate(%52) /* ty=Tensor[(1, 96, 8, 8), int8] */;
  %54 = nn.mcuconv2d(%53, %v8_conv_2_weight, %v8_conv_2_bias, %v8_conv_2_zero_x, %v8_conv_2_zero_y, %v8_conv_2_scale, padding=[0, 0, 0, 0]) /* ty=Tensor[(1, 24, 8, 8), int32] */;
  %55 = nn.mcutruncate(%54) /* ty=Tensor[(1, 24, 8, 8), int8] */;
  %56 = nn.mcuconv2d(%55, %v9_conv_0_weight, %v9_conv_0_bias, %v9_conv_0_zero_x, %v9_conv_0_zero_y, %v9_conv_0_scale, padding=[0, 0, 0, 0]) /* ty=Tensor[(1, 72, 8, 8), int32] */;
  %57 = nn.mcutruncate(%56) /* ty=Tensor[(1, 72, 8, 8), int8] */;
  %58 = nn.mcuconv2d(%57, %v9_conv_1_weight, %v9_conv_1_bias, %v9_conv_1_zero_x, %v9_conv_1_zero_y, %v9_conv_1_scale, padding=[2, 2, 2, 2], groups=72) /* ty=Tensor[(1, 72, 8, 8), int32] */;
  %59 = nn.mcutruncate(%58) /* ty=Tensor[(1, 72, 8, 8), int8] */;
  %60 = nn.mcuconv2d(%59, %v9_conv_2_weight, %v9_conv_2_bias, %v9_conv_2_zero_x, %v9_conv_2_zero_y, %v9_conv_2_scale, padding=[0, 0, 0, 0]) /* ty=Tensor[(1, 24, 8, 8), int32] */;
  %61 = nn.mcutruncate(%60) /* ty=Tensor[(1, 24, 8, 8), int8] */;
  %62 = nn.mcuadd(%55, %61, %v9_qadd_zero_x1, %v9_qadd_zero_x2, %v9_qadd_scale_x1, %v9_qadd_scale_x2, %v9_qadd_zero_y, %v9_qadd_scale_y, axis=0) /* ty=Tensor[(1, 24, 8, 8), int8] */;
  %63 = nn.mcutruncate(%62) /* ty=Tensor[(1, 24, 8, 8), int8] */;
  %64 = nn.mcuconv2d(%63, %v10_conv_0_weight, %v10_conv_0_bias, %v10_conv_0_zero_x, %v10_conv_0_zero_y, %v10_conv_0_scale, padding=[0, 0, 0, 0]) /* ty=Tensor[(1, 72, 8, 8), int32] */;
  %65 = nn.mcutruncate(%64) /* ty=Tensor[(1, 72, 8, 8), int8] */;
  %66 = nn.mcuconv2d(%65, %v10_conv_1_weight, %v10_conv_1_bias, %v10_conv_1_zero_x, %v10_conv_1_zero_y, %v10_conv_1_scale, padding=[2, 2, 2, 2], groups=72) /* ty=Tensor[(1, 72, 8, 8), int32] */;
  %67 = nn.mcutruncate(%66) /* ty=Tensor[(1, 72, 8, 8), int8] */;
  %68 = nn.mcuconv2d(%67, %v10_conv_2_weight, %v10_conv_2_bias, %v10_conv_2_zero_x, %v10_conv_2_zero_y, %v10_conv_2_scale, padding=[0, 0, 0, 0]) /* ty=Tensor[(1, 24, 8, 8), int32] */;
  %69 = nn.mcutruncate(%68) /* ty=Tensor[(1, 24, 8, 8), int8] */;
  %70 = nn.mcuadd(%63, %69, %v10_qadd_zero_x1, %v10_qadd_zero_x2, %v10_qadd_scale_x1, %v10_qadd_scale_x2, %v10_qadd_zero_y, %v10_qadd_scale_y, axis=0) /* ty=Tensor[(1, 24, 8, 8), int8] */;
  %71 = nn.mcutruncate(%70) /* ty=Tensor[(1, 24, 8, 8), int8] */;
  %72 = nn.mcuconv2d(%71, %v11_conv_0_weight, %v11_conv_0_bias, %v11_conv_0_zero_x, %v11_conv_0_zero_y, %v11_conv_0_scale, padding=[0, 0, 0, 0]) /* ty=Tensor[(1, 72, 8, 8), int32] */;
  %73 = nn.mcutruncate(%72) /* ty=Tensor[(1, 72, 8, 8), int8] */;
  %74 = nn.mcuconv2d(%73, %v11_conv_1_weight, %v11_conv_1_bias, %v11_conv_1_zero_x, %v11_conv_1_zero_y, %v11_conv_1_scale, padding=[2, 2, 2, 2], groups=72) /* ty=Tensor[(1, 72, 8, 8), int32] */;
  %75 = nn.mcutruncate(%74) /* ty=Tensor[(1, 72, 8, 8), int8] */;
  %76 = nn.mcuconv2d(%75, %v11_conv_2_weight, %v11_conv_2_bias, %v11_conv_2_zero_x, %v11_conv_2_zero_y, %v11_conv_2_scale, padding=[0, 0, 0, 0]) /* ty=Tensor[(1, 24, 8, 8), int32] */;
  %77 = nn.mcutruncate(%76) /* ty=Tensor[(1, 24, 8, 8), int8] */;
  %78 = nn.mcuadd(%71, %77, %v11_qadd_zero_x1, %v11_qadd_zero_x2, %v11_qadd_scale_x1, %v11_qadd_scale_x2, %v11_qadd_zero_y, %v11_qadd_scale_y, axis=0) /* ty=Tensor[(1, 24, 8, 8), int8] */;
  %79 = nn.mcutruncate(%78) /* ty=Tensor[(1, 24, 8, 8), int8] */;
  %80 = nn.mcuconv2d(%79, %v12_conv_0_weight, %v12_conv_0_bias, %v12_conv_0_zero_x, %v12_conv_0_zero_y, %v12_conv_0_scale, padding=[0, 0, 0, 0]) /* ty=Tensor[(1, 144, 8, 8), int32] */;
  %81 = nn.mcutruncate(%80) /* ty=Tensor[(1, 144, 8, 8), int8] */;
  %82 = nn.mcuconv2d(%81, %v12_conv_1_weight, %v12_conv_1_bias, %v12_conv_1_zero_x, %v12_conv_1_zero_y, %v12_conv_1_scale, padding=[2, 2, 2, 2], groups=144) /* ty=Tensor[(1, 144, 8, 8), int32] */;
  %83 = nn.mcutruncate(%82) /* ty=Tensor[(1, 144, 8, 8), int8] */;
  %84 = nn.mcuconv2d(%83, %v12_conv_2_weight, %v12_conv_2_bias, %v12_conv_2_zero_x, %v12_conv_2_zero_y, %v12_conv_2_scale, padding=[0, 0, 0, 0]) /* ty=Tensor[(1, 32, 8, 8), int32] */;
  %85 = nn.mcutruncate(%84) /* ty=Tensor[(1, 32, 8, 8), int8] */;
  %86 = nn.mcuconv2d(%85, %v13_conv_0_weight, %v13_conv_0_bias, %v13_conv_0_zero_x, %v13_conv_0_zero_y, %v13_conv_0_scale, padding=[0, 0, 0, 0]) /* ty=Tensor[(1, 96, 8, 8), int32] */;
  %87 = nn.mcutruncate(%86) /* ty=Tensor[(1, 96, 8, 8), int8] */;
  %88 = nn.mcuconv2d(%87, %v13_conv_1_weight, %v13_conv_1_bias, %v13_conv_1_zero_x, %v13_conv_1_zero_y, %v13_conv_1_scale, padding=[2, 2, 2, 2], groups=96) /* ty=Tensor[(1, 96, 8, 8), int32] */;
  %89 = nn.mcutruncate(%88) /* ty=Tensor[(1, 96, 8, 8), int8] */;
  %90 = nn.mcuconv2d(%89, %v13_conv_2_weight, %v13_conv_2_bias, %v13_conv_2_zero_x, %v13_conv_2_zero_y, %v13_conv_2_scale, padding=[0, 0, 0, 0]) /* ty=Tensor[(1, 32, 8, 8), int32] */;
  %91 = nn.mcutruncate(%90) /* ty=Tensor[(1, 32, 8, 8), int8] */;
  %92 = nn.mcuadd(%85, %91, %v13_qadd_zero_x1, %v13_qadd_zero_x2, %v13_qadd_scale_x1, %v13_qadd_scale_x2, %v13_qadd_zero_y, %v13_qadd_scale_y, axis=0) /* ty=Tensor[(1, 32, 8, 8), int8] */;
  %93 = nn.mcutruncate(%92) /* ty=Tensor[(1, 32, 8, 8), int8] */;
  %94 = nn.mcuconv2d(%93, %v14_conv_0_weight, %v14_conv_0_bias, %v14_conv_0_zero_x, %v14_conv_0_zero_y, %v14_conv_0_scale, padding=[0, 0, 0, 0]) /* ty=Tensor[(1, 96, 8, 8), int32] */;
  %95 = nn.mcutruncate(%94) /* ty=Tensor[(1, 96, 8, 8), int8] */;
  %96 = nn.mcuconv2d(%95, %v14_conv_1_weight, %v14_conv_1_bias, %v14_conv_1_zero_x, %v14_conv_1_zero_y, %v14_conv_1_scale, padding=[2, 2, 2, 2], groups=96) /* ty=Tensor[(1, 96, 8, 8), int32] */;
  %97 = nn.mcutruncate(%96) /* ty=Tensor[(1, 96, 8, 8), int8] */;
  %98 = nn.mcuconv2d(%97, %v14_conv_2_weight, %v14_conv_2_bias, %v14_conv_2_zero_x, %v14_conv_2_zero_y, %v14_conv_2_scale, padding=[0, 0, 0, 0]) /* ty=Tensor[(1, 32, 8, 8), int32] */;
  %99 = nn.mcutruncate(%98) /* ty=Tensor[(1, 32, 8, 8), int8] */;
  %100 = nn.mcuadd(%93, %99, %v14_qadd_zero_x1, %v14_qadd_zero_x2, %v14_qadd_scale_x1, %v14_qadd_scale_x2, %v14_qadd_zero_y, %v14_qadd_scale_y, axis=0) /* ty=Tensor[(1, 32, 8, 8), int8] */;
  %101 = nn.mcutruncate(%100) /* ty=Tensor[(1, 32, 8, 8), int8] */;
  %102 = nn.mcuconv2d(%101, %v15_conv_0_weight, %v15_conv_0_bias, %v15_conv_0_zero_x, %v15_conv_0_zero_y, %v15_conv_0_scale, padding=[0, 0, 0, 0]) /* ty=Tensor[(1, 96, 8, 8), int32] */;
  %103 = nn.mcutruncate(%102) /* ty=Tensor[(1, 96, 8, 8), int8] */;
  %104 = nn.mcuconv2d(%103, %v15_conv_1_weight, %v15_conv_1_bias, %v15_conv_1_zero_x, %v15_conv_1_zero_y, %v15_conv_1_scale, padding=[2, 2, 2, 2], groups=96) /* ty=Tensor[(1, 96, 8, 8), int32] */;
  %105 = nn.mcutruncate(%104) /* ty=Tensor[(1, 96, 8, 8), int8] */;
  %106 = nn.mcuconv2d(%105, %v15_conv_2_weight, %v15_conv_2_bias, %v15_conv_2_zero_x, %v15_conv_2_zero_y, %v15_conv_2_scale, padding=[0, 0, 0, 0]) /* ty=Tensor[(1, 32, 8, 8), int32] */;
  %107 = nn.mcutruncate(%106) /* ty=Tensor[(1, 32, 8, 8), int8] */;
  %108 = nn.mcuadd(%101, %107, %v15_qadd_zero_x1, %v15_qadd_zero_x2, %v15_qadd_scale_x1, %v15_qadd_scale_x2, %v15_qadd_zero_y, %v15_qadd_scale_y, axis=0) /* ty=Tensor[(1, 32, 8, 8), int8] */;
  %109 = nn.mcutruncate(%108) /* ty=Tensor[(1, 32, 8, 8), int8] */;
  %110 = nn.mcuconv2d(%109, %v16_conv_0_weight, %v16_conv_0_bias, %v16_conv_0_zero_x, %v16_conv_0_zero_y, %v16_conv_0_scale, padding=[0, 0, 0, 0]) /* ty=Tensor[(1, 192, 8, 8), int32] */;
  %111 = nn.mcutruncate(%110) /* ty=Tensor[(1, 192, 8, 8), int8] */;
  %112 = nn.mcuconv2d(%111, %v16_conv_1_weight, %v16_conv_1_bias, %v16_conv_1_zero_x, %v16_conv_1_zero_y, %v16_conv_1_scale, strides=[2, 2], padding=[3, 3, 3, 3], groups=192) /* ty=Tensor[(1, 192, 4, 4), int32] */;
  %113 = nn.mcutruncate(%112) /* ty=Tensor[(1, 192, 4, 4), int8] */;
  %114 = nn.mcuconv2d(%113, %v16_conv_2_weight, %v16_conv_2_bias, %v16_conv_2_zero_x, %v16_conv_2_zero_y, %v16_conv_2_scale, padding=[0, 0, 0, 0]) /* ty=Tensor[(1, 64, 4, 4), int32] */;
  %115 = nn.mcutruncate(%114) /* ty=Tensor[(1, 64, 4, 4), int8] */;
  %116 = nn.mcuconv2d(%115, %v17_conv_0_weight, %v17_conv_0_bias, %v17_conv_0_zero_x, %v17_conv_0_zero_y, %v17_conv_0_scale, padding=[0, 0, 0, 0]) /* ty=Tensor[(1, 384, 4, 4), int32] */;
  %117 = nn.mcutruncate(%116) /* ty=Tensor[(1, 384, 4, 4), int8] */;
  %118 = nn.mcuconv2d(%117, %v17_conv_1_weight, %v17_conv_1_bias, %v17_conv_1_zero_x, %v17_conv_1_zero_y, %v17_conv_1_scale, padding=[3, 3, 3, 3], groups=384) /* ty=Tensor[(1, 384, 4, 4), int32] */;
  %119 = nn.mcutruncate(%118) /* ty=Tensor[(1, 384, 4, 4), int8] */;
  %120 = nn.mcuconv2d(%119, %v17_conv_2_weight, %v17_conv_2_bias, %v17_conv_2_zero_x, %v17_conv_2_zero_y, %v17_conv_2_scale, padding=[0, 0, 0, 0]) /* ty=Tensor[(1, 64, 4, 4), int32] */;
  %121 = nn.mcutruncate(%120) /* ty=Tensor[(1, 64, 4, 4), int8] */;
  %122 = nn.mcuadd(%115, %121, %v17_qadd_zero_x1, %v17_qadd_zero_x2, %v17_qadd_scale_x1, %v17_qadd_scale_x2, %v17_qadd_zero_y, %v17_qadd_scale_y, axis=0) /* ty=Tensor[(1, 64, 4, 4), int8] */;
  %123 = nn.mcutruncate(%122) /* ty=Tensor[(1, 64, 4, 4), int8] */;
  %124 = nn.mcuconv2d(%123, %v18_conv_0_weight, %v18_conv_0_bias, %v18_conv_0_zero_x, %v18_conv_0_zero_y, %v18_conv_0_scale, padding=[0, 0, 0, 0]) /* ty=Tensor[(1, 192, 4, 4), int32] */;
  %125 = nn.mcutruncate(%124) /* ty=Tensor[(1, 192, 4, 4), int8] */;
  %126 = nn.mcuconv2d(%125, %v18_conv_1_weight, %v18_conv_1_bias, %v18_conv_1_zero_x, %v18_conv_1_zero_y, %v18_conv_1_scale, padding=[3, 3, 3, 3], groups=192) /* ty=Tensor[(1, 192, 4, 4), int32] */;
  %127 = nn.mcutruncate(%126) /* ty=Tensor[(1, 192, 4, 4), int8] */;
  %128 = nn.mcuconv2d(%127, %v18_conv_2_weight, %v18_conv_2_bias, %v18_conv_2_zero_x, %v18_conv_2_zero_y, %v18_conv_2_scale, padding=[0, 0, 0, 0]) /* ty=Tensor[(1, 64, 4, 4), int32] */;
  %129 = nn.mcutruncate(%128) /* ty=Tensor[(1, 64, 4, 4), int8] */;
  %130 = nn.mcuadd(%123, %129, %v18_qadd_zero_x1, %v18_qadd_zero_x2, %v18_qadd_scale_x1, %v18_qadd_scale_x2, %v18_qadd_zero_y, %v18_qadd_scale_y, axis=0) /* ty=Tensor[(1, 64, 4, 4), int8] */;
  %131 = nn.mcutruncate(%130) /* ty=Tensor[(1, 64, 4, 4), int8] */;
  %132 = nn.mcuconv2d(%131, %v19_conv_0_weight, %v19_conv_0_bias, %v19_conv_0_zero_x, %v19_conv_0_zero_y, %v19_conv_0_scale, padding=[0, 0, 0, 0]) /* ty=Tensor[(1, 192, 4, 4), int32] */;
  %133 = nn.mcutruncate(%132) /* ty=Tensor[(1, 192, 4, 4), int8] */;
  %134 = nn.mcuconv2d(%133, %v19_conv_1_weight, %v19_conv_1_bias, %v19_conv_1_zero_x, %v19_conv_1_zero_y, %v19_conv_1_scale, padding=[3, 3, 3, 3], groups=192) /* ty=Tensor[(1, 192, 4, 4), int32] */;
  %135 = nn.mcutruncate(%134) /* ty=Tensor[(1, 192, 4, 4), int8] */;
  %136 = nn.mcuconv2d(%135, %v19_conv_2_weight, %v19_conv_2_bias, %v19_conv_2_zero_x, %v19_conv_2_zero_y, %v19_conv_2_scale, padding=[0, 0, 0, 0]) /* ty=Tensor[(1, 64, 4, 4), int32] */;
  %137 = nn.mcutruncate(%136) /* ty=Tensor[(1, 64, 4, 4), int8] */;
  %138 = nn.mcuadd(%131, %137, %v19_qadd_zero_x1, %v19_qadd_zero_x2, %v19_qadd_scale_x1, %v19_qadd_scale_x2, %v19_qadd_zero_y, %v19_qadd_scale_y, axis=0) /* ty=Tensor[(1, 64, 4, 4), int8] */;
  %139 = nn.mcutruncate(%138) /* ty=Tensor[(1, 64, 4, 4), int8] */;
  %140 = nn.mcuconv2d(%139, %v20_conv_0_weight, %v20_conv_0_bias, %v20_conv_0_zero_x, %v20_conv_0_zero_y, %v20_conv_0_scale, padding=[0, 0, 0, 0]) /* ty=Tensor[(1, 384, 4, 4), int32] */;
  %141 = nn.mcutruncate(%140) /* ty=Tensor[(1, 384, 4, 4), int8] */;
  %142 = nn.mcuconv2d(%141, %v20_conv_1_weight, %v20_conv_1_bias, %v20_conv_1_zero_x, %v20_conv_1_zero_y, %v20_conv_1_scale, padding=[3, 3, 3, 3], groups=384) /* ty=Tensor[(1, 384, 4, 4), int32] */;
  %143 = nn.mcutruncate(%142) /* ty=Tensor[(1, 384, 4, 4), int8] */;
  %144 = nn.mcuconv2d(%143, %v20_conv_2_weight, %v20_conv_2_bias, %v20_conv_2_zero_x, %v20_conv_2_zero_y, %v20_conv_2_scale, padding=[0, 0, 0, 0]) /* ty=Tensor[(1, 96, 4, 4), int32] */;
  %145 = nn.mcutruncate(%144) /* ty=Tensor[(1, 96, 4, 4), int8] */;
  %146 = mcumean(%145, axis=[2, 3], keepdims=True) /* ty=Tensor[(1, 96, 1, 1), int8] */;
  %147 = nn.mcuconv2d(%146, %v21_weight, %v21_bias, %v21_zero_x, %v21_zero_y, %v21_scale, padding=[0, 0, 0, 0]) /* ty=Tensor[(1, 10, 1, 1), int32] */;
  %148 = nn.mcutruncate(%147) /* ty=Tensor[(1, 10, 1, 1), int8] */;
  %149 = reshape(%148, newshape=[0, 0]) /* ty=Tensor[(1, 10), int8] */;
  %150 = cast(%149, dtype="float32") /* ty=Tensor[(1, 10), float32] */;
  %151 = nn.log_softmax(%150) /* ty=Tensor[(1, 10), float32] */;
  %152 = greater_equal(%147, -128 /* ty=int32 */) /* ty=Tensor[(1, 10, 1, 1), bool] */;
  %153 = less_equal(%147, 127 /* ty=int32 */) /* ty=Tensor[(1, 10, 1, 1), bool] */;
  %154 = ones(shape=[], dtype="float32") /* ty=float32 */;
  %155 = negative(%154) /* ty=float32 */;
  %156 = multiply(%155, %label) /* ty=Tensor[(1, 10), float32] */;
  %157 = sum(%156, axis=[-1], keepdims=True) /* ty=Tensor[(1, 1), float32] */;
  %158 = exp(%151) /* ty=Tensor[(1, 10), float32] */;
  %159 = multiply(%157, %158) /* ty=Tensor[(1, 10), float32] */;
  %160 = subtract(%156, %159) /* ty=Tensor[(1, 10), float32] */;
  %161 = multiply(%152, %153) /* ty=Tensor[(1, 10, 1, 1), bool] */;
  %162 = reshape(%160, newshape=[1, 10, 1, 1]) /* ty=Tensor[(1, 10, 1, 1), float32] */;
  %163 = zeros(shape=[1, 10, 1, 1], dtype="float32") /* ty=Tensor[(1, 10, 1, 1), float32] */;
  %164 = where(%161, %162, %163) /* ty=Tensor[(1, 10, 1, 1), float32] */;
  %165 = cast(%164, dtype="int32") /* ty=Tensor[(1, 10, 1, 1), int32] */;
  %166 = reshape(%146, newshape=[1, -1, 0, 0]) /* ty=Tensor[(1, 96, 1, 1), int8] */;
  %167 = tile(%164, reps=[1, 96, 1, 1]) /* ty=Tensor[(1, 960, 1, 1), float32] */;
  %168 = cast(%166, dtype="float32") /* ty=Tensor[(1, 96, 1, 1), float32] */;
  %169 = reshape(%167, newshape=[-1, 1, 0, 0]) /* ty=Tensor[(960, 1, 1, 1), float32] */;
  %170 = nn.conv2d(%168, %169, padding=[0, 0, 0, 0], groups=96, out_dtype="float32") /* ty=Tensor[(1, 960, 1, 1), float32] */;
  %171 = reshape(%170, newshape=[1, 96, 10, 1, 1]) /* ty=Tensor[(1, 96, 10, 1, 1), float32] */;
  %172 = sum(%171, axis=[0]) /* ty=Tensor[(96, 10, 1, 1), float32] */;
  %173 = transpose(%172, axes=[1, 0, 2, 3]) /* ty=Tensor[(10, 96, 1, 1), float32] */;
  %174 = abs(%173) /* ty=Tensor[(10, 96, 1, 1), float32] */;
  %175 = max(%174, axis=[1], keepdims=True) /* ty=Tensor[(10, 1, 1, 1), float32] */;
  %176 = divide(%175, 127f /* ty=float32 */) /* ty=Tensor[(10, 1, 1, 1), float32] */;
  %177 = divide(%173, %176) /* ty=Tensor[(10, 96, 1, 1), float32] */;
  %178 = greater_equal(%144, -128 /* ty=int32 */) /* ty=Tensor[(1, 96, 4, 4), bool] */;
  %179 = less_equal(%144, 127 /* ty=int32 */) /* ty=Tensor[(1, 96, 4, 4), bool] */;
  %180 = cast(%v21_weight, dtype="float32") /* ty=Tensor[(10, 96, 1, 1), float32] */;
  %181 = nn.conv2d_transpose(%164, %180, channels=96, kernel_size=[1, 1], padding=[0, 0, 0, 0], kernel_layout="IOHW", out_dtype="float32") /* ty=Tensor[(1, 96, 1, 1), float32] */;
  %182 = abs(%181) /* ty=Tensor[(1, 96, 1, 1), float32] */;
  %183 = max(%182, axis=[1], keepdims=True) /* ty=Tensor[(1, 1, 1, 1), float32] */;
  %184 = divide(%183, 127f /* ty=float32 */) /* ty=Tensor[(1, 1, 1, 1), float32] */;
  %185 = divide(%181, %184) /* ty=Tensor[(1, 96, 1, 1), float32] */;
  %186 = cast(%185, dtype="int8") /* ty=Tensor[(1, 96, 1, 1), int8] */;
  %187 = cast(%186, dtype="float32") /* ty=Tensor[(1, 96, 1, 1), float32] */;
  %188 = multiply(%187, 0.0625f /* ty=float32 */) /* ty=Tensor[(1, 96, 1, 1), float32] */;
  %189 = ones(shape=[1, 96, 4, 4], dtype="float32") /* ty=Tensor[(1, 96, 4, 4), float32] */;
  %190 = multiply(%178, %179) /* ty=Tensor[(1, 96, 4, 4), bool] */;
  %191 = multiply(%188, %189) /* ty=Tensor[(1, 96, 4, 4), float32] */;
  %192 = zeros(shape=[1, 96, 4, 4], dtype="float32") /* ty=Tensor[(1, 96, 4, 4), float32] */;
  %193 = where(%190, %191, %192) /* ty=Tensor[(1, 96, 4, 4), float32] */;
  %194 = cast(%193, dtype="int32") /* ty=Tensor[(1, 96, 4, 4), int32] */;
  %195 = greater_equal(%142, -128 /* ty=int32 */) /* ty=Tensor[(1, 384, 4, 4), bool] */;
  %196 = less_equal(%142, 127 /* ty=int32 */) /* ty=Tensor[(1, 384, 4, 4), bool] */;
  %197 = cast(%v20_conv_2_weight, dtype="float32") /* ty=Tensor[(96, 384, 1, 1), float32] */;
  %198 = nn.conv2d_transpose(%193, %197, channels=384, kernel_size=[1, 1], padding=[0, 0, 0, 0], kernel_layout="IOHW", out_dtype="float32") /* ty=Tensor[(1, 384, 4, 4), float32] */;
  %199 = abs(%198) /* ty=Tensor[(1, 384, 4, 4), float32] */;
  %200 = max(%199, axis=[1], keepdims=True) /* ty=Tensor[(1, 1, 4, 4), float32] */;
  %201 = divide(%200, 127f /* ty=float32 */) /* ty=Tensor[(1, 1, 4, 4), float32] */;
  %202 = divide(%198, %201) /* ty=Tensor[(1, 384, 4, 4), float32] */;
  %203 = multiply(%195, %196) /* ty=Tensor[(1, 384, 4, 4), bool] */;
  %204 = cast(%202, dtype="int8") /* ty=Tensor[(1, 384, 4, 4), int8] */;
  %205 = zeros(shape=[1, 384, 4, 4], dtype="int8") /* ty=Tensor[(1, 384, 4, 4), int8] */;
  %206 = where(%203, %204, %205) /* ty=Tensor[(1, 384, 4, 4), int8] */;
  %207 = cast(%206, dtype="int32") /* ty=Tensor[(1, 384, 4, 4), int32] */;
  %208 = greater_equal(%140, -128 /* ty=int32 */) /* ty=Tensor[(1, 384, 4, 4), bool] */;
  %209 = less_equal(%140, 127 /* ty=int32 */) /* ty=Tensor[(1, 384, 4, 4), bool] */;
  %210 = nn.conv2d_transpose(%206, %v20_conv_1_weight, channels=384, kernel_size=[7, 7], padding=[3, 3, 3, 3], groups=384, kernel_layout="IOHW", out_dtype="int32") /* ty=Tensor[(1, 384, 4, 4), int32] */;
  %211 = abs(%210) /* ty=Tensor[(1, 384, 4, 4), int32] */;
  %212 = max(%211, axis=[1], keepdims=True) /* ty=Tensor[(1, 1, 4, 4), int32] */;
  %213 = divide(%212, 127 /* ty=int32 */) /* ty=Tensor[(1, 1, 4, 4), int32] */;
  %214 = divide(%210, %213) /* ty=Tensor[(1, 384, 4, 4), int32] */;
  %215 = multiply(%208, %209) /* ty=Tensor[(1, 384, 4, 4), bool] */;
  %216 = cast(%214, dtype="int8") /* ty=Tensor[(1, 384, 4, 4), int8] */;
  %217 = zeros(shape=[1, 384, 4, 4], dtype="int8") /* ty=Tensor[(1, 384, 4, 4), int8] */;
  %218 = where(%215, %216, %217) /* ty=Tensor[(1, 384, 4, 4), int8] */;
  %219 = cast(%218, dtype="int32") /* ty=Tensor[(1, 384, 4, 4), int32] */;
  %220 = tile(%218, reps=[1, 64, 1, 1]) /* ty=Tensor[(1, 24576, 4, 4), int8] */;
  %221 = reshape(%139, newshape=[1, -1, 0, 0]) /* ty=Tensor[(1, 64, 4, 4), int8] */;
  %222 = reshape(%220, newshape=[-1, 1, 0, 0]) /* ty=Tensor[(24576, 1, 4, 4), int8] */;
  %223 = nn.conv2d(%221, %222, padding=[0, 0, 0, 0], groups=64, out_dtype="int32") /* ty=Tensor[(1, 24576, 1, 1), int32] */;
  %224 = reshape(%223, newshape=[1, 64, 384, 1, 1]) /* ty=Tensor[(1, 64, 384, 1, 1), int32] */;
  %225 = sum(%224, axis=[0]) /* ty=Tensor[(64, 384, 1, 1), int32] */;
  %226 = transpose(%225, axes=[1, 0, 2, 3]) /* ty=Tensor[(384, 64, 1, 1), int32] */;
  %227 = abs(%226) /* ty=Tensor[(384, 64, 1, 1), int32] */;
  %228 = max(%227, axis=[1], keepdims=True) /* ty=Tensor[(384, 1, 1, 1), int32] */;
  %229 = divide(%228, 127 /* ty=int32 */) /* ty=Tensor[(384, 1, 1, 1), int32] */;
  %230 = divide(%226, %229) /* ty=Tensor[(384, 64, 1, 1), int32] */;
  %231 = greater_equal(%136, -128 /* ty=int32 */) /* ty=Tensor[(1, 64, 4, 4), bool] */;
  %232 = less_equal(%136, 127 /* ty=int32 */) /* ty=Tensor[(1, 64, 4, 4), bool] */;
  %233 = greater_equal(%138, meta[relay.Constant][0] /* ty=int8 */) /* ty=Tensor[(1, 64, 4, 4), bool] */;
  %234 = less_equal(%138, meta[relay.Constant][1] /* ty=int8 */) /* ty=Tensor[(1, 64, 4, 4), bool] */;
  %235 = nn.conv2d_transpose(%218, %v20_conv_0_weight, channels=64, kernel_size=[1, 1], padding=[0, 0, 0, 0], kernel_layout="IOHW", out_dtype="int32") /* ty=Tensor[(1, 64, 4, 4), int32] */;
  %236 = abs(%235) /* ty=Tensor[(1, 64, 4, 4), int32] */;
  %237 = max(%236, axis=[1], keepdims=True) /* ty=Tensor[(1, 1, 4, 4), int32] */;
  %238 = divide(%237, 127 /* ty=int32 */) /* ty=Tensor[(1, 1, 4, 4), int32] */;
  %239 = divide(%235, %238) /* ty=Tensor[(1, 64, 4, 4), int32] */;
  %240 = multiply(%233, %234) /* ty=Tensor[(1, 64, 4, 4), bool] */;
  %241 = cast(%239, dtype="int8") /* ty=Tensor[(1, 64, 4, 4), int8] */;
  %242 = zeros(shape=[1, 64, 4, 4], dtype="int8") /* ty=Tensor[(1, 64, 4, 4), int8] */;
  %243 = where(%240, %241, %242) /* ty=Tensor[(1, 64, 4, 4), int8] */;
  %244 = cast(%243, dtype="float32") /* ty=Tensor[(1, 64, 4, 4), float32] */;
  %245 = reshape(%v19_qadd_scale_y, newshape=[1, -1, 1, 1]) /* ty=Tensor[(1, 1, 1, 1), float32] */;
  %246 = divide(%244, %245) /* ty=Tensor[(1, 64, 4, 4), float32] */;
  %247 = reshape(%v19_qadd_scale_x2, newshape=[1, -1, 1, 1]) /* ty=Tensor[(1, 1, 1, 1), float32] */;
  %248 = multiply(%246, %247) /* ty=Tensor[(1, 64, 4, 4), float32] */;
  %249 = multiply(%231, %232) /* ty=Tensor[(1, 64, 4, 4), bool] */;
  %250 = cast(%248, dtype="int8") /* ty=Tensor[(1, 64, 4, 4), int8] */;
  %251 = zeros(shape=[1, 64, 4, 4], dtype="int8") /* ty=Tensor[(1, 64, 4, 4), int8] */;
  %252 = where(%249, %250, %251) /* ty=Tensor[(1, 64, 4, 4), int8] */;
  %253 = cast(%252, dtype="int32") /* ty=Tensor[(1, 64, 4, 4), int32] */;
  %254 = greater_equal(%134, -128 /* ty=int32 */) /* ty=Tensor[(1, 192, 4, 4), bool] */;
  %255 = less_equal(%134, 127 /* ty=int32 */) /* ty=Tensor[(1, 192, 4, 4), bool] */;
  %256 = nn.conv2d_transpose(%252, %v19_conv_2_weight, channels=192, kernel_size=[1, 1], padding=[0, 0, 0, 0], kernel_layout="IOHW", out_dtype="int32") /* ty=Tensor[(1, 192, 4, 4), int32] */;
  %257 = abs(%256) /* ty=Tensor[(1, 192, 4, 4), int32] */;
  %258 = max(%257, axis=[1], keepdims=True) /* ty=Tensor[(1, 1, 4, 4), int32] */;
  %259 = divide(%258, 127 /* ty=int32 */) /* ty=Tensor[(1, 1, 4, 4), int32] */;
  %260 = divide(%256, %259) /* ty=Tensor[(1, 192, 4, 4), int32] */;
  %261 = multiply(%254, %255) /* ty=Tensor[(1, 192, 4, 4), bool] */;
  %262 = cast(%260, dtype="int8") /* ty=Tensor[(1, 192, 4, 4), int8] */;
  %263 = zeros(shape=[1, 192, 4, 4], dtype="int8") /* ty=Tensor[(1, 192, 4, 4), int8] */;
  %264 = where(%261, %262, %263) /* ty=Tensor[(1, 192, 4, 4), int8] */;
  %265 = cast(%264, dtype="int32") /* ty=Tensor[(1, 192, 4, 4), int32] */;
  %266 = greater_equal(%132, -128 /* ty=int32 */) /* ty=Tensor[(1, 192, 4, 4), bool] */;
  %267 = less_equal(%132, 127 /* ty=int32 */) /* ty=Tensor[(1, 192, 4, 4), bool] */;
  %268 = nn.conv2d_transpose(%264, %v19_conv_1_weight, channels=192, kernel_size=[7, 7], padding=[3, 3, 3, 3], groups=192, kernel_layout="IOHW", out_dtype="int32") /* ty=Tensor[(1, 192, 4, 4), int32] */;
  %269 = abs(%268) /* ty=Tensor[(1, 192, 4, 4), int32] */;
  %270 = max(%269, axis=[1], keepdims=True) /* ty=Tensor[(1, 1, 4, 4), int32] */;
  %271 = divide(%270, 127 /* ty=int32 */) /* ty=Tensor[(1, 1, 4, 4), int32] */;
  %272 = divide(%268, %271) /* ty=Tensor[(1, 192, 4, 4), int32] */;
  %273 = multiply(%266, %267) /* ty=Tensor[(1, 192, 4, 4), bool] */;
  %274 = cast(%272, dtype="int8") /* ty=Tensor[(1, 192, 4, 4), int8] */;
  %275 = zeros(shape=[1, 192, 4, 4], dtype="int8") /* ty=Tensor[(1, 192, 4, 4), int8] */;
  %276 = where(%273, %274, %275) /* ty=Tensor[(1, 192, 4, 4), int8] */;
  %277 = cast(%276, dtype="int32") /* ty=Tensor[(1, 192, 4, 4), int32] */;
  %278 = tile(%276, reps=[1, 64, 1, 1]) /* ty=Tensor[(1, 12288, 4, 4), int8] */;
  %279 = reshape(%131, newshape=[1, -1, 0, 0]) /* ty=Tensor[(1, 64, 4, 4), int8] */;
  %280 = reshape(%278, newshape=[-1, 1, 0, 0]) /* ty=Tensor[(12288, 1, 4, 4), int8] */;
  %281 = nn.conv2d(%279, %280, padding=[0, 0, 0, 0], groups=64, out_dtype="int32") /* ty=Tensor[(1, 12288, 1, 1), int32] */;
  %282 = reshape(%281, newshape=[1, 64, 192, 1, 1]) /* ty=Tensor[(1, 64, 192, 1, 1), int32] */;
  %283 = sum(%282, axis=[0]) /* ty=Tensor[(64, 192, 1, 1), int32] */;
  %284 = transpose(%283, axes=[1, 0, 2, 3]) /* ty=Tensor[(192, 64, 1, 1), int32] */;
  %285 = abs(%284) /* ty=Tensor[(192, 64, 1, 1), int32] */;
  %286 = max(%285, axis=[1], keepdims=True) /* ty=Tensor[(192, 1, 1, 1), int32] */;
  %287 = divide(%286, 127 /* ty=int32 */) /* ty=Tensor[(192, 1, 1, 1), int32] */;
  %288 = divide(%284, %287) /* ty=Tensor[(192, 64, 1, 1), int32] */;
  %289 = greater_equal(%128, -128 /* ty=int32 */) /* ty=Tensor[(1, 64, 4, 4), bool] */;
  %290 = less_equal(%128, 127 /* ty=int32 */) /* ty=Tensor[(1, 64, 4, 4), bool] */;
  %291 = greater_equal(%130, meta[relay.Constant][2] /* ty=int8 */) /* ty=Tensor[(1, 64, 4, 4), bool] */;
  %292 = less_equal(%130, meta[relay.Constant][3] /* ty=int8 */) /* ty=Tensor[(1, 64, 4, 4), bool] */;
  %293 = nn.conv2d_transpose(%276, %v19_conv_0_weight, channels=64, kernel_size=[1, 1], padding=[0, 0, 0, 0], kernel_layout="IOHW", out_dtype="int32") /* ty=Tensor[(1, 64, 4, 4), int32] */;
  %294 = abs(%293) /* ty=Tensor[(1, 64, 4, 4), int32] */;
  %295 = max(%294, axis=[1], keepdims=True) /* ty=Tensor[(1, 1, 4, 4), int32] */;
  %296 = divide(%295, 127 /* ty=int32 */) /* ty=Tensor[(1, 1, 4, 4), int32] */;
  %297 = divide(%293, %296) /* ty=Tensor[(1, 64, 4, 4), int32] */;
  %298 = multiply(%291, %292) /* ty=Tensor[(1, 64, 4, 4), bool] */;
  %299 = cast(%297, dtype="int8") /* ty=Tensor[(1, 64, 4, 4), int8] */;
  %300 = zeros(shape=[1, 64, 4, 4], dtype="int8") /* ty=Tensor[(1, 64, 4, 4), int8] */;
  %301 = where(%298, %299, %300) /* ty=Tensor[(1, 64, 4, 4), int8] */;
  %302 = cast(%301, dtype="float32") /* ty=Tensor[(1, 64, 4, 4), float32] */;
  %303 = reshape(%v18_qadd_scale_y, newshape=[1, -1, 1, 1]) /* ty=Tensor[(1, 1, 1, 1), float32] */;
  %304 = divide(%302, %303) /* ty=Tensor[(1, 64, 4, 4), float32] */;
  %305 = reshape(%v18_qadd_scale_x2, newshape=[1, -1, 1, 1]) /* ty=Tensor[(1, 1, 1, 1), float32] */;
  %306 = multiply(%304, %305) /* ty=Tensor[(1, 64, 4, 4), float32] */;
  %307 = multiply(%289, %290) /* ty=Tensor[(1, 64, 4, 4), bool] */;
  %308 = cast(%306, dtype="int8") /* ty=Tensor[(1, 64, 4, 4), int8] */;
  %309 = zeros(shape=[1, 64, 4, 4], dtype="int8") /* ty=Tensor[(1, 64, 4, 4), int8] */;
  %310 = where(%307, %308, %309) /* ty=Tensor[(1, 64, 4, 4), int8] */;
  %311 = cast(%310, dtype="int32") /* ty=Tensor[(1, 64, 4, 4), int32] */;
  %312 = greater_equal(%126, -128 /* ty=int32 */) /* ty=Tensor[(1, 192, 4, 4), bool] */;
  %313 = less_equal(%126, 127 /* ty=int32 */) /* ty=Tensor[(1, 192, 4, 4), bool] */;
  %314 = nn.conv2d_transpose(%310, %v18_conv_2_weight, channels=192, kernel_size=[1, 1], padding=[0, 0, 0, 0], kernel_layout="IOHW", out_dtype="int32") /* ty=Tensor[(1, 192, 4, 4), int32] */;
  %315 = abs(%314) /* ty=Tensor[(1, 192, 4, 4), int32] */;
  %316 = max(%315, axis=[1], keepdims=True) /* ty=Tensor[(1, 1, 4, 4), int32] */;
  %317 = divide(%316, 127 /* ty=int32 */) /* ty=Tensor[(1, 1, 4, 4), int32] */;
  %318 = divide(%314, %317) /* ty=Tensor[(1, 192, 4, 4), int32] */;
  %319 = multiply(%312, %313) /* ty=Tensor[(1, 192, 4, 4), bool] */;
  %320 = cast(%318, dtype="int8") /* ty=Tensor[(1, 192, 4, 4), int8] */;
  %321 = zeros(shape=[1, 192, 4, 4], dtype="int8") /* ty=Tensor[(1, 192, 4, 4), int8] */;
  %322 = where(%319, %320, %321) /* ty=Tensor[(1, 192, 4, 4), int8] */;
  %323 = cast(%322, dtype="int32") /* ty=Tensor[(1, 192, 4, 4), int32] */;
  %324 = greater_equal(%124, -128 /* ty=int32 */) /* ty=Tensor[(1, 192, 4, 4), bool] */;
  %325 = less_equal(%124, 127 /* ty=int32 */) /* ty=Tensor[(1, 192, 4, 4), bool] */;
  %326 = nn.conv2d_transpose(%322, %v18_conv_1_weight, channels=192, kernel_size=[7, 7], padding=[3, 3, 3, 3], groups=192, kernel_layout="IOHW", out_dtype="int32") /* ty=Tensor[(1, 192, 4, 4), int32] */;
  %327 = abs(%326) /* ty=Tensor[(1, 192, 4, 4), int32] */;
  %328 = max(%327, axis=[1], keepdims=True) /* ty=Tensor[(1, 1, 4, 4), int32] */;
  %329 = divide(%328, 127 /* ty=int32 */) /* ty=Tensor[(1, 1, 4, 4), int32] */;
  %330 = divide(%326, %329) /* ty=Tensor[(1, 192, 4, 4), int32] */;
  %331 = multiply(%324, %325) /* ty=Tensor[(1, 192, 4, 4), bool] */;
  %332 = cast(%330, dtype="int8") /* ty=Tensor[(1, 192, 4, 4), int8] */;
  %333 = zeros(shape=[1, 192, 4, 4], dtype="int8") /* ty=Tensor[(1, 192, 4, 4), int8] */;
  %334 = where(%331, %332, %333) /* ty=Tensor[(1, 192, 4, 4), int8] */;
  %335 = cast(%334, dtype="float32") /* ty=Tensor[(1, 192, 4, 4), float32] */;
  %336 = reshape(%v18_conv_0_scale, newshape=[1, -1, 1, 1]) /* ty=Tensor[(1, 192, 1, 1), float32] */;
  %337 = multiply(%335, %336) /* ty=Tensor[(1, 192, 4, 4), float32] */;
  %338 = cast(%123, dtype="float32") /* ty=Tensor[(1, 64, 4, 4), float32] */;
  %339 = strided_slice(%338, begin=[0, 0, 0, 0], end=[1, 32, 4, 4], strides=[1], axes=None) /* ty=Tensor[(1, 32, 4, 4), float32] */;
  %340 = tile(%337, reps=[1, 32, 1, 1]) /* ty=Tensor[(1, 6144, 4, 4), float32] */;
  %341 = reshape(%339, newshape=[1, -1, 0, 0]) /* ty=Tensor[(1, 32, 4, 4), float32] */;
  %342 = reshape(%340, newshape=[-1, 1, 0, 0]) /* ty=Tensor[(6144, 1, 4, 4), float32] */;
  %343 = nn.conv2d(%341, %342, padding=[0, 0, 0, 0], groups=32) /* ty=Tensor[(1, 6144, 1, 1), float32] */;
  %344 = reshape(%343, newshape=[1, 32, 192, 1, 1]) /* ty=Tensor[(1, 32, 192, 1, 1), float32] */;
  %345 = sum(%344, axis=[0]) /* ty=Tensor[(32, 192, 1, 1), float32] */;
  %346 = greater_equal(%120, -128 /* ty=int32 */) /* ty=Tensor[(1, 64, 4, 4), bool] */;
  %347 = less_equal(%120, 127 /* ty=int32 */) /* ty=Tensor[(1, 64, 4, 4), bool] */;
  %348 = greater_equal(%122, meta[relay.Constant][4] /* ty=int8 */) /* ty=Tensor[(1, 64, 4, 4), bool] */;
  %349 = less_equal(%122, meta[relay.Constant][5] /* ty=int8 */) /* ty=Tensor[(1, 64, 4, 4), bool] */;
  %350 = cast(%v18_conv_0_weight, dtype="float32") /* ty=Tensor[(192, 64, 1, 1), float32] */;
  %351 = multiply(%348, %349) /* ty=Tensor[(1, 64, 4, 4), bool] */;
  %352 = nn.conv2d_transpose(%337, %350, channels=64, kernel_size=[1, 1], padding=[0, 0, 0, 0], kernel_layout="IOHW") /* ty=Tensor[(1, 64, 4, 4), float32] */;
  %353 = zeros(shape=[1, 64, 4, 4], dtype="float32") /* ty=Tensor[(1, 64, 4, 4), float32] */;
  %354 = where(%351, %352, %353) /* ty=Tensor[(1, 64, 4, 4), float32] */;
  %355 = reshape(%v17_qadd_scale_y, newshape=[1, -1, 1, 1]) /* ty=Tensor[(1, 1, 1, 1), float32] */;
  %356 = divide(%354, %355) /* ty=Tensor[(1, 64, 4, 4), float32] */;
  %357 = reshape(%v17_qadd_scale_x2, newshape=[1, -1, 1, 1]) /* ty=Tensor[(1, 1, 1, 1), float32] */;
  %358 = multiply(%346, %347) /* ty=Tensor[(1, 64, 4, 4), bool] */;
  %359 = multiply(%356, %357) /* ty=Tensor[(1, 64, 4, 4), float32] */;
  %360 = zeros(shape=[1, 64, 4, 4], dtype="float32") /* ty=Tensor[(1, 64, 4, 4), float32] */;
  %361 = where(%358, %359, %360) /* ty=Tensor[(1, 64, 4, 4), float32] */;
  %362 = cast(%361, dtype="int32") /* ty=Tensor[(1, 64, 4, 4), int32] */;
  %363 = greater_equal(%118, -128 /* ty=int32 */) /* ty=Tensor[(1, 384, 4, 4), bool] */;
  %364 = less_equal(%118, 127 /* ty=int32 */) /* ty=Tensor[(1, 384, 4, 4), bool] */;
  %365 = cast(%v17_conv_2_weight, dtype="float32") /* ty=Tensor[(64, 384, 1, 1), float32] */;
  %366 = nn.conv2d_transpose(%361, %365, channels=384, kernel_size=[1, 1], padding=[0, 0, 0, 0], kernel_layout="IOHW", out_dtype="float32") /* ty=Tensor[(1, 384, 4, 4), float32] */;
  %367 = abs(%366) /* ty=Tensor[(1, 384, 4, 4), float32] */;
  %368 = max(%367, axis=[1], keepdims=True) /* ty=Tensor[(1, 1, 4, 4), float32] */;
  %369 = divide(%368, 127f /* ty=float32 */) /* ty=Tensor[(1, 1, 4, 4), float32] */;
  %370 = divide(%366, %369) /* ty=Tensor[(1, 384, 4, 4), float32] */;
  %371 = multiply(%363, %364) /* ty=Tensor[(1, 384, 4, 4), bool] */;
  %372 = cast(%370, dtype="int8") /* ty=Tensor[(1, 384, 4, 4), int8] */;
  %373 = zeros(shape=[1, 384, 4, 4], dtype="int8") /* ty=Tensor[(1, 384, 4, 4), int8] */;
  %374 = where(%371, %372, %373) /* ty=Tensor[(1, 384, 4, 4), int8] */;
  %375 = cast(%374, dtype="int32") /* ty=Tensor[(1, 384, 4, 4), int32] */;
  %376 = greater_equal(%116, -128 /* ty=int32 */) /* ty=Tensor[(1, 384, 4, 4), bool] */;
  %377 = less_equal(%116, 127 /* ty=int32 */) /* ty=Tensor[(1, 384, 4, 4), bool] */;
  %378 = nn.conv2d_transpose(%374, %v17_conv_1_weight, channels=384, kernel_size=[7, 7], padding=[3, 3, 3, 3], groups=384, kernel_layout="IOHW", out_dtype="int32") /* ty=Tensor[(1, 384, 4, 4), int32] */;
  %379 = abs(%378) /* ty=Tensor[(1, 384, 4, 4), int32] */;
  %380 = max(%379, axis=[1], keepdims=True) /* ty=Tensor[(1, 1, 4, 4), int32] */;
  %381 = divide(%380, 127 /* ty=int32 */) /* ty=Tensor[(1, 1, 4, 4), int32] */;
  %382 = divide(%378, %381) /* ty=Tensor[(1, 384, 4, 4), int32] */;
  %383 = multiply(%376, %377) /* ty=Tensor[(1, 384, 4, 4), bool] */;
  %384 = cast(%382, dtype="int8") /* ty=Tensor[(1, 384, 4, 4), int8] */;
  %385 = zeros(shape=[1, 384, 4, 4], dtype="int8") /* ty=Tensor[(1, 384, 4, 4), int8] */;
  %386 = where(%383, %384, %385) /* ty=Tensor[(1, 384, 4, 4), int8] */;
  %387 = cast(%386, dtype="float32") /* ty=Tensor[(1, 384, 4, 4), float32] */;
  %388 = reshape(%v17_conv_0_scale, newshape=[1, -1, 1, 1]) /* ty=Tensor[(1, 384, 1, 1), float32] */;
  %389 = multiply(%387, %388) /* ty=Tensor[(1, 384, 4, 4), float32] */;
  %390 = cast(%115, dtype="float32") /* ty=Tensor[(1, 64, 4, 4), float32] */;
  %391 = strided_slice(%390, begin=[0, 0, 0, 0], end=[1, 16, 4, 4], strides=[1], axes=None) /* ty=Tensor[(1, 16, 4, 4), float32] */;
  %392 = tile(%389, reps=[1, 16, 1, 1]) /* ty=Tensor[(1, 6144, 4, 4), float32] */;
  %393 = reshape(%391, newshape=[1, -1, 0, 0]) /* ty=Tensor[(1, 16, 4, 4), float32] */;
  %394 = reshape(%392, newshape=[-1, 1, 0, 0]) /* ty=Tensor[(6144, 1, 4, 4), float32] */;
  %395 = nn.conv2d(%393, %394, padding=[0, 0, 0, 0], groups=16) /* ty=Tensor[(1, 6144, 1, 1), float32] */;
  %396 = reshape(%395, newshape=[1, 16, 384, 1, 1]) /* ty=Tensor[(1, 16, 384, 1, 1), float32] */;
  %397 = sum(%396, axis=[0]) /* ty=Tensor[(16, 384, 1, 1), float32] */;
  %398 = greater_equal(%114, -128 /* ty=int32 */) /* ty=Tensor[(1, 64, 4, 4), bool] */;
  %399 = less_equal(%114, 127 /* ty=int32 */) /* ty=Tensor[(1, 64, 4, 4), bool] */;
  %400 = cast(%v17_conv_0_weight, dtype="float32") /* ty=Tensor[(384, 64, 1, 1), float32] */;
  %401 = multiply(%398, %399) /* ty=Tensor[(1, 64, 4, 4), bool] */;
  %402 = nn.conv2d_transpose(%389, %400, channels=64, kernel_size=[1, 1], padding=[0, 0, 0, 0], kernel_layout="IOHW") /* ty=Tensor[(1, 64, 4, 4), float32] */;
  %403 = zeros(shape=[1, 64, 4, 4], dtype="float32") /* ty=Tensor[(1, 64, 4, 4), float32] */;
  %404 = where(%401, %402, %403) /* ty=Tensor[(1, 64, 4, 4), float32] */;
  %405 = cast(%404, dtype="int32") /* ty=Tensor[(1, 64, 4, 4), int32] */;
  %406 = greater_equal(%112, -128 /* ty=int32 */) /* ty=Tensor[(1, 192, 4, 4), bool] */;
  %407 = less_equal(%112, 127 /* ty=int32 */) /* ty=Tensor[(1, 192, 4, 4), bool] */;
  %408 = cast(%v16_conv_2_weight, dtype="float32") /* ty=Tensor[(64, 192, 1, 1), float32] */;
  %409 = nn.conv2d_transpose(%404, %408, channels=192, kernel_size=[1, 1], padding=[0, 0, 0, 0], kernel_layout="IOHW", out_dtype="float32") /* ty=Tensor[(1, 192, 4, 4), float32] */;
  %410 = abs(%409) /* ty=Tensor[(1, 192, 4, 4), float32] */;
  %411 = max(%410, axis=[1], keepdims=True) /* ty=Tensor[(1, 1, 4, 4), float32] */;
  %412 = divide(%411, 127f /* ty=float32 */) /* ty=Tensor[(1, 1, 4, 4), float32] */;
  %413 = divide(%409, %412) /* ty=Tensor[(1, 192, 4, 4), float32] */;
  %414 = multiply(%406, %407) /* ty=Tensor[(1, 192, 4, 4), bool] */;
  %415 = cast(%413, dtype="int8") /* ty=Tensor[(1, 192, 4, 4), int8] */;
  %416 = zeros(shape=[1, 192, 4, 4], dtype="int8") /* ty=Tensor[(1, 192, 4, 4), int8] */;
  %417 = where(%414, %415, %416) /* ty=Tensor[(1, 192, 4, 4), int8] */;
  %418 = cast(%417, dtype="int32") /* ty=Tensor[(1, 192, 4, 4), int32] */;
  %419 = greater_equal(%110, -128 /* ty=int32 */) /* ty=Tensor[(1, 192, 8, 8), bool] */;
  %420 = less_equal(%110, 127 /* ty=int32 */) /* ty=Tensor[(1, 192, 8, 8), bool] */;
  %421 = nn.conv2d_transpose(%417, %v16_conv_1_weight, channels=192, kernel_size=[7, 7], strides=[2, 2], output_padding=[1, 1], padding=[3, 3, 3, 3], groups=192, kernel_layout="IOHW", out_dtype="int32") /* ty=Tensor[(1, 192, 8, 8), int32] */;
  %422 = abs(%421) /* ty=Tensor[(1, 192, 8, 8), int32] */;
  %423 = max(%422, axis=[1], keepdims=True) /* ty=Tensor[(1, 1, 8, 8), int32] */;
  %424 = divide(%423, 127 /* ty=int32 */) /* ty=Tensor[(1, 1, 8, 8), int32] */;
  %425 = divide(%421, %424) /* ty=Tensor[(1, 192, 8, 8), int32] */;
  %426 = multiply(%419, %420) /* ty=Tensor[(1, 192, 8, 8), bool] */;
  %427 = cast(%425, dtype="int8") /* ty=Tensor[(1, 192, 8, 8), int8] */;
  %428 = zeros(shape=[1, 192, 8, 8], dtype="int8") /* ty=Tensor[(1, 192, 8, 8), int8] */;
  %429 = where(%426, %427, %428) /* ty=Tensor[(1, 192, 8, 8), int8] */;
  %430 = cast(%429, dtype="int32") /* ty=Tensor[(1, 192, 8, 8), int32] */;
  %431 = tile(%429, reps=[1, 32, 1, 1]) /* ty=Tensor[(1, 6144, 8, 8), int8] */;
  %432 = reshape(%109, newshape=[1, -1, 0, 0]) /* ty=Tensor[(1, 32, 8, 8), int8] */;
  %433 = reshape(%431, newshape=[-1, 1, 0, 0]) /* ty=Tensor[(6144, 1, 8, 8), int8] */;
  %434 = nn.conv2d(%432, %433, padding=[0, 0, 0, 0], groups=32, out_dtype="int32") /* ty=Tensor[(1, 6144, 1, 1), int32] */;
  %435 = reshape(%434, newshape=[1, 32, 192, 1, 1]) /* ty=Tensor[(1, 32, 192, 1, 1), int32] */;
  %436 = sum(%435, axis=[0]) /* ty=Tensor[(32, 192, 1, 1), int32] */;
  %437 = transpose(%436, axes=[1, 0, 2, 3]) /* ty=Tensor[(192, 32, 1, 1), int32] */;
  %438 = abs(%437) /* ty=Tensor[(192, 32, 1, 1), int32] */;
  %439 = max(%438, axis=[1], keepdims=True) /* ty=Tensor[(192, 1, 1, 1), int32] */;
  %440 = divide(%439, 127 /* ty=int32 */) /* ty=Tensor[(192, 1, 1, 1), int32] */;
  %441 = divide(%437, %440) /* ty=Tensor[(192, 32, 1, 1), int32] */;
  %442 = greater_equal(%106, -128 /* ty=int32 */) /* ty=Tensor[(1, 32, 8, 8), bool] */;
  %443 = less_equal(%106, 127 /* ty=int32 */) /* ty=Tensor[(1, 32, 8, 8), bool] */;
  %444 = greater_equal(%108, meta[relay.Constant][6] /* ty=int8 */) /* ty=Tensor[(1, 32, 8, 8), bool] */;
  %445 = less_equal(%108, meta[relay.Constant][7] /* ty=int8 */) /* ty=Tensor[(1, 32, 8, 8), bool] */;
  %446 = nn.conv2d_transpose(%429, %v16_conv_0_weight, channels=32, kernel_size=[1, 1], padding=[0, 0, 0, 0], kernel_layout="IOHW", out_dtype="int32") /* ty=Tensor[(1, 32, 8, 8), int32] */;
  %447 = abs(%446) /* ty=Tensor[(1, 32, 8, 8), int32] */;
  %448 = max(%447, axis=[1], keepdims=True) /* ty=Tensor[(1, 1, 8, 8), int32] */;
  %449 = divide(%448, 127 /* ty=int32 */) /* ty=Tensor[(1, 1, 8, 8), int32] */;
  %450 = divide(%446, %449) /* ty=Tensor[(1, 32, 8, 8), int32] */;
  %451 = multiply(%444, %445) /* ty=Tensor[(1, 32, 8, 8), bool] */;
  %452 = cast(%450, dtype="int8") /* ty=Tensor[(1, 32, 8, 8), int8] */;
  %453 = zeros(shape=[1, 32, 8, 8], dtype="int8") /* ty=Tensor[(1, 32, 8, 8), int8] */;
  %454 = where(%451, %452, %453) /* ty=Tensor[(1, 32, 8, 8), int8] */;
  %455 = cast(%454, dtype="float32") /* ty=Tensor[(1, 32, 8, 8), float32] */;
  %456 = reshape(%v15_qadd_scale_y, newshape=[1, -1, 1, 1]) /* ty=Tensor[(1, 1, 1, 1), float32] */;
  %457 = divide(%455, %456) /* ty=Tensor[(1, 32, 8, 8), float32] */;
  %458 = reshape(%v15_qadd_scale_x2, newshape=[1, -1, 1, 1]) /* ty=Tensor[(1, 1, 1, 1), float32] */;
  %459 = multiply(%457, %458) /* ty=Tensor[(1, 32, 8, 8), float32] */;
  %460 = multiply(%442, %443) /* ty=Tensor[(1, 32, 8, 8), bool] */;
  %461 = cast(%459, dtype="int8") /* ty=Tensor[(1, 32, 8, 8), int8] */;
  %462 = zeros(shape=[1, 32, 8, 8], dtype="int8") /* ty=Tensor[(1, 32, 8, 8), int8] */;
  %463 = where(%460, %461, %462) /* ty=Tensor[(1, 32, 8, 8), int8] */;
  %464 = cast(%463, dtype="int32") /* ty=Tensor[(1, 32, 8, 8), int32] */;
  %465 = greater_equal(%104, -128 /* ty=int32 */) /* ty=Tensor[(1, 96, 8, 8), bool] */;
  %466 = less_equal(%104, 127 /* ty=int32 */) /* ty=Tensor[(1, 96, 8, 8), bool] */;
  %467 = nn.conv2d_transpose(%463, %v15_conv_2_weight, channels=96, kernel_size=[1, 1], padding=[0, 0, 0, 0], kernel_layout="IOHW", out_dtype="int32") /* ty=Tensor[(1, 96, 8, 8), int32] */;
  %468 = abs(%467) /* ty=Tensor[(1, 96, 8, 8), int32] */;
  %469 = max(%468, axis=[1], keepdims=True) /* ty=Tensor[(1, 1, 8, 8), int32] */;
  %470 = divide(%469, 127 /* ty=int32 */) /* ty=Tensor[(1, 1, 8, 8), int32] */;
  %471 = divide(%467, %470) /* ty=Tensor[(1, 96, 8, 8), int32] */;
  %472 = multiply(%465, %466) /* ty=Tensor[(1, 96, 8, 8), bool] */;
  %473 = cast(%471, dtype="int8") /* ty=Tensor[(1, 96, 8, 8), int8] */;
  %474 = zeros(shape=[1, 96, 8, 8], dtype="int8") /* ty=Tensor[(1, 96, 8, 8), int8] */;
  %475 = where(%472, %473, %474) /* ty=Tensor[(1, 96, 8, 8), int8] */;
  %476 = cast(%475, dtype="int32") /* ty=Tensor[(1, 96, 8, 8), int32] */;
  %477 = greater_equal(%102, -128 /* ty=int32 */) /* ty=Tensor[(1, 96, 8, 8), bool] */;
  %478 = less_equal(%102, 127 /* ty=int32 */) /* ty=Tensor[(1, 96, 8, 8), bool] */;
  %479 = nn.conv2d_transpose(%475, %v15_conv_1_weight, channels=96, kernel_size=[5, 5], padding=[2, 2, 2, 2], groups=96, kernel_layout="IOHW", out_dtype="int32") /* ty=Tensor[(1, 96, 8, 8), int32] */;
  %480 = abs(%479) /* ty=Tensor[(1, 96, 8, 8), int32] */;
  %481 = max(%480, axis=[1], keepdims=True) /* ty=Tensor[(1, 1, 8, 8), int32] */;
  %482 = divide(%481, 127 /* ty=int32 */) /* ty=Tensor[(1, 1, 8, 8), int32] */;
  %483 = divide(%479, %482) /* ty=Tensor[(1, 96, 8, 8), int32] */;
  %484 = multiply(%477, %478) /* ty=Tensor[(1, 96, 8, 8), bool] */;
  %485 = cast(%483, dtype="int8") /* ty=Tensor[(1, 96, 8, 8), int8] */;
  %486 = zeros(shape=[1, 96, 8, 8], dtype="int8") /* ty=Tensor[(1, 96, 8, 8), int8] */;
  %487 = where(%484, %485, %486) /* ty=Tensor[(1, 96, 8, 8), int8] */;
  %488 = cast(%487, dtype="int32") /* ty=Tensor[(1, 96, 8, 8), int32] */;
  %489 = tile(%487, reps=[1, 32, 1, 1]) /* ty=Tensor[(1, 3072, 8, 8), int8] */;
  %490 = reshape(%101, newshape=[1, -1, 0, 0]) /* ty=Tensor[(1, 32, 8, 8), int8] */;
  %491 = reshape(%489, newshape=[-1, 1, 0, 0]) /* ty=Tensor[(3072, 1, 8, 8), int8] */;
  %492 = nn.conv2d(%490, %491, padding=[0, 0, 0, 0], groups=32, out_dtype="int32") /* ty=Tensor[(1, 3072, 1, 1), int32] */;
  %493 = reshape(%492, newshape=[1, 32, 96, 1, 1]) /* ty=Tensor[(1, 32, 96, 1, 1), int32] */;
  %494 = sum(%493, axis=[0]) /* ty=Tensor[(32, 96, 1, 1), int32] */;
  %495 = transpose(%494, axes=[1, 0, 2, 3]) /* ty=Tensor[(96, 32, 1, 1), int32] */;
  %496 = abs(%495) /* ty=Tensor[(96, 32, 1, 1), int32] */;
  %497 = max(%496, axis=[1], keepdims=True) /* ty=Tensor[(96, 1, 1, 1), int32] */;
  %498 = divide(%497, 127 /* ty=int32 */) /* ty=Tensor[(96, 1, 1, 1), int32] */;
  %499 = divide(%495, %498) /* ty=Tensor[(96, 32, 1, 1), int32] */;
  %500 = greater_equal(%98, -128 /* ty=int32 */) /* ty=Tensor[(1, 32, 8, 8), bool] */;
  %501 = less_equal(%98, 127 /* ty=int32 */) /* ty=Tensor[(1, 32, 8, 8), bool] */;
  %502 = greater_equal(%100, meta[relay.Constant][8] /* ty=int8 */) /* ty=Tensor[(1, 32, 8, 8), bool] */;
  %503 = less_equal(%100, meta[relay.Constant][9] /* ty=int8 */) /* ty=Tensor[(1, 32, 8, 8), bool] */;
  %504 = nn.conv2d_transpose(%487, %v15_conv_0_weight, channels=32, kernel_size=[1, 1], padding=[0, 0, 0, 0], kernel_layout="IOHW", out_dtype="int32") /* ty=Tensor[(1, 32, 8, 8), int32] */;
  %505 = abs(%504) /* ty=Tensor[(1, 32, 8, 8), int32] */;
  %506 = max(%505, axis=[1], keepdims=True) /* ty=Tensor[(1, 1, 8, 8), int32] */;
  %507 = divide(%506, 127 /* ty=int32 */) /* ty=Tensor[(1, 1, 8, 8), int32] */;
  %508 = divide(%504, %507) /* ty=Tensor[(1, 32, 8, 8), int32] */;
  %509 = multiply(%502, %503) /* ty=Tensor[(1, 32, 8, 8), bool] */;
  %510 = cast(%508, dtype="int8") /* ty=Tensor[(1, 32, 8, 8), int8] */;
  %511 = zeros(shape=[1, 32, 8, 8], dtype="int8") /* ty=Tensor[(1, 32, 8, 8), int8] */;
  %512 = where(%509, %510, %511) /* ty=Tensor[(1, 32, 8, 8), int8] */;
  %513 = cast(%512, dtype="float32") /* ty=Tensor[(1, 32, 8, 8), float32] */;
  %514 = reshape(%v14_qadd_scale_y, newshape=[1, -1, 1, 1]) /* ty=Tensor[(1, 1, 1, 1), float32] */;
  %515 = divide(%513, %514) /* ty=Tensor[(1, 32, 8, 8), float32] */;
  %516 = reshape(%v14_qadd_scale_x2, newshape=[1, -1, 1, 1]) /* ty=Tensor[(1, 1, 1, 1), float32] */;
  %517 = multiply(%515, %516) /* ty=Tensor[(1, 32, 8, 8), float32] */;
  %518 = multiply(%500, %501) /* ty=Tensor[(1, 32, 8, 8), bool] */;
  %519 = cast(%517, dtype="int8") /* ty=Tensor[(1, 32, 8, 8), int8] */;
  %520 = zeros(shape=[1, 32, 8, 8], dtype="int8") /* ty=Tensor[(1, 32, 8, 8), int8] */;
  %521 = where(%518, %519, %520) /* ty=Tensor[(1, 32, 8, 8), int8] */;
  %522 = cast(%521, dtype="int32") /* ty=Tensor[(1, 32, 8, 8), int32] */;
  %523 = greater_equal(%96, -128 /* ty=int32 */) /* ty=Tensor[(1, 96, 8, 8), bool] */;
  %524 = less_equal(%96, 127 /* ty=int32 */) /* ty=Tensor[(1, 96, 8, 8), bool] */;
  %525 = nn.conv2d_transpose(%521, %v14_conv_2_weight, channels=96, kernel_size=[1, 1], padding=[0, 0, 0, 0], kernel_layout="IOHW", out_dtype="int32") /* ty=Tensor[(1, 96, 8, 8), int32] */;
  %526 = abs(%525) /* ty=Tensor[(1, 96, 8, 8), int32] */;
  %527 = max(%526, axis=[1], keepdims=True) /* ty=Tensor[(1, 1, 8, 8), int32] */;
  %528 = divide(%527, 127 /* ty=int32 */) /* ty=Tensor[(1, 1, 8, 8), int32] */;
  %529 = divide(%525, %528) /* ty=Tensor[(1, 96, 8, 8), int32] */;
  %530 = multiply(%523, %524) /* ty=Tensor[(1, 96, 8, 8), bool] */;
  %531 = cast(%529, dtype="int8") /* ty=Tensor[(1, 96, 8, 8), int8] */;
  %532 = zeros(shape=[1, 96, 8, 8], dtype="int8") /* ty=Tensor[(1, 96, 8, 8), int8] */;
  %533 = where(%530, %531, %532) /* ty=Tensor[(1, 96, 8, 8), int8] */;
  %534 = cast(%533, dtype="int32") /* ty=Tensor[(1, 96, 8, 8), int32] */;
  %535 = greater_equal(%94, -128 /* ty=int32 */) /* ty=Tensor[(1, 96, 8, 8), bool] */;
  %536 = less_equal(%94, 127 /* ty=int32 */) /* ty=Tensor[(1, 96, 8, 8), bool] */;
  %537 = nn.conv2d_transpose(%533, %v14_conv_1_weight, channels=96, kernel_size=[5, 5], padding=[2, 2, 2, 2], groups=96, kernel_layout="IOHW", out_dtype="int32") /* ty=Tensor[(1, 96, 8, 8), int32] */;
  %538 = abs(%537) /* ty=Tensor[(1, 96, 8, 8), int32] */;
  %539 = max(%538, axis=[1], keepdims=True) /* ty=Tensor[(1, 1, 8, 8), int32] */;
  %540 = divide(%539, 127 /* ty=int32 */) /* ty=Tensor[(1, 1, 8, 8), int32] */;
  %541 = divide(%537, %540) /* ty=Tensor[(1, 96, 8, 8), int32] */;
  %542 = multiply(%535, %536) /* ty=Tensor[(1, 96, 8, 8), bool] */;
  %543 = cast(%541, dtype="int8") /* ty=Tensor[(1, 96, 8, 8), int8] */;
  %544 = zeros(shape=[1, 96, 8, 8], dtype="int8") /* ty=Tensor[(1, 96, 8, 8), int8] */;
  %545 = where(%542, %543, %544) /* ty=Tensor[(1, 96, 8, 8), int8] */;
  %546 = cast(%545, dtype="float32") /* ty=Tensor[(1, 96, 8, 8), float32] */;
  %547 = reshape(%v14_conv_0_scale, newshape=[1, -1, 1, 1]) /* ty=Tensor[(1, 96, 1, 1), float32] */;
  %548 = multiply(%546, %547) /* ty=Tensor[(1, 96, 8, 8), float32] */;
  %549 = cast(%93, dtype="float32") /* ty=Tensor[(1, 32, 8, 8), float32] */;
  %550 = strided_slice(%549, begin=[0, 0, 0, 0], end=[1, 16, 8, 8], strides=[1], axes=None) /* ty=Tensor[(1, 16, 8, 8), float32] */;
  %551 = tile(%548, reps=[1, 16, 1, 1]) /* ty=Tensor[(1, 1536, 8, 8), float32] */;
  %552 = reshape(%550, newshape=[1, -1, 0, 0]) /* ty=Tensor[(1, 16, 8, 8), float32] */;
  %553 = reshape(%551, newshape=[-1, 1, 0, 0]) /* ty=Tensor[(1536, 1, 8, 8), float32] */;
  %554 = nn.conv2d(%552, %553, padding=[0, 0, 0, 0], groups=16) /* ty=Tensor[(1, 1536, 1, 1), float32] */;
  %555 = reshape(%554, newshape=[1, 16, 96, 1, 1]) /* ty=Tensor[(1, 16, 96, 1, 1), float32] */;
  %556 = sum(%555, axis=[0]) /* ty=Tensor[(16, 96, 1, 1), float32] */;
  %557 = greater_equal(%90, -128 /* ty=int32 */) /* ty=Tensor[(1, 32, 8, 8), bool] */;
  %558 = less_equal(%90, 127 /* ty=int32 */) /* ty=Tensor[(1, 32, 8, 8), bool] */;
  %559 = greater_equal(%92, meta[relay.Constant][10] /* ty=int8 */) /* ty=Tensor[(1, 32, 8, 8), bool] */;
  %560 = less_equal(%92, meta[relay.Constant][11] /* ty=int8 */) /* ty=Tensor[(1, 32, 8, 8), bool] */;
  %561 = cast(%v14_conv_0_weight, dtype="float32") /* ty=Tensor[(96, 32, 1, 1), float32] */;
  %562 = multiply(%559, %560) /* ty=Tensor[(1, 32, 8, 8), bool] */;
  %563 = nn.conv2d_transpose(%548, %561, channels=32, kernel_size=[1, 1], padding=[0, 0, 0, 0], kernel_layout="IOHW") /* ty=Tensor[(1, 32, 8, 8), float32] */;
  %564 = zeros(shape=[1, 32, 8, 8], dtype="float32") /* ty=Tensor[(1, 32, 8, 8), float32] */;
  %565 = where(%562, %563, %564) /* ty=Tensor[(1, 32, 8, 8), float32] */;
  %566 = reshape(%v13_qadd_scale_y, newshape=[1, -1, 1, 1]) /* ty=Tensor[(1, 1, 1, 1), float32] */;
  %567 = divide(%565, %566) /* ty=Tensor[(1, 32, 8, 8), float32] */;
  %568 = reshape(%v13_qadd_scale_x2, newshape=[1, -1, 1, 1]) /* ty=Tensor[(1, 1, 1, 1), float32] */;
  %569 = multiply(%557, %558) /* ty=Tensor[(1, 32, 8, 8), bool] */;
  %570 = multiply(%567, %568) /* ty=Tensor[(1, 32, 8, 8), float32] */;
  %571 = zeros(shape=[1, 32, 8, 8], dtype="float32") /* ty=Tensor[(1, 32, 8, 8), float32] */;
  %572 = where(%569, %570, %571) /* ty=Tensor[(1, 32, 8, 8), float32] */;
  %573 = cast(%572, dtype="int32") /* ty=Tensor[(1, 32, 8, 8), int32] */;
  %574 = greater_equal(%88, -128 /* ty=int32 */) /* ty=Tensor[(1, 96, 8, 8), bool] */;
  %575 = less_equal(%88, 127 /* ty=int32 */) /* ty=Tensor[(1, 96, 8, 8), bool] */;
  %576 = cast(%v13_conv_2_weight, dtype="float32") /* ty=Tensor[(32, 96, 1, 1), float32] */;
  %577 = nn.conv2d_transpose(%572, %576, channels=96, kernel_size=[1, 1], padding=[0, 0, 0, 0], kernel_layout="IOHW", out_dtype="float32") /* ty=Tensor[(1, 96, 8, 8), float32] */;
  %578 = abs(%577) /* ty=Tensor[(1, 96, 8, 8), float32] */;
  %579 = max(%578, axis=[1], keepdims=True) /* ty=Tensor[(1, 1, 8, 8), float32] */;
  %580 = divide(%579, 127f /* ty=float32 */) /* ty=Tensor[(1, 1, 8, 8), float32] */;
  %581 = divide(%577, %580) /* ty=Tensor[(1, 96, 8, 8), float32] */;
  %582 = multiply(%574, %575) /* ty=Tensor[(1, 96, 8, 8), bool] */;
  %583 = cast(%581, dtype="int8") /* ty=Tensor[(1, 96, 8, 8), int8] */;
  %584 = zeros(shape=[1, 96, 8, 8], dtype="int8") /* ty=Tensor[(1, 96, 8, 8), int8] */;
  %585 = where(%582, %583, %584) /* ty=Tensor[(1, 96, 8, 8), int8] */;
  %586 = cast(%585, dtype="int32") /* ty=Tensor[(1, 96, 8, 8), int32] */;
  %587 = greater_equal(%86, -128 /* ty=int32 */) /* ty=Tensor[(1, 96, 8, 8), bool] */;
  %588 = less_equal(%86, 127 /* ty=int32 */) /* ty=Tensor[(1, 96, 8, 8), bool] */;
  %589 = nn.conv2d_transpose(%585, %v13_conv_1_weight, channels=96, kernel_size=[5, 5], padding=[2, 2, 2, 2], groups=96, kernel_layout="IOHW", out_dtype="int32") /* ty=Tensor[(1, 96, 8, 8), int32] */;
  %590 = abs(%589) /* ty=Tensor[(1, 96, 8, 8), int32] */;
  %591 = max(%590, axis=[1], keepdims=True) /* ty=Tensor[(1, 1, 8, 8), int32] */;
  %592 = divide(%591, 127 /* ty=int32 */) /* ty=Tensor[(1, 1, 8, 8), int32] */;
  %593 = divide(%589, %592) /* ty=Tensor[(1, 96, 8, 8), int32] */;
  %594 = multiply(%587, %588) /* ty=Tensor[(1, 96, 8, 8), bool] */;
  %595 = cast(%593, dtype="int8") /* ty=Tensor[(1, 96, 8, 8), int8] */;
  %596 = zeros(shape=[1, 96, 8, 8], dtype="int8") /* ty=Tensor[(1, 96, 8, 8), int8] */;
  %597 = where(%594, %595, %596) /* ty=Tensor[(1, 96, 8, 8), int8] */;
  %598 = cast(%597, dtype="int32") /* ty=Tensor[(1, 96, 8, 8), int32] */;
  %599 = tile(%597, reps=[1, 32, 1, 1]) /* ty=Tensor[(1, 3072, 8, 8), int8] */;
  %600 = reshape(%85, newshape=[1, -1, 0, 0]) /* ty=Tensor[(1, 32, 8, 8), int8] */;
  %601 = reshape(%599, newshape=[-1, 1, 0, 0]) /* ty=Tensor[(3072, 1, 8, 8), int8] */;
  %602 = nn.conv2d(%600, %601, padding=[0, 0, 0, 0], groups=32, out_dtype="int32") /* ty=Tensor[(1, 3072, 1, 1), int32] */;
  %603 = reshape(%602, newshape=[1, 32, 96, 1, 1]) /* ty=Tensor[(1, 32, 96, 1, 1), int32] */;
  %604 = sum(%603, axis=[0]) /* ty=Tensor[(32, 96, 1, 1), int32] */;
  %605 = transpose(%604, axes=[1, 0, 2, 3]) /* ty=Tensor[(96, 32, 1, 1), int32] */;
  %606 = abs(%605) /* ty=Tensor[(96, 32, 1, 1), int32] */;
  %607 = max(%606, axis=[1], keepdims=True) /* ty=Tensor[(96, 1, 1, 1), int32] */;
  %608 = divide(%607, 127 /* ty=int32 */) /* ty=Tensor[(96, 1, 1, 1), int32] */;
  %609 = divide(%605, %608) /* ty=Tensor[(96, 32, 1, 1), int32] */;
  %610 = greater_equal(%84, -128 /* ty=int32 */) /* ty=Tensor[(1, 32, 8, 8), bool] */;
  %611 = less_equal(%84, 127 /* ty=int32 */) /* ty=Tensor[(1, 32, 8, 8), bool] */;
  %612 = nn.conv2d_transpose(%597, %v13_conv_0_weight, channels=32, kernel_size=[1, 1], padding=[0, 0, 0, 0], kernel_layout="IOHW", out_dtype="int32") /* ty=Tensor[(1, 32, 8, 8), int32] */;
  %613 = abs(%612) /* ty=Tensor[(1, 32, 8, 8), int32] */;
  %614 = max(%613, axis=[1], keepdims=True) /* ty=Tensor[(1, 1, 8, 8), int32] */;
  %615 = divide(%614, 127 /* ty=int32 */) /* ty=Tensor[(1, 1, 8, 8), int32] */;
  %616 = divide(%612, %615) /* ty=Tensor[(1, 32, 8, 8), int32] */;
  %617 = multiply(%610, %611) /* ty=Tensor[(1, 32, 8, 8), bool] */;
  %618 = cast(%616, dtype="int8") /* ty=Tensor[(1, 32, 8, 8), int8] */;
  %619 = zeros(shape=[1, 32, 8, 8], dtype="int8") /* ty=Tensor[(1, 32, 8, 8), int8] */;
  %620 = where(%617, %618, %619) /* ty=Tensor[(1, 32, 8, 8), int8] */;
  %621 = cast(%620, dtype="int32") /* ty=Tensor[(1, 32, 8, 8), int32] */;
  %622 = nn.cross_entropy_with_logits(%151, %label) /* ty=float32 */;
  %623 = sum(%165, axis=[1], exclude=True) /* ty=Tensor[(10), int32] */;
  %624 = cast(%177, dtype="int8") /* ty=Tensor[(10, 96, 1, 1), int8] */;
  %625 = sum(%194, axis=[1], exclude=True) /* ty=Tensor[(96), int32] */;
  %626 = sum(%207, axis=[1], exclude=True) /* ty=Tensor[(384), int32] */;
  %627 = sum(%219, axis=[1], exclude=True) /* ty=Tensor[(384), int32] */;
  %628 = cast(%230, dtype="int8") /* ty=Tensor[(384, 64, 1, 1), int8] */;
  %629 = sum(%253, axis=[1], exclude=True) /* ty=Tensor[(64), int32] */;
  %630 = sum(%265, axis=[1], exclude=True) /* ty=Tensor[(192), int32] */;
  %631 = sum(%277, axis=[1], exclude=True) /* ty=Tensor[(192), int32] */;
  %632 = cast(%288, dtype="int8") /* ty=Tensor[(192, 64, 1, 1), int8] */;
  %633 = sum(%311, axis=[1], exclude=True) /* ty=Tensor[(64), int32] */;
  %634 = sum(%323, axis=[1], exclude=True) /* ty=Tensor[(192), int32] */;
  %635 = sum(%337, axis=[1], exclude=True) /* ty=Tensor[(192), float32] */;
  %636 = transpose(%345, axes=[1, 0, 2, 3]) /* ty=Tensor[(192, 32, 1, 1), float32] */;
  %637 = sum(%362, axis=[1], exclude=True) /* ty=Tensor[(64), int32] */;
  %638 = sum(%375, axis=[1], exclude=True) /* ty=Tensor[(384), int32] */;
  %639 = sum(%389, axis=[1], exclude=True) /* ty=Tensor[(384), float32] */;
  %640 = transpose(%397, axes=[1, 0, 2, 3]) /* ty=Tensor[(384, 16, 1, 1), float32] */;
  %641 = sum(%405, axis=[1], exclude=True) /* ty=Tensor[(64), int32] */;
  %642 = sum(%418, axis=[1], exclude=True) /* ty=Tensor[(192), int32] */;
  %643 = sum(%430, axis=[1], exclude=True) /* ty=Tensor[(192), int32] */;
  %644 = cast(%441, dtype="int8") /* ty=Tensor[(192, 32, 1, 1), int8] */;
  %645 = sum(%464, axis=[1], exclude=True) /* ty=Tensor[(32), int32] */;
  %646 = sum(%476, axis=[1], exclude=True) /* ty=Tensor[(96), int32] */;
  %647 = sum(%488, axis=[1], exclude=True) /* ty=Tensor[(96), int32] */;
  %648 = cast(%499, dtype="int8") /* ty=Tensor[(96, 32, 1, 1), int8] */;
  %649 = sum(%522, axis=[1], exclude=True) /* ty=Tensor[(32), int32] */;
  %650 = sum(%534, axis=[1], exclude=True) /* ty=Tensor[(96), int32] */;
  %651 = sum(%548, axis=[1], exclude=True) /* ty=Tensor[(96), float32] */;
  %652 = transpose(%556, axes=[1, 0, 2, 3]) /* ty=Tensor[(96, 16, 1, 1), float32] */;
  %653 = sum(%573, axis=[1], exclude=True) /* ty=Tensor[(32), int32] */;
  %654 = sum(%586, axis=[1], exclude=True) /* ty=Tensor[(96), int32] */;
  %655 = sum(%598, axis=[1], exclude=True) /* ty=Tensor[(96), int32] */;
  %656 = cast(%609, dtype="int8") /* ty=Tensor[(96, 32, 1, 1), int8] */;
  %657 = sum(%621, axis=[1], exclude=True) /* ty=Tensor[(32), int32] */;
  (%622, %623, %624, %625, %626, %627, %628, %629, %630, %631, %632, %633, %634, %635, %636, %637, %638, %639, %640, %641, %642, %643, %644, %645, %646, %647, %648, %649, %650, %651, %652, %653, %654, %655, %656, %657)
}

