def @main(%input: Tensor[(1, 3, 128, 128), int8], %v0_weight: Tensor[(16, 3, 3, 3), int8], %v0_bias: Tensor[(16), int32], %v0_zero_x: Tensor[(1), int8], %v0_zero_y: Tensor[(1), int8], %v0_scale: Tensor[(16), float32], %v1_conv_0_weight: Tensor[(16, 1, 3, 3), int8], %v1_conv_0_bias: Tensor[(16), int32], %v1_conv_0_zero_x: Tensor[(1), int8], %v1_conv_0_zero_y: Tensor[(1), int8], %v1_conv_0_scale: Tensor[(16), float32], %v1_conv_1_weight: Tensor[(8, 16, 1, 1), int8], %v1_conv_1_bias: Tensor[(8), int32], %v1_conv_1_zero_x: Tensor[(1), int8], %v1_conv_1_zero_y: Tensor[(1), int8], %v1_conv_1_scale: Tensor[(8), float32], %v2_conv_0_weight: Tensor[(48, 8, 1, 1), int8], %v2_conv_0_bias: Tensor[(48), int32], %v2_conv_0_zero_x: Tensor[(1), int8], %v2_conv_0_zero_y: Tensor[(1), int8], %v2_conv_0_scale: Tensor[(48), float32], %v2_conv_1_weight: Tensor[(48, 1, 3, 3), int8], %v2_conv_1_bias: Tensor[(48), int32], %v2_conv_1_zero_x: Tensor[(1), int8], %v2_conv_1_zero_y: Tensor[(1), int8], %v2_conv_1_scale: Tensor[(48), float32], %v2_conv_2_weight: Tensor[(8, 48, 1, 1), int8], %v2_conv_2_bias: Tensor[(8), int32], %v2_conv_2_zero_x: Tensor[(1), int8], %v2_conv_2_zero_y: Tensor[(1), int8], %v2_conv_2_scale: Tensor[(8), float32], %v3_conv_0_weight: Tensor[(48, 8, 1, 1), int8], %v3_conv_0_bias: Tensor[(48), int32], %v3_conv_0_zero_x: Tensor[(1), int8], %v3_conv_0_zero_y: Tensor[(1), int8], %v3_conv_0_scale: Tensor[(48), float32], %v3_conv_1_weight: Tensor[(48, 1, 3, 3), int8], %v3_conv_1_bias: Tensor[(48), int32], %v3_conv_1_zero_x: Tensor[(1), int8], %v3_conv_1_zero_y: Tensor[(1), int8], %v3_conv_1_scale: Tensor[(48), float32], %v3_conv_2_weight: Tensor[(8, 48, 1, 1), int8], %v3_conv_2_bias: Tensor[(8), int32], %v3_conv_2_zero_x: Tensor[(1), int8], %v3_conv_2_zero_y: Tensor[(1), int8], %v3_conv_2_scale: Tensor[(8), float32], %v3_qadd_zero_x1: Tensor[(1), int8], %v3_qadd_zero_x2: Tensor[(1), int8], %v3_qadd_scale_x1: Tensor[(1), float32], %v3_qadd_scale_x2: Tensor[(1), float32], %v3_qadd_zero_y: Tensor[(1), int8], %v3_qadd_scale_y: Tensor[(1), float32], %v4_conv_0_weight: Tensor[(48, 8, 1, 1), int8], %v4_conv_0_bias: Tensor[(48), int32], %v4_conv_0_zero_x: Tensor[(1), int8], %v4_conv_0_zero_y: Tensor[(1), int8], %v4_conv_0_scale: Tensor[(48), float32], %v4_conv_1_weight: Tensor[(48, 1, 3, 3), int8], %v4_conv_1_bias: Tensor[(48), int32], %v4_conv_1_zero_x: Tensor[(1), int8], %v4_conv_1_zero_y: Tensor[(1), int8], %v4_conv_1_scale: Tensor[(48), float32], %v4_conv_2_weight: Tensor[(16, 48, 1, 1), int8], %v4_conv_2_bias: Tensor[(16), int32], %v4_conv_2_zero_x: Tensor[(1), int8], %v4_conv_2_zero_y: Tensor[(1), int8], %v4_conv_2_scale: Tensor[(16), float32], %v5_conv_0_weight: Tensor[(96, 16, 1, 1), int8], %v5_conv_0_bias: Tensor[(96), int32], %v5_conv_0_zero_x: Tensor[(1), int8], %v5_conv_0_zero_y: Tensor[(1), int8], %v5_conv_0_scale: Tensor[(96), float32], %v5_conv_1_weight: Tensor[(96, 1, 3, 3), int8], %v5_conv_1_bias: Tensor[(96), int32], %v5_conv_1_zero_x: Tensor[(1), int8], %v5_conv_1_zero_y: Tensor[(1), int8], %v5_conv_1_scale: Tensor[(96), float32], %v5_conv_2_weight: Tensor[(16, 96, 1, 1), int8], %v5_conv_2_bias: Tensor[(16), int32], %v5_conv_2_zero_x: Tensor[(1), int8], %v5_conv_2_zero_y: Tensor[(1), int8], %v5_conv_2_scale: Tensor[(16), float32], %v5_qadd_zero_x1: Tensor[(1), int8], %v5_qadd_zero_x2: Tensor[(1), int8], %v5_qadd_scale_x1: Tensor[(1), float32], %v5_qadd_scale_x2: Tensor[(1), float32], %v5_qadd_zero_y: Tensor[(1), int8], %v5_qadd_scale_y: Tensor[(1), float32], %v6_conv_0_weight: Tensor[(96, 16, 1, 1), int8], %v6_conv_0_bias: Tensor[(96), int32], %v6_conv_0_zero_x: Tensor[(1), int8], %v6_conv_0_zero_y: Tensor[(1), int8], %v6_conv_0_scale: Tensor[(96), float32], %v6_conv_1_weight: Tensor[(96, 1, 3, 3), int8], %v6_conv_1_bias: Tensor[(96), int32], %v6_conv_1_zero_x: Tensor[(1), int8], %v6_conv_1_zero_y: Tensor[(1), int8], %v6_conv_1_scale: Tensor[(96), float32], %v6_conv_2_weight: Tensor[(16, 96, 1, 1), int8], %v6_conv_2_bias: Tensor[(16), int32], %v6_conv_2_zero_x: Tensor[(1), int8], %v6_conv_2_zero_y: Tensor[(1), int8], %v6_conv_2_scale: Tensor[(16), float32], %v6_qadd_zero_x1: Tensor[(1), int8], %v6_qadd_zero_x2: Tensor[(1), int8], %v6_qadd_scale_x1: Tensor[(1), float32], %v6_qadd_scale_x2: Tensor[(1), float32], %v6_qadd_zero_y: Tensor[(1), int8], %v6_qadd_scale_y: Tensor[(1), float32], %v7_conv_0_weight: Tensor[(96, 16, 1, 1), int8], %v7_conv_0_bias: Tensor[(96), int32], %v7_conv_0_zero_x: Tensor[(1), int8], %v7_conv_0_zero_y: Tensor[(1), int8], %v7_conv_0_scale: Tensor[(96), float32], %v7_conv_1_weight: Tensor[(96, 1, 3, 3), int8], %v7_conv_1_bias: Tensor[(96), int32], %v7_conv_1_zero_x: Tensor[(1), int8], %v7_conv_1_zero_y: Tensor[(1), int8], %v7_conv_1_scale: Tensor[(96), float32], %v7_conv_2_weight: Tensor[(24, 96, 1, 1), int8], %v7_conv_2_bias: Tensor[(24), int32], %v7_conv_2_zero_x: Tensor[(1), int8], %v7_conv_2_zero_y: Tensor[(1), int8], %v7_conv_2_scale: Tensor[(24), float32], %v8_conv_0_weight: Tensor[(144, 24, 1, 1), int8], %v8_conv_0_bias: Tensor[(144), int32], %v8_conv_0_zero_x: Tensor[(1), int8], %v8_conv_0_zero_y: Tensor[(1), int8], %v8_conv_0_scale: Tensor[(144), float32], %v8_conv_1_weight: Tensor[(144, 1, 3, 3), int8], %v8_conv_1_bias: Tensor[(144), int32], %v8_conv_1_zero_x: Tensor[(1), int8], %v8_conv_1_zero_y: Tensor[(1), int8], %v8_conv_1_scale: Tensor[(144), float32], %v8_conv_2_weight: Tensor[(24, 144, 1, 1), int8], %v8_conv_2_bias: Tensor[(24), int32], %v8_conv_2_zero_x: Tensor[(1), int8], %v8_conv_2_zero_y: Tensor[(1), int8], %v8_conv_2_scale: Tensor[(24), float32], %v8_qadd_zero_x1: Tensor[(1), int8], %v8_qadd_zero_x2: Tensor[(1), int8], %v8_qadd_scale_x1: Tensor[(1), float32], %v8_qadd_scale_x2: Tensor[(1), float32], %v8_qadd_zero_y: Tensor[(1), int8], %v8_qadd_scale_y: Tensor[(1), float32], %v9_conv_0_weight: Tensor[(144, 24, 1, 1), int8], %v9_conv_0_bias: Tensor[(144), int32], %v9_conv_0_zero_x: Tensor[(1), int8], %v9_conv_0_zero_y: Tensor[(1), int8], %v9_conv_0_scale: Tensor[(144), float32], %v9_conv_1_weight: Tensor[(144, 1, 3, 3), int8], %v9_conv_1_bias: Tensor[(144), int32], %v9_conv_1_zero_x: Tensor[(1), int8], %v9_conv_1_zero_y: Tensor[(1), int8], %v9_conv_1_scale: Tensor[(144), float32], %v9_conv_2_weight: Tensor[(24, 144, 1, 1), int8], %v9_conv_2_bias: Tensor[(24), int32], %v9_conv_2_zero_x: Tensor[(1), int8], %v9_conv_2_zero_y: Tensor[(1), int8], %v9_conv_2_scale: Tensor[(24), float32], %v9_qadd_zero_x1: Tensor[(1), int8], %v9_qadd_zero_x2: Tensor[(1), int8], %v9_qadd_scale_x1: Tensor[(1), float32], %v9_qadd_scale_x2: Tensor[(1), float32], %v9_qadd_zero_y: Tensor[(1), int8], %v9_qadd_scale_y: Tensor[(1), float32], %v10_conv_0_weight: Tensor[(144, 24, 1, 1), int8], %v10_conv_0_bias: Tensor[(144), int32], %v10_conv_0_zero_x: Tensor[(1), int8], %v10_conv_0_zero_y: Tensor[(1), int8], %v10_conv_0_scale: Tensor[(144), float32], %v10_conv_1_weight: Tensor[(144, 1, 3, 3), int8], %v10_conv_1_bias: Tensor[(144), int32], %v10_conv_1_zero_x: Tensor[(1), int8], %v10_conv_1_zero_y: Tensor[(1), int8], %v10_conv_1_scale: Tensor[(144), float32], %v10_conv_2_weight: Tensor[(24, 144, 1, 1), int8], %v10_conv_2_bias: Tensor[(24), int32], %v10_conv_2_zero_x: Tensor[(1), int8], %v10_conv_2_zero_y: Tensor[(1), int8], %v10_conv_2_scale: Tensor[(24), float32], %v10_qadd_zero_x1: Tensor[(1), int8], %v10_qadd_zero_x2: Tensor[(1), int8], %v10_qadd_scale_x1: Tensor[(1), float32], %v10_qadd_scale_x2: Tensor[(1), float32], %v10_qadd_zero_y: Tensor[(1), int8], %v10_qadd_scale_y: Tensor[(1), float32], %v11_conv_0_weight: Tensor[(144, 24, 1, 1), int8], %v11_conv_0_bias: Tensor[(144), int32], %v11_conv_0_zero_x: Tensor[(1), int8], %v11_conv_0_zero_y: Tensor[(1), int8], %v11_conv_0_scale: Tensor[(144), float32], %v11_conv_1_weight: Tensor[(144, 1, 3, 3), int8], %v11_conv_1_bias: Tensor[(144), int32], %v11_conv_1_zero_x: Tensor[(1), int8], %v11_conv_1_zero_y: Tensor[(1), int8], %v11_conv_1_scale: Tensor[(144), float32], %v11_conv_2_weight: Tensor[(32, 144, 1, 1), int8], %v11_conv_2_bias: Tensor[(32), int32], %v11_conv_2_zero_x: Tensor[(1), int8], %v11_conv_2_zero_y: Tensor[(1), int8], %v11_conv_2_scale: Tensor[(32), float32], %v12_conv_0_weight: Tensor[(192, 32, 1, 1), int8], %v12_conv_0_bias: Tensor[(192), int32], %v12_conv_0_zero_x: Tensor[(1), int8], %v12_conv_0_zero_y: Tensor[(1), int8], %v12_conv_0_scale: Tensor[(192), float32], %v12_conv_1_weight: Tensor[(192, 1, 3, 3), int8], %v12_conv_1_bias: Tensor[(192), int32], %v12_conv_1_zero_x: Tensor[(1), int8], %v12_conv_1_zero_y: Tensor[(1), int8], %v12_conv_1_scale: Tensor[(192), float32], %v12_conv_2_weight: Tensor[(32, 192, 1, 1), int8], %v12_conv_2_bias: Tensor[(32), int32], %v12_conv_2_zero_x: Tensor[(1), int8], %v12_conv_2_zero_y: Tensor[(1), int8], %v12_conv_2_scale: Tensor[(32), float32], %v12_qadd_zero_x1: Tensor[(1), int8], %v12_qadd_zero_x2: Tensor[(1), int8], %v12_qadd_scale_x1: Tensor[(1), float32], %v12_qadd_scale_x2: Tensor[(1), float32], %v12_qadd_zero_y: Tensor[(1), int8], %v12_qadd_scale_y: Tensor[(1), float32], %v13_conv_0_weight: Tensor[(192, 32, 1, 1), int8], %v13_conv_0_bias: Tensor[(192), int32], %v13_conv_0_zero_x: Tensor[(1), int8], %v13_conv_0_zero_y: Tensor[(1), int8], %v13_conv_0_scale: Tensor[(192), float32], %v13_conv_1_weight: Tensor[(192, 1, 3, 3), int8], %v13_conv_1_bias: Tensor[(192), int32], %v13_conv_1_zero_x: Tensor[(1), int8], %v13_conv_1_zero_y: Tensor[(1), int8], %v13_conv_1_scale: Tensor[(192), float32], %v13_conv_2_weight: Tensor[(32, 192, 1, 1), int8], %v13_conv_2_bias: Tensor[(32), int32], %v13_conv_2_zero_x: Tensor[(1), int8], %v13_conv_2_zero_y: Tensor[(1), int8], %v13_conv_2_scale: Tensor[(32), float32], %v13_qadd_zero_x1: Tensor[(1), int8], %v13_qadd_zero_x2: Tensor[(1), int8], %v13_qadd_scale_x1: Tensor[(1), float32], %v13_qadd_scale_x2: Tensor[(1), float32], %v13_qadd_zero_y: Tensor[(1), int8], %v13_qadd_scale_y: Tensor[(1), float32], %v14_conv_0_weight: Tensor[(192, 32, 1, 1), int8], %v14_conv_0_bias: Tensor[(192), int32], %v14_conv_0_zero_x: Tensor[(1), int8], %v14_conv_0_zero_y: Tensor[(1), int8], %v14_conv_0_scale: Tensor[(192), float32], %v14_conv_1_weight: Tensor[(192, 1, 3, 3), int8], %v14_conv_1_bias: Tensor[(192), int32], %v14_conv_1_zero_x: Tensor[(1), int8], %v14_conv_1_zero_y: Tensor[(1), int8], %v14_conv_1_scale: Tensor[(192), float32], %v14_conv_2_weight: Tensor[(56, 192, 1, 1), int8], %v14_conv_2_bias: Tensor[(56), int32], %v14_conv_2_zero_x: Tensor[(1), int8], %v14_conv_2_zero_y: Tensor[(1), int8], %v14_conv_2_scale: Tensor[(56), float32], %v15_conv_0_weight: Tensor[(336, 56, 1, 1), int8], %v15_conv_0_bias: Tensor[(336), int32], %v15_conv_0_zero_x: Tensor[(1), int8], %v15_conv_0_zero_y: Tensor[(1), int8], %v15_conv_0_scale: Tensor[(336), float32], %v15_conv_1_weight: Tensor[(336, 1, 3, 3), int8], %v15_conv_1_bias: Tensor[(336), int32], %v15_conv_1_zero_x: Tensor[(1), int8], %v15_conv_1_zero_y: Tensor[(1), int8], %v15_conv_1_scale: Tensor[(336), float32], %v15_conv_2_weight: Tensor[(56, 336, 1, 1), int8], %v15_conv_2_bias: Tensor[(56), int32], %v15_conv_2_zero_x: Tensor[(1), int8], %v15_conv_2_zero_y: Tensor[(1), int8], %v15_conv_2_scale: Tensor[(56), float32], %v15_qadd_zero_x1: Tensor[(1), int8], %v15_qadd_zero_x2: Tensor[(1), int8], %v15_qadd_scale_x1: Tensor[(1), float32], %v15_qadd_scale_x2: Tensor[(1), float32], %v15_qadd_zero_y: Tensor[(1), int8], %v15_qadd_scale_y: Tensor[(1), float32], %v16_conv_0_weight: Tensor[(336, 56, 1, 1), int8], %v16_conv_0_bias: Tensor[(336), int32], %v16_conv_0_zero_x: Tensor[(1), int8], %v16_conv_0_zero_y: Tensor[(1), int8], %v16_conv_0_scale: Tensor[(336), float32], %v16_conv_1_weight: Tensor[(336, 1, 3, 3), int8], %v16_conv_1_bias: Tensor[(336), int32], %v16_conv_1_zero_x: Tensor[(1), int8], %v16_conv_1_zero_y: Tensor[(1), int8], %v16_conv_1_scale: Tensor[(336), float32], %v16_conv_2_weight: Tensor[(56, 336, 1, 1), int8], %v16_conv_2_bias: Tensor[(56), int32], %v16_conv_2_zero_x: Tensor[(1), int8], %v16_conv_2_zero_y: Tensor[(1), int8], %v16_conv_2_scale: Tensor[(56), float32], %v16_qadd_zero_x1: Tensor[(1), int8], %v16_qadd_zero_x2: Tensor[(1), int8], %v16_qadd_scale_x1: Tensor[(1), float32], %v16_qadd_scale_x2: Tensor[(1), float32], %v16_qadd_zero_y: Tensor[(1), int8], %v16_qadd_scale_y: Tensor[(1), float32], %v17_conv_0_weight: Tensor[(336, 56, 1, 1), int8], %v17_conv_0_bias: Tensor[(336), int32], %v17_conv_0_zero_x: Tensor[(1), int8], %v17_conv_0_zero_y: Tensor[(1), int8], %v17_conv_0_scale: Tensor[(336), float32], %v17_conv_1_weight: Tensor[(336, 1, 3, 3), int8], %v17_conv_1_bias: Tensor[(336), int32], %v17_conv_1_zero_x: Tensor[(1), int8], %v17_conv_1_zero_y: Tensor[(1), int8], %v17_conv_1_scale: Tensor[(336), float32], %v17_conv_2_weight: Tensor[(112, 336, 1, 1), int8], %v17_conv_2_bias: Tensor[(112), int32], %v17_conv_2_zero_x: Tensor[(1), int8], %v17_conv_2_zero_y: Tensor[(1), int8], %v17_conv_2_scale: Tensor[(112), float32], %v18_weight: Tensor[(10, 112, 1, 1), int8], %v18_bias: Tensor[(10), int32], %v18_zero_x: Tensor[(1), int8], %v18_zero_y: Tensor[(1), int8], %v18_scale: Tensor[(10), float32], %label: Tensor[(1, 10), float32]) -> (float32, Tensor[(10), int32], Tensor[(10, 112, 1, 1), int8], Tensor[(112), int32], Tensor[(336), int32], Tensor[(336), int32], Tensor[(336, 56, 1, 1), int8], Tensor[(56), int32], Tensor[(336), int32], Tensor[(336), float32], Tensor[(336, 28, 1, 1), float32], Tensor[(56), int32], Tensor[(336), int32], Tensor[(336), float32], Tensor[(336, 7, 1, 1), float32], Tensor[(56), int32], Tensor[(192), int32], Tensor[(192), int32], Tensor[(192, 32, 1, 1), int8], Tensor[(32), int32], Tensor[(192), int32], Tensor[(192), int32], Tensor[(192, 32, 1, 1), int8], Tensor[(32), int32], Tensor[(192), int32], Tensor[(192), int32], Tensor[(192, 32, 1, 1), int8], Tensor[(32), int32], Tensor[(144), int32], Tensor[(144), int32], Tensor[(144, 24, 1, 1), int8], Tensor[(24), int32], Tensor[(144), int32], Tensor[(144), int32], Tensor[(144, 24, 1, 1), int8], Tensor[(24), int32]) {
  %0 = nn.mcuconv2d(%input, %v0_weight, %v0_bias, %v0_zero_x, %v0_zero_y, %v0_scale, strides=[2, 2], padding=[1, 1, 1, 1]) /* ty=Tensor[(1, 16, 64, 64), int32] */;
  %1 = nn.mcutruncate(%0) /* ty=Tensor[(1, 16, 64, 64), int8] */;
  %2 = nn.mcuconv2d(%1, %v1_conv_0_weight, %v1_conv_0_bias, %v1_conv_0_zero_x, %v1_conv_0_zero_y, %v1_conv_0_scale, padding=[1, 1, 1, 1], groups=16) /* ty=Tensor[(1, 16, 64, 64), int32] */;
  %3 = nn.mcutruncate(%2) /* ty=Tensor[(1, 16, 64, 64), int8] */;
  %4 = nn.mcuconv2d(%3, %v1_conv_1_weight, %v1_conv_1_bias, %v1_conv_1_zero_x, %v1_conv_1_zero_y, %v1_conv_1_scale, padding=[0, 0, 0, 0]) /* ty=Tensor[(1, 8, 64, 64), int32] */;
  %5 = nn.mcutruncate(%4) /* ty=Tensor[(1, 8, 64, 64), int8] */;
  %6 = nn.mcuconv2d(%5, %v2_conv_0_weight, %v2_conv_0_bias, %v2_conv_0_zero_x, %v2_conv_0_zero_y, %v2_conv_0_scale, padding=[0, 0, 0, 0]) /* ty=Tensor[(1, 48, 64, 64), int32] */;
  %7 = nn.mcutruncate(%6) /* ty=Tensor[(1, 48, 64, 64), int8] */;
  %8 = nn.mcuconv2d(%7, %v2_conv_1_weight, %v2_conv_1_bias, %v2_conv_1_zero_x, %v2_conv_1_zero_y, %v2_conv_1_scale, strides=[2, 2], padding=[1, 1, 1, 1], groups=48) /* ty=Tensor[(1, 48, 32, 32), int32] */;
  %9 = nn.mcutruncate(%8) /* ty=Tensor[(1, 48, 32, 32), int8] */;
  %10 = nn.mcuconv2d(%9, %v2_conv_2_weight, %v2_conv_2_bias, %v2_conv_2_zero_x, %v2_conv_2_zero_y, %v2_conv_2_scale, padding=[0, 0, 0, 0]) /* ty=Tensor[(1, 8, 32, 32), int32] */;
  %11 = nn.mcutruncate(%10) /* ty=Tensor[(1, 8, 32, 32), int8] */;
  %12 = nn.mcuconv2d(%11, %v3_conv_0_weight, %v3_conv_0_bias, %v3_conv_0_zero_x, %v3_conv_0_zero_y, %v3_conv_0_scale, padding=[0, 0, 0, 0]) /* ty=Tensor[(1, 48, 32, 32), int32] */;
  %13 = nn.mcutruncate(%12) /* ty=Tensor[(1, 48, 32, 32), int8] */;
  %14 = nn.mcuconv2d(%13, %v3_conv_1_weight, %v3_conv_1_bias, %v3_conv_1_zero_x, %v3_conv_1_zero_y, %v3_conv_1_scale, padding=[1, 1, 1, 1], groups=48) /* ty=Tensor[(1, 48, 32, 32), int32] */;
  %15 = nn.mcutruncate(%14) /* ty=Tensor[(1, 48, 32, 32), int8] */;
  %16 = nn.mcuconv2d(%15, %v3_conv_2_weight, %v3_conv_2_bias, %v3_conv_2_zero_x, %v3_conv_2_zero_y, %v3_conv_2_scale, padding=[0, 0, 0, 0]) /* ty=Tensor[(1, 8, 32, 32), int32] */;
  %17 = nn.mcutruncate(%16) /* ty=Tensor[(1, 8, 32, 32), int8] */;
  %18 = nn.mcuadd(%11, %17, %v3_qadd_zero_x1, %v3_qadd_zero_x2, %v3_qadd_scale_x1, %v3_qadd_scale_x2, %v3_qadd_zero_y, %v3_qadd_scale_y, axis=0) /* ty=Tensor[(1, 8, 32, 32), int8] */;
  %19 = nn.mcutruncate(%18) /* ty=Tensor[(1, 8, 32, 32), int8] */;
  %20 = nn.mcuconv2d(%19, %v4_conv_0_weight, %v4_conv_0_bias, %v4_conv_0_zero_x, %v4_conv_0_zero_y, %v4_conv_0_scale, padding=[0, 0, 0, 0]) /* ty=Tensor[(1, 48, 32, 32), int32] */;
  %21 = nn.mcutruncate(%20) /* ty=Tensor[(1, 48, 32, 32), int8] */;
  %22 = nn.mcuconv2d(%21, %v4_conv_1_weight, %v4_conv_1_bias, %v4_conv_1_zero_x, %v4_conv_1_zero_y, %v4_conv_1_scale, strides=[2, 2], padding=[1, 1, 1, 1], groups=48) /* ty=Tensor[(1, 48, 16, 16), int32] */;
  %23 = nn.mcutruncate(%22) /* ty=Tensor[(1, 48, 16, 16), int8] */;
  %24 = nn.mcuconv2d(%23, %v4_conv_2_weight, %v4_conv_2_bias, %v4_conv_2_zero_x, %v4_conv_2_zero_y, %v4_conv_2_scale, padding=[0, 0, 0, 0]) /* ty=Tensor[(1, 16, 16, 16), int32] */;
  %25 = nn.mcutruncate(%24) /* ty=Tensor[(1, 16, 16, 16), int8] */;
  %26 = nn.mcuconv2d(%25, %v5_conv_0_weight, %v5_conv_0_bias, %v5_conv_0_zero_x, %v5_conv_0_zero_y, %v5_conv_0_scale, padding=[0, 0, 0, 0]) /* ty=Tensor[(1, 96, 16, 16), int32] */;
  %27 = nn.mcutruncate(%26) /* ty=Tensor[(1, 96, 16, 16), int8] */;
  %28 = nn.mcuconv2d(%27, %v5_conv_1_weight, %v5_conv_1_bias, %v5_conv_1_zero_x, %v5_conv_1_zero_y, %v5_conv_1_scale, padding=[1, 1, 1, 1], groups=96) /* ty=Tensor[(1, 96, 16, 16), int32] */;
  %29 = nn.mcutruncate(%28) /* ty=Tensor[(1, 96, 16, 16), int8] */;
  %30 = nn.mcuconv2d(%29, %v5_conv_2_weight, %v5_conv_2_bias, %v5_conv_2_zero_x, %v5_conv_2_zero_y, %v5_conv_2_scale, padding=[0, 0, 0, 0]) /* ty=Tensor[(1, 16, 16, 16), int32] */;
  %31 = nn.mcutruncate(%30) /* ty=Tensor[(1, 16, 16, 16), int8] */;
  %32 = nn.mcuadd(%25, %31, %v5_qadd_zero_x1, %v5_qadd_zero_x2, %v5_qadd_scale_x1, %v5_qadd_scale_x2, %v5_qadd_zero_y, %v5_qadd_scale_y, axis=0) /* ty=Tensor[(1, 16, 16, 16), int8] */;
  %33 = nn.mcutruncate(%32) /* ty=Tensor[(1, 16, 16, 16), int8] */;
  %34 = nn.mcuconv2d(%33, %v6_conv_0_weight, %v6_conv_0_bias, %v6_conv_0_zero_x, %v6_conv_0_zero_y, %v6_conv_0_scale, padding=[0, 0, 0, 0]) /* ty=Tensor[(1, 96, 16, 16), int32] */;
  %35 = nn.mcutruncate(%34) /* ty=Tensor[(1, 96, 16, 16), int8] */;
  %36 = nn.mcuconv2d(%35, %v6_conv_1_weight, %v6_conv_1_bias, %v6_conv_1_zero_x, %v6_conv_1_zero_y, %v6_conv_1_scale, padding=[1, 1, 1, 1], groups=96) /* ty=Tensor[(1, 96, 16, 16), int32] */;
  %37 = nn.mcutruncate(%36) /* ty=Tensor[(1, 96, 16, 16), int8] */;
  %38 = nn.mcuconv2d(%37, %v6_conv_2_weight, %v6_conv_2_bias, %v6_conv_2_zero_x, %v6_conv_2_zero_y, %v6_conv_2_scale, padding=[0, 0, 0, 0]) /* ty=Tensor[(1, 16, 16, 16), int32] */;
  %39 = nn.mcutruncate(%38) /* ty=Tensor[(1, 16, 16, 16), int8] */;
  %40 = nn.mcuadd(%33, %39, %v6_qadd_zero_x1, %v6_qadd_zero_x2, %v6_qadd_scale_x1, %v6_qadd_scale_x2, %v6_qadd_zero_y, %v6_qadd_scale_y, axis=0) /* ty=Tensor[(1, 16, 16, 16), int8] */;
  %41 = nn.mcutruncate(%40) /* ty=Tensor[(1, 16, 16, 16), int8] */;
  %42 = nn.mcuconv2d(%41, %v7_conv_0_weight, %v7_conv_0_bias, %v7_conv_0_zero_x, %v7_conv_0_zero_y, %v7_conv_0_scale, padding=[0, 0, 0, 0]) /* ty=Tensor[(1, 96, 16, 16), int32] */;
  %43 = nn.mcutruncate(%42) /* ty=Tensor[(1, 96, 16, 16), int8] */;
  %44 = nn.mcuconv2d(%43, %v7_conv_1_weight, %v7_conv_1_bias, %v7_conv_1_zero_x, %v7_conv_1_zero_y, %v7_conv_1_scale, strides=[2, 2], padding=[1, 1, 1, 1], groups=96) /* ty=Tensor[(1, 96, 8, 8), int32] */;
  %45 = nn.mcutruncate(%44) /* ty=Tensor[(1, 96, 8, 8), int8] */;
  %46 = nn.mcuconv2d(%45, %v7_conv_2_weight, %v7_conv_2_bias, %v7_conv_2_zero_x, %v7_conv_2_zero_y, %v7_conv_2_scale, padding=[0, 0, 0, 0]) /* ty=Tensor[(1, 24, 8, 8), int32] */;
  %47 = nn.mcutruncate(%46) /* ty=Tensor[(1, 24, 8, 8), int8] */;
  %48 = nn.mcuconv2d(%47, %v8_conv_0_weight, %v8_conv_0_bias, %v8_conv_0_zero_x, %v8_conv_0_zero_y, %v8_conv_0_scale, padding=[0, 0, 0, 0]) /* ty=Tensor[(1, 144, 8, 8), int32] */;
  %49 = nn.mcutruncate(%48) /* ty=Tensor[(1, 144, 8, 8), int8] */;
  %50 = nn.mcuconv2d(%49, %v8_conv_1_weight, %v8_conv_1_bias, %v8_conv_1_zero_x, %v8_conv_1_zero_y, %v8_conv_1_scale, padding=[1, 1, 1, 1], groups=144) /* ty=Tensor[(1, 144, 8, 8), int32] */;
  %51 = nn.mcutruncate(%50) /* ty=Tensor[(1, 144, 8, 8), int8] */;
  %52 = nn.mcuconv2d(%51, %v8_conv_2_weight, %v8_conv_2_bias, %v8_conv_2_zero_x, %v8_conv_2_zero_y, %v8_conv_2_scale, padding=[0, 0, 0, 0]) /* ty=Tensor[(1, 24, 8, 8), int32] */;
  %53 = nn.mcutruncate(%52) /* ty=Tensor[(1, 24, 8, 8), int8] */;
  %54 = nn.mcuadd(%47, %53, %v8_qadd_zero_x1, %v8_qadd_zero_x2, %v8_qadd_scale_x1, %v8_qadd_scale_x2, %v8_qadd_zero_y, %v8_qadd_scale_y, axis=0) /* ty=Tensor[(1, 24, 8, 8), int8] */;
  %55 = nn.mcutruncate(%54) /* ty=Tensor[(1, 24, 8, 8), int8] */;
  %56 = nn.mcuconv2d(%55, %v9_conv_0_weight, %v9_conv_0_bias, %v9_conv_0_zero_x, %v9_conv_0_zero_y, %v9_conv_0_scale, padding=[0, 0, 0, 0]) /* ty=Tensor[(1, 144, 8, 8), int32] */;
  %57 = nn.mcutruncate(%56) /* ty=Tensor[(1, 144, 8, 8), int8] */;
  %58 = nn.mcuconv2d(%57, %v9_conv_1_weight, %v9_conv_1_bias, %v9_conv_1_zero_x, %v9_conv_1_zero_y, %v9_conv_1_scale, padding=[1, 1, 1, 1], groups=144) /* ty=Tensor[(1, 144, 8, 8), int32] */;
  %59 = nn.mcutruncate(%58) /* ty=Tensor[(1, 144, 8, 8), int8] */;
  %60 = nn.mcuconv2d(%59, %v9_conv_2_weight, %v9_conv_2_bias, %v9_conv_2_zero_x, %v9_conv_2_zero_y, %v9_conv_2_scale, padding=[0, 0, 0, 0]) /* ty=Tensor[(1, 24, 8, 8), int32] */;
  %61 = nn.mcutruncate(%60) /* ty=Tensor[(1, 24, 8, 8), int8] */;
  %62 = nn.mcuadd(%55, %61, %v9_qadd_zero_x1, %v9_qadd_zero_x2, %v9_qadd_scale_x1, %v9_qadd_scale_x2, %v9_qadd_zero_y, %v9_qadd_scale_y, axis=0) /* ty=Tensor[(1, 24, 8, 8), int8] */;
  %63 = nn.mcutruncate(%62) /* ty=Tensor[(1, 24, 8, 8), int8] */;
  %64 = nn.mcuconv2d(%63, %v10_conv_0_weight, %v10_conv_0_bias, %v10_conv_0_zero_x, %v10_conv_0_zero_y, %v10_conv_0_scale, padding=[0, 0, 0, 0]) /* ty=Tensor[(1, 144, 8, 8), int32] */;
  %65 = nn.mcutruncate(%64) /* ty=Tensor[(1, 144, 8, 8), int8] */;
  %66 = nn.mcuconv2d(%65, %v10_conv_1_weight, %v10_conv_1_bias, %v10_conv_1_zero_x, %v10_conv_1_zero_y, %v10_conv_1_scale, padding=[1, 1, 1, 1], groups=144) /* ty=Tensor[(1, 144, 8, 8), int32] */;
  %67 = nn.mcutruncate(%66) /* ty=Tensor[(1, 144, 8, 8), int8] */;
  %68 = nn.mcuconv2d(%67, %v10_conv_2_weight, %v10_conv_2_bias, %v10_conv_2_zero_x, %v10_conv_2_zero_y, %v10_conv_2_scale, padding=[0, 0, 0, 0]) /* ty=Tensor[(1, 24, 8, 8), int32] */;
  %69 = nn.mcutruncate(%68) /* ty=Tensor[(1, 24, 8, 8), int8] */;
  %70 = nn.mcuadd(%63, %69, %v10_qadd_zero_x1, %v10_qadd_zero_x2, %v10_qadd_scale_x1, %v10_qadd_scale_x2, %v10_qadd_zero_y, %v10_qadd_scale_y, axis=0) /* ty=Tensor[(1, 24, 8, 8), int8] */;
  %71 = nn.mcutruncate(%70) /* ty=Tensor[(1, 24, 8, 8), int8] */;
  %72 = nn.mcuconv2d(%71, %v11_conv_0_weight, %v11_conv_0_bias, %v11_conv_0_zero_x, %v11_conv_0_zero_y, %v11_conv_0_scale, padding=[0, 0, 0, 0]) /* ty=Tensor[(1, 144, 8, 8), int32] */;
  %73 = nn.mcutruncate(%72) /* ty=Tensor[(1, 144, 8, 8), int8] */;
  %74 = nn.mcuconv2d(%73, %v11_conv_1_weight, %v11_conv_1_bias, %v11_conv_1_zero_x, %v11_conv_1_zero_y, %v11_conv_1_scale, padding=[1, 1, 1, 1], groups=144) /* ty=Tensor[(1, 144, 8, 8), int32] */;
  %75 = nn.mcutruncate(%74) /* ty=Tensor[(1, 144, 8, 8), int8] */;
  %76 = nn.mcuconv2d(%75, %v11_conv_2_weight, %v11_conv_2_bias, %v11_conv_2_zero_x, %v11_conv_2_zero_y, %v11_conv_2_scale, padding=[0, 0, 0, 0]) /* ty=Tensor[(1, 32, 8, 8), int32] */;
  %77 = nn.mcutruncate(%76) /* ty=Tensor[(1, 32, 8, 8), int8] */;
  %78 = nn.mcuconv2d(%77, %v12_conv_0_weight, %v12_conv_0_bias, %v12_conv_0_zero_x, %v12_conv_0_zero_y, %v12_conv_0_scale, padding=[0, 0, 0, 0]) /* ty=Tensor[(1, 192, 8, 8), int32] */;
  %79 = nn.mcutruncate(%78) /* ty=Tensor[(1, 192, 8, 8), int8] */;
  %80 = nn.mcuconv2d(%79, %v12_conv_1_weight, %v12_conv_1_bias, %v12_conv_1_zero_x, %v12_conv_1_zero_y, %v12_conv_1_scale, padding=[1, 1, 1, 1], groups=192) /* ty=Tensor[(1, 192, 8, 8), int32] */;
  %81 = nn.mcutruncate(%80) /* ty=Tensor[(1, 192, 8, 8), int8] */;
  %82 = nn.mcuconv2d(%81, %v12_conv_2_weight, %v12_conv_2_bias, %v12_conv_2_zero_x, %v12_conv_2_zero_y, %v12_conv_2_scale, padding=[0, 0, 0, 0]) /* ty=Tensor[(1, 32, 8, 8), int32] */;
  %83 = nn.mcutruncate(%82) /* ty=Tensor[(1, 32, 8, 8), int8] */;
  %84 = nn.mcuadd(%77, %83, %v12_qadd_zero_x1, %v12_qadd_zero_x2, %v12_qadd_scale_x1, %v12_qadd_scale_x2, %v12_qadd_zero_y, %v12_qadd_scale_y, axis=0) /* ty=Tensor[(1, 32, 8, 8), int8] */;
  %85 = nn.mcutruncate(%84) /* ty=Tensor[(1, 32, 8, 8), int8] */;
  %86 = nn.mcuconv2d(%85, %v13_conv_0_weight, %v13_conv_0_bias, %v13_conv_0_zero_x, %v13_conv_0_zero_y, %v13_conv_0_scale, padding=[0, 0, 0, 0]) /* ty=Tensor[(1, 192, 8, 8), int32] */;
  %87 = nn.mcutruncate(%86) /* ty=Tensor[(1, 192, 8, 8), int8] */;
  %88 = nn.mcuconv2d(%87, %v13_conv_1_weight, %v13_conv_1_bias, %v13_conv_1_zero_x, %v13_conv_1_zero_y, %v13_conv_1_scale, padding=[1, 1, 1, 1], groups=192) /* ty=Tensor[(1, 192, 8, 8), int32] */;
  %89 = nn.mcutruncate(%88) /* ty=Tensor[(1, 192, 8, 8), int8] */;
  %90 = nn.mcuconv2d(%89, %v13_conv_2_weight, %v13_conv_2_bias, %v13_conv_2_zero_x, %v13_conv_2_zero_y, %v13_conv_2_scale, padding=[0, 0, 0, 0]) /* ty=Tensor[(1, 32, 8, 8), int32] */;
  %91 = nn.mcutruncate(%90) /* ty=Tensor[(1, 32, 8, 8), int8] */;
  %92 = nn.mcuadd(%85, %91, %v13_qadd_zero_x1, %v13_qadd_zero_x2, %v13_qadd_scale_x1, %v13_qadd_scale_x2, %v13_qadd_zero_y, %v13_qadd_scale_y, axis=0) /* ty=Tensor[(1, 32, 8, 8), int8] */;
  %93 = nn.mcutruncate(%92) /* ty=Tensor[(1, 32, 8, 8), int8] */;
  %94 = nn.mcuconv2d(%93, %v14_conv_0_weight, %v14_conv_0_bias, %v14_conv_0_zero_x, %v14_conv_0_zero_y, %v14_conv_0_scale, padding=[0, 0, 0, 0]) /* ty=Tensor[(1, 192, 8, 8), int32] */;
  %95 = nn.mcutruncate(%94) /* ty=Tensor[(1, 192, 8, 8), int8] */;
  %96 = nn.mcuconv2d(%95, %v14_conv_1_weight, %v14_conv_1_bias, %v14_conv_1_zero_x, %v14_conv_1_zero_y, %v14_conv_1_scale, strides=[2, 2], padding=[1, 1, 1, 1], groups=192) /* ty=Tensor[(1, 192, 4, 4), int32] */;
  %97 = nn.mcutruncate(%96) /* ty=Tensor[(1, 192, 4, 4), int8] */;
  %98 = nn.mcuconv2d(%97, %v14_conv_2_weight, %v14_conv_2_bias, %v14_conv_2_zero_x, %v14_conv_2_zero_y, %v14_conv_2_scale, padding=[0, 0, 0, 0]) /* ty=Tensor[(1, 56, 4, 4), int32] */;
  %99 = nn.mcutruncate(%98) /* ty=Tensor[(1, 56, 4, 4), int8] */;
  %100 = nn.mcuconv2d(%99, %v15_conv_0_weight, %v15_conv_0_bias, %v15_conv_0_zero_x, %v15_conv_0_zero_y, %v15_conv_0_scale, padding=[0, 0, 0, 0]) /* ty=Tensor[(1, 336, 4, 4), int32] */;
  %101 = nn.mcutruncate(%100) /* ty=Tensor[(1, 336, 4, 4), int8] */;
  %102 = nn.mcuconv2d(%101, %v15_conv_1_weight, %v15_conv_1_bias, %v15_conv_1_zero_x, %v15_conv_1_zero_y, %v15_conv_1_scale, padding=[1, 1, 1, 1], groups=336) /* ty=Tensor[(1, 336, 4, 4), int32] */;
  %103 = nn.mcutruncate(%102) /* ty=Tensor[(1, 336, 4, 4), int8] */;
  %104 = nn.mcuconv2d(%103, %v15_conv_2_weight, %v15_conv_2_bias, %v15_conv_2_zero_x, %v15_conv_2_zero_y, %v15_conv_2_scale, padding=[0, 0, 0, 0]) /* ty=Tensor[(1, 56, 4, 4), int32] */;
  %105 = nn.mcutruncate(%104) /* ty=Tensor[(1, 56, 4, 4), int8] */;
  %106 = nn.mcuadd(%99, %105, %v15_qadd_zero_x1, %v15_qadd_zero_x2, %v15_qadd_scale_x1, %v15_qadd_scale_x2, %v15_qadd_zero_y, %v15_qadd_scale_y, axis=0) /* ty=Tensor[(1, 56, 4, 4), int8] */;
  %107 = nn.mcutruncate(%106) /* ty=Tensor[(1, 56, 4, 4), int8] */;
  %108 = nn.mcuconv2d(%107, %v16_conv_0_weight, %v16_conv_0_bias, %v16_conv_0_zero_x, %v16_conv_0_zero_y, %v16_conv_0_scale, padding=[0, 0, 0, 0]) /* ty=Tensor[(1, 336, 4, 4), int32] */;
  %109 = nn.mcutruncate(%108) /* ty=Tensor[(1, 336, 4, 4), int8] */;
  %110 = nn.mcuconv2d(%109, %v16_conv_1_weight, %v16_conv_1_bias, %v16_conv_1_zero_x, %v16_conv_1_zero_y, %v16_conv_1_scale, padding=[1, 1, 1, 1], groups=336) /* ty=Tensor[(1, 336, 4, 4), int32] */;
  %111 = nn.mcutruncate(%110) /* ty=Tensor[(1, 336, 4, 4), int8] */;
  %112 = nn.mcuconv2d(%111, %v16_conv_2_weight, %v16_conv_2_bias, %v16_conv_2_zero_x, %v16_conv_2_zero_y, %v16_conv_2_scale, padding=[0, 0, 0, 0]) /* ty=Tensor[(1, 56, 4, 4), int32] */;
  %113 = nn.mcutruncate(%112) /* ty=Tensor[(1, 56, 4, 4), int8] */;
  %114 = nn.mcuadd(%107, %113, %v16_qadd_zero_x1, %v16_qadd_zero_x2, %v16_qadd_scale_x1, %v16_qadd_scale_x2, %v16_qadd_zero_y, %v16_qadd_scale_y, axis=0) /* ty=Tensor[(1, 56, 4, 4), int8] */;
  %115 = nn.mcutruncate(%114) /* ty=Tensor[(1, 56, 4, 4), int8] */;
  %116 = nn.mcuconv2d(%115, %v17_conv_0_weight, %v17_conv_0_bias, %v17_conv_0_zero_x, %v17_conv_0_zero_y, %v17_conv_0_scale, padding=[0, 0, 0, 0]) /* ty=Tensor[(1, 336, 4, 4), int32] */;
  %117 = nn.mcutruncate(%116) /* ty=Tensor[(1, 336, 4, 4), int8] */;
  %118 = nn.mcuconv2d(%117, %v17_conv_1_weight, %v17_conv_1_bias, %v17_conv_1_zero_x, %v17_conv_1_zero_y, %v17_conv_1_scale, padding=[1, 1, 1, 1], groups=336) /* ty=Tensor[(1, 336, 4, 4), int32] */;
  %119 = nn.mcutruncate(%118) /* ty=Tensor[(1, 336, 4, 4), int8] */;
  %120 = nn.mcuconv2d(%119, %v17_conv_2_weight, %v17_conv_2_bias, %v17_conv_2_zero_x, %v17_conv_2_zero_y, %v17_conv_2_scale, padding=[0, 0, 0, 0]) /* ty=Tensor[(1, 112, 4, 4), int32] */;
  %121 = nn.mcutruncate(%120) /* ty=Tensor[(1, 112, 4, 4), int8] */;
  %122 = mcumean(%121, axis=[2, 3], keepdims=True) /* ty=Tensor[(1, 112, 1, 1), int8] */;
  %123 = nn.mcuconv2d(%122, %v18_weight, %v18_bias, %v18_zero_x, %v18_zero_y, %v18_scale, padding=[0, 0, 0, 0]) /* ty=Tensor[(1, 10, 1, 1), int32] */;
  %124 = nn.mcutruncate(%123) /* ty=Tensor[(1, 10, 1, 1), int8] */;
  %125 = reshape(%124, newshape=[0, 0]) /* ty=Tensor[(1, 10), int8] */;
  %126 = cast(%125, dtype="float32") /* ty=Tensor[(1, 10), float32] */;
  %127 = nn.log_softmax(%126) /* ty=Tensor[(1, 10), float32] */;
  %128 = greater_equal(%123, -128 /* ty=int32 */) /* ty=Tensor[(1, 10, 1, 1), bool] */;
  %129 = less_equal(%123, 127 /* ty=int32 */) /* ty=Tensor[(1, 10, 1, 1), bool] */;
  %130 = ones(shape=[], dtype="float32") /* ty=float32 */;
  %131 = negative(%130) /* ty=float32 */;
  %132 = multiply(%131, %label) /* ty=Tensor[(1, 10), float32] */;
  %133 = sum(%132, axis=[-1], keepdims=True) /* ty=Tensor[(1, 1), float32] */;
  %134 = exp(%127) /* ty=Tensor[(1, 10), float32] */;
  %135 = multiply(%133, %134) /* ty=Tensor[(1, 10), float32] */;
  %136 = subtract(%132, %135) /* ty=Tensor[(1, 10), float32] */;
  %137 = multiply(%128, %129) /* ty=Tensor[(1, 10, 1, 1), bool] */;
  %138 = reshape(%136, newshape=[1, 10, 1, 1]) /* ty=Tensor[(1, 10, 1, 1), float32] */;
  %139 = zeros(shape=[1, 10, 1, 1], dtype="float32") /* ty=Tensor[(1, 10, 1, 1), float32] */;
  %140 = where(%137, %138, %139) /* ty=Tensor[(1, 10, 1, 1), float32] */;
  %141 = cast(%140, dtype="int32") /* ty=Tensor[(1, 10, 1, 1), int32] */;
  %142 = reshape(%122, newshape=[1, -1, 0, 0]) /* ty=Tensor[(1, 112, 1, 1), int8] */;
  %143 = tile(%140, reps=[1, 112, 1, 1]) /* ty=Tensor[(1, 1120, 1, 1), float32] */;
  %144 = cast(%142, dtype="float32") /* ty=Tensor[(1, 112, 1, 1), float32] */;
  %145 = reshape(%143, newshape=[-1, 1, 0, 0]) /* ty=Tensor[(1120, 1, 1, 1), float32] */;
  %146 = nn.conv2d(%144, %145, padding=[0, 0, 0, 0], groups=112, out_dtype="float32") /* ty=Tensor[(1, 1120, 1, 1), float32] */;
  %147 = reshape(%146, newshape=[1, 112, 10, 1, 1]) /* ty=Tensor[(1, 112, 10, 1, 1), float32] */;
  %148 = sum(%147, axis=[0]) /* ty=Tensor[(112, 10, 1, 1), float32] */;
  %149 = transpose(%148, axes=[1, 0, 2, 3]) /* ty=Tensor[(10, 112, 1, 1), float32] */;
  %150 = abs(%149) /* ty=Tensor[(10, 112, 1, 1), float32] */;
  %151 = max(%150, axis=[1], keepdims=True) /* ty=Tensor[(10, 1, 1, 1), float32] */;
  %152 = divide(%151, 127f /* ty=float32 */) /* ty=Tensor[(10, 1, 1, 1), float32] */;
  %153 = divide(%149, %152) /* ty=Tensor[(10, 112, 1, 1), float32] */;
  %154 = greater_equal(%120, -128 /* ty=int32 */) /* ty=Tensor[(1, 112, 4, 4), bool] */;
  %155 = less_equal(%120, 127 /* ty=int32 */) /* ty=Tensor[(1, 112, 4, 4), bool] */;
  %156 = cast(%v18_weight, dtype="float32") /* ty=Tensor[(10, 112, 1, 1), float32] */;
  %157 = nn.conv2d_transpose(%140, %156, channels=112, kernel_size=[1, 1], padding=[0, 0, 0, 0], kernel_layout="IOHW", out_dtype="float32") /* ty=Tensor[(1, 112, 1, 1), float32] */;
  %158 = abs(%157) /* ty=Tensor[(1, 112, 1, 1), float32] */;
  %159 = max(%158, axis=[1], keepdims=True) /* ty=Tensor[(1, 1, 1, 1), float32] */;
  %160 = divide(%159, 127f /* ty=float32 */) /* ty=Tensor[(1, 1, 1, 1), float32] */;
  %161 = divide(%157, %160) /* ty=Tensor[(1, 112, 1, 1), float32] */;
  %162 = cast(%161, dtype="int8") /* ty=Tensor[(1, 112, 1, 1), int8] */;
  %163 = cast(%162, dtype="float32") /* ty=Tensor[(1, 112, 1, 1), float32] */;
  %164 = multiply(%163, 0.0625f /* ty=float32 */) /* ty=Tensor[(1, 112, 1, 1), float32] */;
  %165 = ones(shape=[1, 112, 4, 4], dtype="float32") /* ty=Tensor[(1, 112, 4, 4), float32] */;
  %166 = multiply(%154, %155) /* ty=Tensor[(1, 112, 4, 4), bool] */;
  %167 = multiply(%164, %165) /* ty=Tensor[(1, 112, 4, 4), float32] */;
  %168 = zeros(shape=[1, 112, 4, 4], dtype="float32") /* ty=Tensor[(1, 112, 4, 4), float32] */;
  %169 = where(%166, %167, %168) /* ty=Tensor[(1, 112, 4, 4), float32] */;
  %170 = cast(%169, dtype="int32") /* ty=Tensor[(1, 112, 4, 4), int32] */;
  %171 = greater_equal(%118, -128 /* ty=int32 */) /* ty=Tensor[(1, 336, 4, 4), bool] */;
  %172 = less_equal(%118, 127 /* ty=int32 */) /* ty=Tensor[(1, 336, 4, 4), bool] */;
  %173 = cast(%v17_conv_2_weight, dtype="float32") /* ty=Tensor[(112, 336, 1, 1), float32] */;
  %174 = nn.conv2d_transpose(%169, %173, channels=336, kernel_size=[1, 1], padding=[0, 0, 0, 0], kernel_layout="IOHW", out_dtype="float32") /* ty=Tensor[(1, 336, 4, 4), float32] */;
  %175 = abs(%174) /* ty=Tensor[(1, 336, 4, 4), float32] */;
  %176 = max(%175, axis=[1], keepdims=True) /* ty=Tensor[(1, 1, 4, 4), float32] */;
  %177 = divide(%176, 127f /* ty=float32 */) /* ty=Tensor[(1, 1, 4, 4), float32] */;
  %178 = divide(%174, %177) /* ty=Tensor[(1, 336, 4, 4), float32] */;
  %179 = multiply(%171, %172) /* ty=Tensor[(1, 336, 4, 4), bool] */;
  %180 = cast(%178, dtype="int8") /* ty=Tensor[(1, 336, 4, 4), int8] */;
  %181 = zeros(shape=[1, 336, 4, 4], dtype="int8") /* ty=Tensor[(1, 336, 4, 4), int8] */;
  %182 = where(%179, %180, %181) /* ty=Tensor[(1, 336, 4, 4), int8] */;
  %183 = cast(%182, dtype="int32") /* ty=Tensor[(1, 336, 4, 4), int32] */;
  %184 = greater_equal(%116, -128 /* ty=int32 */) /* ty=Tensor[(1, 336, 4, 4), bool] */;
  %185 = less_equal(%116, 127 /* ty=int32 */) /* ty=Tensor[(1, 336, 4, 4), bool] */;
  %186 = nn.conv2d_transpose(%182, %v17_conv_1_weight, channels=336, kernel_size=[3, 3], padding=[1, 1, 1, 1], groups=336, kernel_layout="IOHW", out_dtype="int32") /* ty=Tensor[(1, 336, 4, 4), int32] */;
  %187 = abs(%186) /* ty=Tensor[(1, 336, 4, 4), int32] */;
  %188 = max(%187, axis=[1], keepdims=True) /* ty=Tensor[(1, 1, 4, 4), int32] */;
  %189 = divide(%188, 127 /* ty=int32 */) /* ty=Tensor[(1, 1, 4, 4), int32] */;
  %190 = divide(%186, %189) /* ty=Tensor[(1, 336, 4, 4), int32] */;
  %191 = multiply(%184, %185) /* ty=Tensor[(1, 336, 4, 4), bool] */;
  %192 = cast(%190, dtype="int8") /* ty=Tensor[(1, 336, 4, 4), int8] */;
  %193 = zeros(shape=[1, 336, 4, 4], dtype="int8") /* ty=Tensor[(1, 336, 4, 4), int8] */;
  %194 = where(%191, %192, %193) /* ty=Tensor[(1, 336, 4, 4), int8] */;
  %195 = cast(%194, dtype="int32") /* ty=Tensor[(1, 336, 4, 4), int32] */;
  %196 = tile(%194, reps=[1, 56, 1, 1]) /* ty=Tensor[(1, 18816, 4, 4), int8] */;
  %197 = reshape(%115, newshape=[1, -1, 0, 0]) /* ty=Tensor[(1, 56, 4, 4), int8] */;
  %198 = reshape(%196, newshape=[-1, 1, 0, 0]) /* ty=Tensor[(18816, 1, 4, 4), int8] */;
  %199 = nn.conv2d(%197, %198, padding=[0, 0, 0, 0], groups=56, out_dtype="int32") /* ty=Tensor[(1, 18816, 1, 1), int32] */;
  %200 = reshape(%199, newshape=[1, 56, 336, 1, 1]) /* ty=Tensor[(1, 56, 336, 1, 1), int32] */;
  %201 = sum(%200, axis=[0]) /* ty=Tensor[(56, 336, 1, 1), int32] */;
  %202 = transpose(%201, axes=[1, 0, 2, 3]) /* ty=Tensor[(336, 56, 1, 1), int32] */;
  %203 = abs(%202) /* ty=Tensor[(336, 56, 1, 1), int32] */;
  %204 = max(%203, axis=[1], keepdims=True) /* ty=Tensor[(336, 1, 1, 1), int32] */;
  %205 = divide(%204, 127 /* ty=int32 */) /* ty=Tensor[(336, 1, 1, 1), int32] */;
  %206 = divide(%202, %205) /* ty=Tensor[(336, 56, 1, 1), int32] */;
  %207 = greater_equal(%112, -128 /* ty=int32 */) /* ty=Tensor[(1, 56, 4, 4), bool] */;
  %208 = less_equal(%112, 127 /* ty=int32 */) /* ty=Tensor[(1, 56, 4, 4), bool] */;
  %209 = greater_equal(%114, meta[relay.Constant][0] /* ty=int8 */) /* ty=Tensor[(1, 56, 4, 4), bool] */;
  %210 = less_equal(%114, meta[relay.Constant][1] /* ty=int8 */) /* ty=Tensor[(1, 56, 4, 4), bool] */;
  %211 = nn.conv2d_transpose(%194, %v17_conv_0_weight, channels=56, kernel_size=[1, 1], padding=[0, 0, 0, 0], kernel_layout="IOHW", out_dtype="int32") /* ty=Tensor[(1, 56, 4, 4), int32] */;
  %212 = abs(%211) /* ty=Tensor[(1, 56, 4, 4), int32] */;
  %213 = max(%212, axis=[1], keepdims=True) /* ty=Tensor[(1, 1, 4, 4), int32] */;
  %214 = divide(%213, 127 /* ty=int32 */) /* ty=Tensor[(1, 1, 4, 4), int32] */;
  %215 = divide(%211, %214) /* ty=Tensor[(1, 56, 4, 4), int32] */;
  %216 = multiply(%209, %210) /* ty=Tensor[(1, 56, 4, 4), bool] */;
  %217 = cast(%215, dtype="int8") /* ty=Tensor[(1, 56, 4, 4), int8] */;
  %218 = zeros(shape=[1, 56, 4, 4], dtype="int8") /* ty=Tensor[(1, 56, 4, 4), int8] */;
  %219 = where(%216, %217, %218) /* ty=Tensor[(1, 56, 4, 4), int8] */;
  %220 = cast(%219, dtype="float32") /* ty=Tensor[(1, 56, 4, 4), float32] */;
  %221 = reshape(%v16_qadd_scale_y, newshape=[1, -1, 1, 1]) /* ty=Tensor[(1, 1, 1, 1), float32] */;
  %222 = divide(%220, %221) /* ty=Tensor[(1, 56, 4, 4), float32] */;
  %223 = reshape(%v16_qadd_scale_x2, newshape=[1, -1, 1, 1]) /* ty=Tensor[(1, 1, 1, 1), float32] */;
  %224 = multiply(%222, %223) /* ty=Tensor[(1, 56, 4, 4), float32] */;
  %225 = multiply(%207, %208) /* ty=Tensor[(1, 56, 4, 4), bool] */;
  %226 = cast(%224, dtype="int8") /* ty=Tensor[(1, 56, 4, 4), int8] */;
  %227 = zeros(shape=[1, 56, 4, 4], dtype="int8") /* ty=Tensor[(1, 56, 4, 4), int8] */;
  %228 = where(%225, %226, %227) /* ty=Tensor[(1, 56, 4, 4), int8] */;
  %229 = cast(%228, dtype="int32") /* ty=Tensor[(1, 56, 4, 4), int32] */;
  %230 = greater_equal(%110, -128 /* ty=int32 */) /* ty=Tensor[(1, 336, 4, 4), bool] */;
  %231 = less_equal(%110, 127 /* ty=int32 */) /* ty=Tensor[(1, 336, 4, 4), bool] */;
  %232 = nn.conv2d_transpose(%228, %v16_conv_2_weight, channels=336, kernel_size=[1, 1], padding=[0, 0, 0, 0], kernel_layout="IOHW", out_dtype="int32") /* ty=Tensor[(1, 336, 4, 4), int32] */;
  %233 = abs(%232) /* ty=Tensor[(1, 336, 4, 4), int32] */;
  %234 = max(%233, axis=[1], keepdims=True) /* ty=Tensor[(1, 1, 4, 4), int32] */;
  %235 = divide(%234, 127 /* ty=int32 */) /* ty=Tensor[(1, 1, 4, 4), int32] */;
  %236 = divide(%232, %235) /* ty=Tensor[(1, 336, 4, 4), int32] */;
  %237 = multiply(%230, %231) /* ty=Tensor[(1, 336, 4, 4), bool] */;
  %238 = cast(%236, dtype="int8") /* ty=Tensor[(1, 336, 4, 4), int8] */;
  %239 = zeros(shape=[1, 336, 4, 4], dtype="int8") /* ty=Tensor[(1, 336, 4, 4), int8] */;
  %240 = where(%237, %238, %239) /* ty=Tensor[(1, 336, 4, 4), int8] */;
  %241 = cast(%240, dtype="int32") /* ty=Tensor[(1, 336, 4, 4), int32] */;
  %242 = greater_equal(%108, -128 /* ty=int32 */) /* ty=Tensor[(1, 336, 4, 4), bool] */;
  %243 = less_equal(%108, 127 /* ty=int32 */) /* ty=Tensor[(1, 336, 4, 4), bool] */;
  %244 = nn.conv2d_transpose(%240, %v16_conv_1_weight, channels=336, kernel_size=[3, 3], padding=[1, 1, 1, 1], groups=336, kernel_layout="IOHW", out_dtype="int32") /* ty=Tensor[(1, 336, 4, 4), int32] */;
  %245 = abs(%244) /* ty=Tensor[(1, 336, 4, 4), int32] */;
  %246 = max(%245, axis=[1], keepdims=True) /* ty=Tensor[(1, 1, 4, 4), int32] */;
  %247 = divide(%246, 127 /* ty=int32 */) /* ty=Tensor[(1, 1, 4, 4), int32] */;
  %248 = divide(%244, %247) /* ty=Tensor[(1, 336, 4, 4), int32] */;
  %249 = multiply(%242, %243) /* ty=Tensor[(1, 336, 4, 4), bool] */;
  %250 = cast(%248, dtype="int8") /* ty=Tensor[(1, 336, 4, 4), int8] */;
  %251 = zeros(shape=[1, 336, 4, 4], dtype="int8") /* ty=Tensor[(1, 336, 4, 4), int8] */;
  %252 = where(%249, %250, %251) /* ty=Tensor[(1, 336, 4, 4), int8] */;
  %253 = cast(%252, dtype="float32") /* ty=Tensor[(1, 336, 4, 4), float32] */;
  %254 = reshape(%v16_conv_0_scale, newshape=[1, -1, 1, 1]) /* ty=Tensor[(1, 336, 1, 1), float32] */;
  %255 = multiply(%253, %254) /* ty=Tensor[(1, 336, 4, 4), float32] */;
  %256 = cast(%107, dtype="float32") /* ty=Tensor[(1, 56, 4, 4), float32] */;
  %257 = strided_slice(%256, begin=[0, 0, 0, 0], end=[1, 28, 4, 4], strides=[1], axes=None) /* ty=Tensor[(1, 28, 4, 4), float32] */;
  %258 = tile(%255, reps=[1, 28, 1, 1]) /* ty=Tensor[(1, 9408, 4, 4), float32] */;
  %259 = reshape(%257, newshape=[1, -1, 0, 0]) /* ty=Tensor[(1, 28, 4, 4), float32] */;
  %260 = reshape(%258, newshape=[-1, 1, 0, 0]) /* ty=Tensor[(9408, 1, 4, 4), float32] */;
  %261 = nn.conv2d(%259, %260, padding=[0, 0, 0, 0], groups=28) /* ty=Tensor[(1, 9408, 1, 1), float32] */;
  %262 = reshape(%261, newshape=[1, 28, 336, 1, 1]) /* ty=Tensor[(1, 28, 336, 1, 1), float32] */;
  %263 = sum(%262, axis=[0]) /* ty=Tensor[(28, 336, 1, 1), float32] */;
  %264 = greater_equal(%104, -128 /* ty=int32 */) /* ty=Tensor[(1, 56, 4, 4), bool] */;
  %265 = less_equal(%104, 127 /* ty=int32 */) /* ty=Tensor[(1, 56, 4, 4), bool] */;
  %266 = greater_equal(%106, meta[relay.Constant][2] /* ty=int8 */) /* ty=Tensor[(1, 56, 4, 4), bool] */;
  %267 = less_equal(%106, meta[relay.Constant][3] /* ty=int8 */) /* ty=Tensor[(1, 56, 4, 4), bool] */;
  %268 = cast(%v16_conv_0_weight, dtype="float32") /* ty=Tensor[(336, 56, 1, 1), float32] */;
  %269 = multiply(%266, %267) /* ty=Tensor[(1, 56, 4, 4), bool] */;
  %270 = nn.conv2d_transpose(%255, %268, channels=56, kernel_size=[1, 1], padding=[0, 0, 0, 0], kernel_layout="IOHW") /* ty=Tensor[(1, 56, 4, 4), float32] */;
  %271 = zeros(shape=[1, 56, 4, 4], dtype="float32") /* ty=Tensor[(1, 56, 4, 4), float32] */;
  %272 = where(%269, %270, %271) /* ty=Tensor[(1, 56, 4, 4), float32] */;
  %273 = reshape(%v15_qadd_scale_y, newshape=[1, -1, 1, 1]) /* ty=Tensor[(1, 1, 1, 1), float32] */;
  %274 = divide(%272, %273) /* ty=Tensor[(1, 56, 4, 4), float32] */;
  %275 = reshape(%v15_qadd_scale_x2, newshape=[1, -1, 1, 1]) /* ty=Tensor[(1, 1, 1, 1), float32] */;
  %276 = multiply(%264, %265) /* ty=Tensor[(1, 56, 4, 4), bool] */;
  %277 = multiply(%274, %275) /* ty=Tensor[(1, 56, 4, 4), float32] */;
  %278 = zeros(shape=[1, 56, 4, 4], dtype="float32") /* ty=Tensor[(1, 56, 4, 4), float32] */;
  %279 = where(%276, %277, %278) /* ty=Tensor[(1, 56, 4, 4), float32] */;
  %280 = cast(%279, dtype="int32") /* ty=Tensor[(1, 56, 4, 4), int32] */;
  %281 = greater_equal(%102, -128 /* ty=int32 */) /* ty=Tensor[(1, 336, 4, 4), bool] */;
  %282 = less_equal(%102, 127 /* ty=int32 */) /* ty=Tensor[(1, 336, 4, 4), bool] */;
  %283 = cast(%v15_conv_2_weight, dtype="float32") /* ty=Tensor[(56, 336, 1, 1), float32] */;
  %284 = nn.conv2d_transpose(%279, %283, channels=336, kernel_size=[1, 1], padding=[0, 0, 0, 0], kernel_layout="IOHW", out_dtype="float32") /* ty=Tensor[(1, 336, 4, 4), float32] */;
  %285 = abs(%284) /* ty=Tensor[(1, 336, 4, 4), float32] */;
  %286 = max(%285, axis=[1], keepdims=True) /* ty=Tensor[(1, 1, 4, 4), float32] */;
  %287 = divide(%286, 127f /* ty=float32 */) /* ty=Tensor[(1, 1, 4, 4), float32] */;
  %288 = divide(%284, %287) /* ty=Tensor[(1, 336, 4, 4), float32] */;
  %289 = multiply(%281, %282) /* ty=Tensor[(1, 336, 4, 4), bool] */;
  %290 = cast(%288, dtype="int8") /* ty=Tensor[(1, 336, 4, 4), int8] */;
  %291 = zeros(shape=[1, 336, 4, 4], dtype="int8") /* ty=Tensor[(1, 336, 4, 4), int8] */;
  %292 = where(%289, %290, %291) /* ty=Tensor[(1, 336, 4, 4), int8] */;
  %293 = cast(%292, dtype="int32") /* ty=Tensor[(1, 336, 4, 4), int32] */;
  %294 = greater_equal(%100, -128 /* ty=int32 */) /* ty=Tensor[(1, 336, 4, 4), bool] */;
  %295 = less_equal(%100, 127 /* ty=int32 */) /* ty=Tensor[(1, 336, 4, 4), bool] */;
  %296 = nn.conv2d_transpose(%292, %v15_conv_1_weight, channels=336, kernel_size=[3, 3], padding=[1, 1, 1, 1], groups=336, kernel_layout="IOHW", out_dtype="int32") /* ty=Tensor[(1, 336, 4, 4), int32] */;
  %297 = abs(%296) /* ty=Tensor[(1, 336, 4, 4), int32] */;
  %298 = max(%297, axis=[1], keepdims=True) /* ty=Tensor[(1, 1, 4, 4), int32] */;
  %299 = divide(%298, 127 /* ty=int32 */) /* ty=Tensor[(1, 1, 4, 4), int32] */;
  %300 = divide(%296, %299) /* ty=Tensor[(1, 336, 4, 4), int32] */;
  %301 = multiply(%294, %295) /* ty=Tensor[(1, 336, 4, 4), bool] */;
  %302 = cast(%300, dtype="int8") /* ty=Tensor[(1, 336, 4, 4), int8] */;
  %303 = zeros(shape=[1, 336, 4, 4], dtype="int8") /* ty=Tensor[(1, 336, 4, 4), int8] */;
  %304 = where(%301, %302, %303) /* ty=Tensor[(1, 336, 4, 4), int8] */;
  %305 = cast(%304, dtype="float32") /* ty=Tensor[(1, 336, 4, 4), float32] */;
  %306 = reshape(%v15_conv_0_scale, newshape=[1, -1, 1, 1]) /* ty=Tensor[(1, 336, 1, 1), float32] */;
  %307 = multiply(%305, %306) /* ty=Tensor[(1, 336, 4, 4), float32] */;
  %308 = cast(%99, dtype="float32") /* ty=Tensor[(1, 56, 4, 4), float32] */;
  %309 = strided_slice(%308, begin=[0, 0, 0, 0], end=[1, 7, 4, 4], strides=[1], axes=None) /* ty=Tensor[(1, 7, 4, 4), float32] */;
  %310 = tile(%307, reps=[1, 7, 1, 1]) /* ty=Tensor[(1, 2352, 4, 4), float32] */;
  %311 = reshape(%309, newshape=[1, -1, 0, 0]) /* ty=Tensor[(1, 7, 4, 4), float32] */;
  %312 = reshape(%310, newshape=[-1, 1, 0, 0]) /* ty=Tensor[(2352, 1, 4, 4), float32] */;
  %313 = nn.conv2d(%311, %312, padding=[0, 0, 0, 0], groups=7) /* ty=Tensor[(1, 2352, 1, 1), float32] */;
  %314 = reshape(%313, newshape=[1, 7, 336, 1, 1]) /* ty=Tensor[(1, 7, 336, 1, 1), float32] */;
  %315 = sum(%314, axis=[0]) /* ty=Tensor[(7, 336, 1, 1), float32] */;
  %316 = greater_equal(%98, -128 /* ty=int32 */) /* ty=Tensor[(1, 56, 4, 4), bool] */;
  %317 = less_equal(%98, 127 /* ty=int32 */) /* ty=Tensor[(1, 56, 4, 4), bool] */;
  %318 = cast(%v15_conv_0_weight, dtype="float32") /* ty=Tensor[(336, 56, 1, 1), float32] */;
  %319 = multiply(%316, %317) /* ty=Tensor[(1, 56, 4, 4), bool] */;
  %320 = nn.conv2d_transpose(%307, %318, channels=56, kernel_size=[1, 1], padding=[0, 0, 0, 0], kernel_layout="IOHW") /* ty=Tensor[(1, 56, 4, 4), float32] */;
  %321 = zeros(shape=[1, 56, 4, 4], dtype="float32") /* ty=Tensor[(1, 56, 4, 4), float32] */;
  %322 = where(%319, %320, %321) /* ty=Tensor[(1, 56, 4, 4), float32] */;
  %323 = cast(%322, dtype="int32") /* ty=Tensor[(1, 56, 4, 4), int32] */;
  %324 = greater_equal(%96, -128 /* ty=int32 */) /* ty=Tensor[(1, 192, 4, 4), bool] */;
  %325 = less_equal(%96, 127 /* ty=int32 */) /* ty=Tensor[(1, 192, 4, 4), bool] */;
  %326 = cast(%v14_conv_2_weight, dtype="float32") /* ty=Tensor[(56, 192, 1, 1), float32] */;
  %327 = nn.conv2d_transpose(%322, %326, channels=192, kernel_size=[1, 1], padding=[0, 0, 0, 0], kernel_layout="IOHW", out_dtype="float32") /* ty=Tensor[(1, 192, 4, 4), float32] */;
  %328 = abs(%327) /* ty=Tensor[(1, 192, 4, 4), float32] */;
  %329 = max(%328, axis=[1], keepdims=True) /* ty=Tensor[(1, 1, 4, 4), float32] */;
  %330 = divide(%329, 127f /* ty=float32 */) /* ty=Tensor[(1, 1, 4, 4), float32] */;
  %331 = divide(%327, %330) /* ty=Tensor[(1, 192, 4, 4), float32] */;
  %332 = multiply(%324, %325) /* ty=Tensor[(1, 192, 4, 4), bool] */;
  %333 = cast(%331, dtype="int8") /* ty=Tensor[(1, 192, 4, 4), int8] */;
  %334 = zeros(shape=[1, 192, 4, 4], dtype="int8") /* ty=Tensor[(1, 192, 4, 4), int8] */;
  %335 = where(%332, %333, %334) /* ty=Tensor[(1, 192, 4, 4), int8] */;
  %336 = cast(%335, dtype="int32") /* ty=Tensor[(1, 192, 4, 4), int32] */;
  %337 = greater_equal(%94, -128 /* ty=int32 */) /* ty=Tensor[(1, 192, 8, 8), bool] */;
  %338 = less_equal(%94, 127 /* ty=int32 */) /* ty=Tensor[(1, 192, 8, 8), bool] */;
  %339 = nn.conv2d_transpose(%335, %v14_conv_1_weight, channels=192, kernel_size=[3, 3], strides=[2, 2], output_padding=[1, 1], padding=[1, 1, 1, 1], groups=192, kernel_layout="IOHW", out_dtype="int32") /* ty=Tensor[(1, 192, 8, 8), int32] */;
  %340 = abs(%339) /* ty=Tensor[(1, 192, 8, 8), int32] */;
  %341 = max(%340, axis=[1], keepdims=True) /* ty=Tensor[(1, 1, 8, 8), int32] */;
  %342 = divide(%341, 127 /* ty=int32 */) /* ty=Tensor[(1, 1, 8, 8), int32] */;
  %343 = divide(%339, %342) /* ty=Tensor[(1, 192, 8, 8), int32] */;
  %344 = multiply(%337, %338) /* ty=Tensor[(1, 192, 8, 8), bool] */;
  %345 = cast(%343, dtype="int8") /* ty=Tensor[(1, 192, 8, 8), int8] */;
  %346 = zeros(shape=[1, 192, 8, 8], dtype="int8") /* ty=Tensor[(1, 192, 8, 8), int8] */;
  %347 = where(%344, %345, %346) /* ty=Tensor[(1, 192, 8, 8), int8] */;
  %348 = cast(%347, dtype="int32") /* ty=Tensor[(1, 192, 8, 8), int32] */;
  %349 = tile(%347, reps=[1, 32, 1, 1]) /* ty=Tensor[(1, 6144, 8, 8), int8] */;
  %350 = reshape(%93, newshape=[1, -1, 0, 0]) /* ty=Tensor[(1, 32, 8, 8), int8] */;
  %351 = reshape(%349, newshape=[-1, 1, 0, 0]) /* ty=Tensor[(6144, 1, 8, 8), int8] */;
  %352 = nn.conv2d(%350, %351, padding=[0, 0, 0, 0], groups=32, out_dtype="int32") /* ty=Tensor[(1, 6144, 1, 1), int32] */;
  %353 = reshape(%352, newshape=[1, 32, 192, 1, 1]) /* ty=Tensor[(1, 32, 192, 1, 1), int32] */;
  %354 = sum(%353, axis=[0]) /* ty=Tensor[(32, 192, 1, 1), int32] */;
  %355 = transpose(%354, axes=[1, 0, 2, 3]) /* ty=Tensor[(192, 32, 1, 1), int32] */;
  %356 = abs(%355) /* ty=Tensor[(192, 32, 1, 1), int32] */;
  %357 = max(%356, axis=[1], keepdims=True) /* ty=Tensor[(192, 1, 1, 1), int32] */;
  %358 = divide(%357, 127 /* ty=int32 */) /* ty=Tensor[(192, 1, 1, 1), int32] */;
  %359 = divide(%355, %358) /* ty=Tensor[(192, 32, 1, 1), int32] */;
  %360 = greater_equal(%90, -128 /* ty=int32 */) /* ty=Tensor[(1, 32, 8, 8), bool] */;
  %361 = less_equal(%90, 127 /* ty=int32 */) /* ty=Tensor[(1, 32, 8, 8), bool] */;
  %362 = greater_equal(%92, meta[relay.Constant][4] /* ty=int8 */) /* ty=Tensor[(1, 32, 8, 8), bool] */;
  %363 = less_equal(%92, meta[relay.Constant][5] /* ty=int8 */) /* ty=Tensor[(1, 32, 8, 8), bool] */;
  %364 = nn.conv2d_transpose(%347, %v14_conv_0_weight, channels=32, kernel_size=[1, 1], padding=[0, 0, 0, 0], kernel_layout="IOHW", out_dtype="int32") /* ty=Tensor[(1, 32, 8, 8), int32] */;
  %365 = abs(%364) /* ty=Tensor[(1, 32, 8, 8), int32] */;
  %366 = max(%365, axis=[1], keepdims=True) /* ty=Tensor[(1, 1, 8, 8), int32] */;
  %367 = divide(%366, 127 /* ty=int32 */) /* ty=Tensor[(1, 1, 8, 8), int32] */;
  %368 = divide(%364, %367) /* ty=Tensor[(1, 32, 8, 8), int32] */;
  %369 = multiply(%362, %363) /* ty=Tensor[(1, 32, 8, 8), bool] */;
  %370 = cast(%368, dtype="int8") /* ty=Tensor[(1, 32, 8, 8), int8] */;
  %371 = zeros(shape=[1, 32, 8, 8], dtype="int8") /* ty=Tensor[(1, 32, 8, 8), int8] */;
  %372 = where(%369, %370, %371) /* ty=Tensor[(1, 32, 8, 8), int8] */;
  %373 = cast(%372, dtype="float32") /* ty=Tensor[(1, 32, 8, 8), float32] */;
  %374 = reshape(%v13_qadd_scale_y, newshape=[1, -1, 1, 1]) /* ty=Tensor[(1, 1, 1, 1), float32] */;
  %375 = divide(%373, %374) /* ty=Tensor[(1, 32, 8, 8), float32] */;
  %376 = reshape(%v13_qadd_scale_x2, newshape=[1, -1, 1, 1]) /* ty=Tensor[(1, 1, 1, 1), float32] */;
  %377 = multiply(%375, %376) /* ty=Tensor[(1, 32, 8, 8), float32] */;
  %378 = multiply(%360, %361) /* ty=Tensor[(1, 32, 8, 8), bool] */;
  %379 = cast(%377, dtype="int8") /* ty=Tensor[(1, 32, 8, 8), int8] */;
  %380 = zeros(shape=[1, 32, 8, 8], dtype="int8") /* ty=Tensor[(1, 32, 8, 8), int8] */;
  %381 = where(%378, %379, %380) /* ty=Tensor[(1, 32, 8, 8), int8] */;
  %382 = cast(%381, dtype="int32") /* ty=Tensor[(1, 32, 8, 8), int32] */;
  %383 = greater_equal(%88, -128 /* ty=int32 */) /* ty=Tensor[(1, 192, 8, 8), bool] */;
  %384 = less_equal(%88, 127 /* ty=int32 */) /* ty=Tensor[(1, 192, 8, 8), bool] */;
  %385 = nn.conv2d_transpose(%381, %v13_conv_2_weight, channels=192, kernel_size=[1, 1], padding=[0, 0, 0, 0], kernel_layout="IOHW", out_dtype="int32") /* ty=Tensor[(1, 192, 8, 8), int32] */;
  %386 = abs(%385) /* ty=Tensor[(1, 192, 8, 8), int32] */;
  %387 = max(%386, axis=[1], keepdims=True) /* ty=Tensor[(1, 1, 8, 8), int32] */;
  %388 = divide(%387, 127 /* ty=int32 */) /* ty=Tensor[(1, 1, 8, 8), int32] */;
  %389 = divide(%385, %388) /* ty=Tensor[(1, 192, 8, 8), int32] */;
  %390 = multiply(%383, %384) /* ty=Tensor[(1, 192, 8, 8), bool] */;
  %391 = cast(%389, dtype="int8") /* ty=Tensor[(1, 192, 8, 8), int8] */;
  %392 = zeros(shape=[1, 192, 8, 8], dtype="int8") /* ty=Tensor[(1, 192, 8, 8), int8] */;
  %393 = where(%390, %391, %392) /* ty=Tensor[(1, 192, 8, 8), int8] */;
  %394 = cast(%393, dtype="int32") /* ty=Tensor[(1, 192, 8, 8), int32] */;
  %395 = greater_equal(%86, -128 /* ty=int32 */) /* ty=Tensor[(1, 192, 8, 8), bool] */;
  %396 = less_equal(%86, 127 /* ty=int32 */) /* ty=Tensor[(1, 192, 8, 8), bool] */;
  %397 = nn.conv2d_transpose(%393, %v13_conv_1_weight, channels=192, kernel_size=[3, 3], padding=[1, 1, 1, 1], groups=192, kernel_layout="IOHW", out_dtype="int32") /* ty=Tensor[(1, 192, 8, 8), int32] */;
  %398 = abs(%397) /* ty=Tensor[(1, 192, 8, 8), int32] */;
  %399 = max(%398, axis=[1], keepdims=True) /* ty=Tensor[(1, 1, 8, 8), int32] */;
  %400 = divide(%399, 127 /* ty=int32 */) /* ty=Tensor[(1, 1, 8, 8), int32] */;
  %401 = divide(%397, %400) /* ty=Tensor[(1, 192, 8, 8), int32] */;
  %402 = multiply(%395, %396) /* ty=Tensor[(1, 192, 8, 8), bool] */;
  %403 = cast(%401, dtype="int8") /* ty=Tensor[(1, 192, 8, 8), int8] */;
  %404 = zeros(shape=[1, 192, 8, 8], dtype="int8") /* ty=Tensor[(1, 192, 8, 8), int8] */;
  %405 = where(%402, %403, %404) /* ty=Tensor[(1, 192, 8, 8), int8] */;
  %406 = cast(%405, dtype="int32") /* ty=Tensor[(1, 192, 8, 8), int32] */;
  %407 = tile(%405, reps=[1, 32, 1, 1]) /* ty=Tensor[(1, 6144, 8, 8), int8] */;
  %408 = reshape(%85, newshape=[1, -1, 0, 0]) /* ty=Tensor[(1, 32, 8, 8), int8] */;
  %409 = reshape(%407, newshape=[-1, 1, 0, 0]) /* ty=Tensor[(6144, 1, 8, 8), int8] */;
  %410 = nn.conv2d(%408, %409, padding=[0, 0, 0, 0], groups=32, out_dtype="int32") /* ty=Tensor[(1, 6144, 1, 1), int32] */;
  %411 = reshape(%410, newshape=[1, 32, 192, 1, 1]) /* ty=Tensor[(1, 32, 192, 1, 1), int32] */;
  %412 = sum(%411, axis=[0]) /* ty=Tensor[(32, 192, 1, 1), int32] */;
  %413 = transpose(%412, axes=[1, 0, 2, 3]) /* ty=Tensor[(192, 32, 1, 1), int32] */;
  %414 = abs(%413) /* ty=Tensor[(192, 32, 1, 1), int32] */;
  %415 = max(%414, axis=[1], keepdims=True) /* ty=Tensor[(192, 1, 1, 1), int32] */;
  %416 = divide(%415, 127 /* ty=int32 */) /* ty=Tensor[(192, 1, 1, 1), int32] */;
  %417 = divide(%413, %416) /* ty=Tensor[(192, 32, 1, 1), int32] */;
  %418 = greater_equal(%82, -128 /* ty=int32 */) /* ty=Tensor[(1, 32, 8, 8), bool] */;
  %419 = less_equal(%82, 127 /* ty=int32 */) /* ty=Tensor[(1, 32, 8, 8), bool] */;
  %420 = greater_equal(%84, meta[relay.Constant][6] /* ty=int8 */) /* ty=Tensor[(1, 32, 8, 8), bool] */;
  %421 = less_equal(%84, meta[relay.Constant][7] /* ty=int8 */) /* ty=Tensor[(1, 32, 8, 8), bool] */;
  %422 = nn.conv2d_transpose(%405, %v13_conv_0_weight, channels=32, kernel_size=[1, 1], padding=[0, 0, 0, 0], kernel_layout="IOHW", out_dtype="int32") /* ty=Tensor[(1, 32, 8, 8), int32] */;
  %423 = abs(%422) /* ty=Tensor[(1, 32, 8, 8), int32] */;
  %424 = max(%423, axis=[1], keepdims=True) /* ty=Tensor[(1, 1, 8, 8), int32] */;
  %425 = divide(%424, 127 /* ty=int32 */) /* ty=Tensor[(1, 1, 8, 8), int32] */;
  %426 = divide(%422, %425) /* ty=Tensor[(1, 32, 8, 8), int32] */;
  %427 = multiply(%420, %421) /* ty=Tensor[(1, 32, 8, 8), bool] */;
  %428 = cast(%426, dtype="int8") /* ty=Tensor[(1, 32, 8, 8), int8] */;
  %429 = zeros(shape=[1, 32, 8, 8], dtype="int8") /* ty=Tensor[(1, 32, 8, 8), int8] */;
  %430 = where(%427, %428, %429) /* ty=Tensor[(1, 32, 8, 8), int8] */;
  %431 = cast(%430, dtype="float32") /* ty=Tensor[(1, 32, 8, 8), float32] */;
  %432 = reshape(%v12_qadd_scale_y, newshape=[1, -1, 1, 1]) /* ty=Tensor[(1, 1, 1, 1), float32] */;
  %433 = divide(%431, %432) /* ty=Tensor[(1, 32, 8, 8), float32] */;
  %434 = reshape(%v12_qadd_scale_x2, newshape=[1, -1, 1, 1]) /* ty=Tensor[(1, 1, 1, 1), float32] */;
  %435 = multiply(%433, %434) /* ty=Tensor[(1, 32, 8, 8), float32] */;
  %436 = multiply(%418, %419) /* ty=Tensor[(1, 32, 8, 8), bool] */;
  %437 = cast(%435, dtype="int8") /* ty=Tensor[(1, 32, 8, 8), int8] */;
  %438 = zeros(shape=[1, 32, 8, 8], dtype="int8") /* ty=Tensor[(1, 32, 8, 8), int8] */;
  %439 = where(%436, %437, %438) /* ty=Tensor[(1, 32, 8, 8), int8] */;
  %440 = cast(%439, dtype="int32") /* ty=Tensor[(1, 32, 8, 8), int32] */;
  %441 = greater_equal(%80, -128 /* ty=int32 */) /* ty=Tensor[(1, 192, 8, 8), bool] */;
  %442 = less_equal(%80, 127 /* ty=int32 */) /* ty=Tensor[(1, 192, 8, 8), bool] */;
  %443 = nn.conv2d_transpose(%439, %v12_conv_2_weight, channels=192, kernel_size=[1, 1], padding=[0, 0, 0, 0], kernel_layout="IOHW", out_dtype="int32") /* ty=Tensor[(1, 192, 8, 8), int32] */;
  %444 = abs(%443) /* ty=Tensor[(1, 192, 8, 8), int32] */;
  %445 = max(%444, axis=[1], keepdims=True) /* ty=Tensor[(1, 1, 8, 8), int32] */;
  %446 = divide(%445, 127 /* ty=int32 */) /* ty=Tensor[(1, 1, 8, 8), int32] */;
  %447 = divide(%443, %446) /* ty=Tensor[(1, 192, 8, 8), int32] */;
  %448 = multiply(%441, %442) /* ty=Tensor[(1, 192, 8, 8), bool] */;
  %449 = cast(%447, dtype="int8") /* ty=Tensor[(1, 192, 8, 8), int8] */;
  %450 = zeros(shape=[1, 192, 8, 8], dtype="int8") /* ty=Tensor[(1, 192, 8, 8), int8] */;
  %451 = where(%448, %449, %450) /* ty=Tensor[(1, 192, 8, 8), int8] */;
  %452 = cast(%451, dtype="int32") /* ty=Tensor[(1, 192, 8, 8), int32] */;
  %453 = greater_equal(%78, -128 /* ty=int32 */) /* ty=Tensor[(1, 192, 8, 8), bool] */;
  %454 = less_equal(%78, 127 /* ty=int32 */) /* ty=Tensor[(1, 192, 8, 8), bool] */;
  %455 = nn.conv2d_transpose(%451, %v12_conv_1_weight, channels=192, kernel_size=[3, 3], padding=[1, 1, 1, 1], groups=192, kernel_layout="IOHW", out_dtype="int32") /* ty=Tensor[(1, 192, 8, 8), int32] */;
  %456 = abs(%455) /* ty=Tensor[(1, 192, 8, 8), int32] */;
  %457 = max(%456, axis=[1], keepdims=True) /* ty=Tensor[(1, 1, 8, 8), int32] */;
  %458 = divide(%457, 127 /* ty=int32 */) /* ty=Tensor[(1, 1, 8, 8), int32] */;
  %459 = divide(%455, %458) /* ty=Tensor[(1, 192, 8, 8), int32] */;
  %460 = multiply(%453, %454) /* ty=Tensor[(1, 192, 8, 8), bool] */;
  %461 = cast(%459, dtype="int8") /* ty=Tensor[(1, 192, 8, 8), int8] */;
  %462 = zeros(shape=[1, 192, 8, 8], dtype="int8") /* ty=Tensor[(1, 192, 8, 8), int8] */;
  %463 = where(%460, %461, %462) /* ty=Tensor[(1, 192, 8, 8), int8] */;
  %464 = cast(%463, dtype="int32") /* ty=Tensor[(1, 192, 8, 8), int32] */;
  %465 = tile(%463, reps=[1, 32, 1, 1]) /* ty=Tensor[(1, 6144, 8, 8), int8] */;
  %466 = reshape(%77, newshape=[1, -1, 0, 0]) /* ty=Tensor[(1, 32, 8, 8), int8] */;
  %467 = reshape(%465, newshape=[-1, 1, 0, 0]) /* ty=Tensor[(6144, 1, 8, 8), int8] */;
  %468 = nn.conv2d(%466, %467, padding=[0, 0, 0, 0], groups=32, out_dtype="int32") /* ty=Tensor[(1, 6144, 1, 1), int32] */;
  %469 = reshape(%468, newshape=[1, 32, 192, 1, 1]) /* ty=Tensor[(1, 32, 192, 1, 1), int32] */;
  %470 = sum(%469, axis=[0]) /* ty=Tensor[(32, 192, 1, 1), int32] */;
  %471 = transpose(%470, axes=[1, 0, 2, 3]) /* ty=Tensor[(192, 32, 1, 1), int32] */;
  %472 = abs(%471) /* ty=Tensor[(192, 32, 1, 1), int32] */;
  %473 = max(%472, axis=[1], keepdims=True) /* ty=Tensor[(192, 1, 1, 1), int32] */;
  %474 = divide(%473, 127 /* ty=int32 */) /* ty=Tensor[(192, 1, 1, 1), int32] */;
  %475 = divide(%471, %474) /* ty=Tensor[(192, 32, 1, 1), int32] */;
  %476 = greater_equal(%76, -128 /* ty=int32 */) /* ty=Tensor[(1, 32, 8, 8), bool] */;
  %477 = less_equal(%76, 127 /* ty=int32 */) /* ty=Tensor[(1, 32, 8, 8), bool] */;
  %478 = nn.conv2d_transpose(%463, %v12_conv_0_weight, channels=32, kernel_size=[1, 1], padding=[0, 0, 0, 0], kernel_layout="IOHW", out_dtype="int32") /* ty=Tensor[(1, 32, 8, 8), int32] */;
  %479 = abs(%478) /* ty=Tensor[(1, 32, 8, 8), int32] */;
  %480 = max(%479, axis=[1], keepdims=True) /* ty=Tensor[(1, 1, 8, 8), int32] */;
  %481 = divide(%480, 127 /* ty=int32 */) /* ty=Tensor[(1, 1, 8, 8), int32] */;
  %482 = divide(%478, %481) /* ty=Tensor[(1, 32, 8, 8), int32] */;
  %483 = multiply(%476, %477) /* ty=Tensor[(1, 32, 8, 8), bool] */;
  %484 = cast(%482, dtype="int8") /* ty=Tensor[(1, 32, 8, 8), int8] */;
  %485 = zeros(shape=[1, 32, 8, 8], dtype="int8") /* ty=Tensor[(1, 32, 8, 8), int8] */;
  %486 = where(%483, %484, %485) /* ty=Tensor[(1, 32, 8, 8), int8] */;
  %487 = cast(%486, dtype="int32") /* ty=Tensor[(1, 32, 8, 8), int32] */;
  %488 = greater_equal(%74, -128 /* ty=int32 */) /* ty=Tensor[(1, 144, 8, 8), bool] */;
  %489 = less_equal(%74, 127 /* ty=int32 */) /* ty=Tensor[(1, 144, 8, 8), bool] */;
  %490 = nn.conv2d_transpose(%486, %v11_conv_2_weight, channels=144, kernel_size=[1, 1], padding=[0, 0, 0, 0], kernel_layout="IOHW", out_dtype="int32") /* ty=Tensor[(1, 144, 8, 8), int32] */;
  %491 = abs(%490) /* ty=Tensor[(1, 144, 8, 8), int32] */;
  %492 = max(%491, axis=[1], keepdims=True) /* ty=Tensor[(1, 1, 8, 8), int32] */;
  %493 = divide(%492, 127 /* ty=int32 */) /* ty=Tensor[(1, 1, 8, 8), int32] */;
  %494 = divide(%490, %493) /* ty=Tensor[(1, 144, 8, 8), int32] */;
  %495 = multiply(%488, %489) /* ty=Tensor[(1, 144, 8, 8), bool] */;
  %496 = cast(%494, dtype="int8") /* ty=Tensor[(1, 144, 8, 8), int8] */;
  %497 = zeros(shape=[1, 144, 8, 8], dtype="int8") /* ty=Tensor[(1, 144, 8, 8), int8] */;
  %498 = where(%495, %496, %497) /* ty=Tensor[(1, 144, 8, 8), int8] */;
  %499 = cast(%498, dtype="int32") /* ty=Tensor[(1, 144, 8, 8), int32] */;
  %500 = greater_equal(%72, -128 /* ty=int32 */) /* ty=Tensor[(1, 144, 8, 8), bool] */;
  %501 = less_equal(%72, 127 /* ty=int32 */) /* ty=Tensor[(1, 144, 8, 8), bool] */;
  %502 = nn.conv2d_transpose(%498, %v11_conv_1_weight, channels=144, kernel_size=[3, 3], padding=[1, 1, 1, 1], groups=144, kernel_layout="IOHW", out_dtype="int32") /* ty=Tensor[(1, 144, 8, 8), int32] */;
  %503 = abs(%502) /* ty=Tensor[(1, 144, 8, 8), int32] */;
  %504 = max(%503, axis=[1], keepdims=True) /* ty=Tensor[(1, 1, 8, 8), int32] */;
  %505 = divide(%504, 127 /* ty=int32 */) /* ty=Tensor[(1, 1, 8, 8), int32] */;
  %506 = divide(%502, %505) /* ty=Tensor[(1, 144, 8, 8), int32] */;
  %507 = multiply(%500, %501) /* ty=Tensor[(1, 144, 8, 8), bool] */;
  %508 = cast(%506, dtype="int8") /* ty=Tensor[(1, 144, 8, 8), int8] */;
  %509 = zeros(shape=[1, 144, 8, 8], dtype="int8") /* ty=Tensor[(1, 144, 8, 8), int8] */;
  %510 = where(%507, %508, %509) /* ty=Tensor[(1, 144, 8, 8), int8] */;
  %511 = cast(%510, dtype="int32") /* ty=Tensor[(1, 144, 8, 8), int32] */;
  %512 = tile(%510, reps=[1, 24, 1, 1]) /* ty=Tensor[(1, 3456, 8, 8), int8] */;
  %513 = reshape(%71, newshape=[1, -1, 0, 0]) /* ty=Tensor[(1, 24, 8, 8), int8] */;
  %514 = reshape(%512, newshape=[-1, 1, 0, 0]) /* ty=Tensor[(3456, 1, 8, 8), int8] */;
  %515 = nn.conv2d(%513, %514, padding=[0, 0, 0, 0], groups=24, out_dtype="int32") /* ty=Tensor[(1, 3456, 1, 1), int32] */;
  %516 = reshape(%515, newshape=[1, 24, 144, 1, 1]) /* ty=Tensor[(1, 24, 144, 1, 1), int32] */;
  %517 = sum(%516, axis=[0]) /* ty=Tensor[(24, 144, 1, 1), int32] */;
  %518 = transpose(%517, axes=[1, 0, 2, 3]) /* ty=Tensor[(144, 24, 1, 1), int32] */;
  %519 = abs(%518) /* ty=Tensor[(144, 24, 1, 1), int32] */;
  %520 = max(%519, axis=[1], keepdims=True) /* ty=Tensor[(144, 1, 1, 1), int32] */;
  %521 = divide(%520, 127 /* ty=int32 */) /* ty=Tensor[(144, 1, 1, 1), int32] */;
  %522 = divide(%518, %521) /* ty=Tensor[(144, 24, 1, 1), int32] */;
  %523 = greater_equal(%68, -128 /* ty=int32 */) /* ty=Tensor[(1, 24, 8, 8), bool] */;
  %524 = less_equal(%68, 127 /* ty=int32 */) /* ty=Tensor[(1, 24, 8, 8), bool] */;
  %525 = greater_equal(%70, meta[relay.Constant][8] /* ty=int8 */) /* ty=Tensor[(1, 24, 8, 8), bool] */;
  %526 = less_equal(%70, meta[relay.Constant][9] /* ty=int8 */) /* ty=Tensor[(1, 24, 8, 8), bool] */;
  %527 = nn.conv2d_transpose(%510, %v11_conv_0_weight, channels=24, kernel_size=[1, 1], padding=[0, 0, 0, 0], kernel_layout="IOHW", out_dtype="int32") /* ty=Tensor[(1, 24, 8, 8), int32] */;
  %528 = abs(%527) /* ty=Tensor[(1, 24, 8, 8), int32] */;
  %529 = max(%528, axis=[1], keepdims=True) /* ty=Tensor[(1, 1, 8, 8), int32] */;
  %530 = divide(%529, 127 /* ty=int32 */) /* ty=Tensor[(1, 1, 8, 8), int32] */;
  %531 = divide(%527, %530) /* ty=Tensor[(1, 24, 8, 8), int32] */;
  %532 = multiply(%525, %526) /* ty=Tensor[(1, 24, 8, 8), bool] */;
  %533 = cast(%531, dtype="int8") /* ty=Tensor[(1, 24, 8, 8), int8] */;
  %534 = zeros(shape=[1, 24, 8, 8], dtype="int8") /* ty=Tensor[(1, 24, 8, 8), int8] */;
  %535 = where(%532, %533, %534) /* ty=Tensor[(1, 24, 8, 8), int8] */;
  %536 = cast(%535, dtype="float32") /* ty=Tensor[(1, 24, 8, 8), float32] */;
  %537 = reshape(%v10_qadd_scale_y, newshape=[1, -1, 1, 1]) /* ty=Tensor[(1, 1, 1, 1), float32] */;
  %538 = divide(%536, %537) /* ty=Tensor[(1, 24, 8, 8), float32] */;
  %539 = reshape(%v10_qadd_scale_x2, newshape=[1, -1, 1, 1]) /* ty=Tensor[(1, 1, 1, 1), float32] */;
  %540 = multiply(%538, %539) /* ty=Tensor[(1, 24, 8, 8), float32] */;
  %541 = multiply(%523, %524) /* ty=Tensor[(1, 24, 8, 8), bool] */;
  %542 = cast(%540, dtype="int8") /* ty=Tensor[(1, 24, 8, 8), int8] */;
  %543 = zeros(shape=[1, 24, 8, 8], dtype="int8") /* ty=Tensor[(1, 24, 8, 8), int8] */;
  %544 = where(%541, %542, %543) /* ty=Tensor[(1, 24, 8, 8), int8] */;
  %545 = cast(%544, dtype="int32") /* ty=Tensor[(1, 24, 8, 8), int32] */;
  %546 = greater_equal(%66, -128 /* ty=int32 */) /* ty=Tensor[(1, 144, 8, 8), bool] */;
  %547 = less_equal(%66, 127 /* ty=int32 */) /* ty=Tensor[(1, 144, 8, 8), bool] */;
  %548 = nn.conv2d_transpose(%544, %v10_conv_2_weight, channels=144, kernel_size=[1, 1], padding=[0, 0, 0, 0], kernel_layout="IOHW", out_dtype="int32") /* ty=Tensor[(1, 144, 8, 8), int32] */;
  %549 = abs(%548) /* ty=Tensor[(1, 144, 8, 8), int32] */;
  %550 = max(%549, axis=[1], keepdims=True) /* ty=Tensor[(1, 1, 8, 8), int32] */;
  %551 = divide(%550, 127 /* ty=int32 */) /* ty=Tensor[(1, 1, 8, 8), int32] */;
  %552 = divide(%548, %551) /* ty=Tensor[(1, 144, 8, 8), int32] */;
  %553 = multiply(%546, %547) /* ty=Tensor[(1, 144, 8, 8), bool] */;
  %554 = cast(%552, dtype="int8") /* ty=Tensor[(1, 144, 8, 8), int8] */;
  %555 = zeros(shape=[1, 144, 8, 8], dtype="int8") /* ty=Tensor[(1, 144, 8, 8), int8] */;
  %556 = where(%553, %554, %555) /* ty=Tensor[(1, 144, 8, 8), int8] */;
  %557 = cast(%556, dtype="int32") /* ty=Tensor[(1, 144, 8, 8), int32] */;
  %558 = greater_equal(%64, -128 /* ty=int32 */) /* ty=Tensor[(1, 144, 8, 8), bool] */;
  %559 = less_equal(%64, 127 /* ty=int32 */) /* ty=Tensor[(1, 144, 8, 8), bool] */;
  %560 = nn.conv2d_transpose(%556, %v10_conv_1_weight, channels=144, kernel_size=[3, 3], padding=[1, 1, 1, 1], groups=144, kernel_layout="IOHW", out_dtype="int32") /* ty=Tensor[(1, 144, 8, 8), int32] */;
  %561 = abs(%560) /* ty=Tensor[(1, 144, 8, 8), int32] */;
  %562 = max(%561, axis=[1], keepdims=True) /* ty=Tensor[(1, 1, 8, 8), int32] */;
  %563 = divide(%562, 127 /* ty=int32 */) /* ty=Tensor[(1, 1, 8, 8), int32] */;
  %564 = divide(%560, %563) /* ty=Tensor[(1, 144, 8, 8), int32] */;
  %565 = multiply(%558, %559) /* ty=Tensor[(1, 144, 8, 8), bool] */;
  %566 = cast(%564, dtype="int8") /* ty=Tensor[(1, 144, 8, 8), int8] */;
  %567 = zeros(shape=[1, 144, 8, 8], dtype="int8") /* ty=Tensor[(1, 144, 8, 8), int8] */;
  %568 = where(%565, %566, %567) /* ty=Tensor[(1, 144, 8, 8), int8] */;
  %569 = cast(%568, dtype="int32") /* ty=Tensor[(1, 144, 8, 8), int32] */;
  %570 = tile(%568, reps=[1, 24, 1, 1]) /* ty=Tensor[(1, 3456, 8, 8), int8] */;
  %571 = reshape(%63, newshape=[1, -1, 0, 0]) /* ty=Tensor[(1, 24, 8, 8), int8] */;
  %572 = reshape(%570, newshape=[-1, 1, 0, 0]) /* ty=Tensor[(3456, 1, 8, 8), int8] */;
  %573 = nn.conv2d(%571, %572, padding=[0, 0, 0, 0], groups=24, out_dtype="int32") /* ty=Tensor[(1, 3456, 1, 1), int32] */;
  %574 = reshape(%573, newshape=[1, 24, 144, 1, 1]) /* ty=Tensor[(1, 24, 144, 1, 1), int32] */;
  %575 = sum(%574, axis=[0]) /* ty=Tensor[(24, 144, 1, 1), int32] */;
  %576 = transpose(%575, axes=[1, 0, 2, 3]) /* ty=Tensor[(144, 24, 1, 1), int32] */;
  %577 = abs(%576) /* ty=Tensor[(144, 24, 1, 1), int32] */;
  %578 = max(%577, axis=[1], keepdims=True) /* ty=Tensor[(144, 1, 1, 1), int32] */;
  %579 = divide(%578, 127 /* ty=int32 */) /* ty=Tensor[(144, 1, 1, 1), int32] */;
  %580 = divide(%576, %579) /* ty=Tensor[(144, 24, 1, 1), int32] */;
  %581 = greater_equal(%60, -128 /* ty=int32 */) /* ty=Tensor[(1, 24, 8, 8), bool] */;
  %582 = less_equal(%60, 127 /* ty=int32 */) /* ty=Tensor[(1, 24, 8, 8), bool] */;
  %583 = greater_equal(%62, meta[relay.Constant][10] /* ty=int8 */) /* ty=Tensor[(1, 24, 8, 8), bool] */;
  %584 = less_equal(%62, meta[relay.Constant][11] /* ty=int8 */) /* ty=Tensor[(1, 24, 8, 8), bool] */;
  %585 = nn.conv2d_transpose(%568, %v10_conv_0_weight, channels=24, kernel_size=[1, 1], padding=[0, 0, 0, 0], kernel_layout="IOHW", out_dtype="int32") /* ty=Tensor[(1, 24, 8, 8), int32] */;
  %586 = abs(%585) /* ty=Tensor[(1, 24, 8, 8), int32] */;
  %587 = max(%586, axis=[1], keepdims=True) /* ty=Tensor[(1, 1, 8, 8), int32] */;
  %588 = divide(%587, 127 /* ty=int32 */) /* ty=Tensor[(1, 1, 8, 8), int32] */;
  %589 = divide(%585, %588) /* ty=Tensor[(1, 24, 8, 8), int32] */;
  %590 = multiply(%583, %584) /* ty=Tensor[(1, 24, 8, 8), bool] */;
  %591 = cast(%589, dtype="int8") /* ty=Tensor[(1, 24, 8, 8), int8] */;
  %592 = zeros(shape=[1, 24, 8, 8], dtype="int8") /* ty=Tensor[(1, 24, 8, 8), int8] */;
  %593 = where(%590, %591, %592) /* ty=Tensor[(1, 24, 8, 8), int8] */;
  %594 = cast(%593, dtype="float32") /* ty=Tensor[(1, 24, 8, 8), float32] */;
  %595 = reshape(%v9_qadd_scale_y, newshape=[1, -1, 1, 1]) /* ty=Tensor[(1, 1, 1, 1), float32] */;
  %596 = divide(%594, %595) /* ty=Tensor[(1, 24, 8, 8), float32] */;
  %597 = reshape(%v9_qadd_scale_x2, newshape=[1, -1, 1, 1]) /* ty=Tensor[(1, 1, 1, 1), float32] */;
  %598 = multiply(%596, %597) /* ty=Tensor[(1, 24, 8, 8), float32] */;
  %599 = multiply(%581, %582) /* ty=Tensor[(1, 24, 8, 8), bool] */;
  %600 = cast(%598, dtype="int8") /* ty=Tensor[(1, 24, 8, 8), int8] */;
  %601 = zeros(shape=[1, 24, 8, 8], dtype="int8") /* ty=Tensor[(1, 24, 8, 8), int8] */;
  %602 = where(%599, %600, %601) /* ty=Tensor[(1, 24, 8, 8), int8] */;
  %603 = cast(%602, dtype="int32") /* ty=Tensor[(1, 24, 8, 8), int32] */;
  %604 = nn.cross_entropy_with_logits(%127, %label) /* ty=float32 */;
  %605 = sum(%141, axis=[1], exclude=True) /* ty=Tensor[(10), int32] */;
  %606 = cast(%153, dtype="int8") /* ty=Tensor[(10, 112, 1, 1), int8] */;
  %607 = sum(%170, axis=[1], exclude=True) /* ty=Tensor[(112), int32] */;
  %608 = sum(%183, axis=[1], exclude=True) /* ty=Tensor[(336), int32] */;
  %609 = sum(%195, axis=[1], exclude=True) /* ty=Tensor[(336), int32] */;
  %610 = cast(%206, dtype="int8") /* ty=Tensor[(336, 56, 1, 1), int8] */;
  %611 = sum(%229, axis=[1], exclude=True) /* ty=Tensor[(56), int32] */;
  %612 = sum(%241, axis=[1], exclude=True) /* ty=Tensor[(336), int32] */;
  %613 = sum(%255, axis=[1], exclude=True) /* ty=Tensor[(336), float32] */;
  %614 = transpose(%263, axes=[1, 0, 2, 3]) /* ty=Tensor[(336, 28, 1, 1), float32] */;
  %615 = sum(%280, axis=[1], exclude=True) /* ty=Tensor[(56), int32] */;
  %616 = sum(%293, axis=[1], exclude=True) /* ty=Tensor[(336), int32] */;
  %617 = sum(%307, axis=[1], exclude=True) /* ty=Tensor[(336), float32] */;
  %618 = transpose(%315, axes=[1, 0, 2, 3]) /* ty=Tensor[(336, 7, 1, 1), float32] */;
  %619 = sum(%323, axis=[1], exclude=True) /* ty=Tensor[(56), int32] */;
  %620 = sum(%336, axis=[1], exclude=True) /* ty=Tensor[(192), int32] */;
  %621 = sum(%348, axis=[1], exclude=True) /* ty=Tensor[(192), int32] */;
  %622 = cast(%359, dtype="int8") /* ty=Tensor[(192, 32, 1, 1), int8] */;
  %623 = sum(%382, axis=[1], exclude=True) /* ty=Tensor[(32), int32] */;
  %624 = sum(%394, axis=[1], exclude=True) /* ty=Tensor[(192), int32] */;
  %625 = sum(%406, axis=[1], exclude=True) /* ty=Tensor[(192), int32] */;
  %626 = cast(%417, dtype="int8") /* ty=Tensor[(192, 32, 1, 1), int8] */;
  %627 = sum(%440, axis=[1], exclude=True) /* ty=Tensor[(32), int32] */;
  %628 = sum(%452, axis=[1], exclude=True) /* ty=Tensor[(192), int32] */;
  %629 = sum(%464, axis=[1], exclude=True) /* ty=Tensor[(192), int32] */;
  %630 = cast(%475, dtype="int8") /* ty=Tensor[(192, 32, 1, 1), int8] */;
  %631 = sum(%487, axis=[1], exclude=True) /* ty=Tensor[(32), int32] */;
  %632 = sum(%499, axis=[1], exclude=True) /* ty=Tensor[(144), int32] */;
  %633 = sum(%511, axis=[1], exclude=True) /* ty=Tensor[(144), int32] */;
  %634 = cast(%522, dtype="int8") /* ty=Tensor[(144, 24, 1, 1), int8] */;
  %635 = sum(%545, axis=[1], exclude=True) /* ty=Tensor[(24), int32] */;
  %636 = sum(%557, axis=[1], exclude=True) /* ty=Tensor[(144), int32] */;
  %637 = sum(%569, axis=[1], exclude=True) /* ty=Tensor[(144), int32] */;
  %638 = cast(%580, dtype="int8") /* ty=Tensor[(144, 24, 1, 1), int8] */;
  %639 = sum(%603, axis=[1], exclude=True) /* ty=Tensor[(24), int32] */;
  (%604, %605, %606, %607, %608, %609, %610, %611, %612, %613, %614, %615, %616, %617, %618, %619, %620, %621, %622, %623, %624, %625, %626, %627, %628, %629, %630, %631, %632, %633, %634, %635, %636, %637, %638, %639)
}

