def @main(%input: Tensor[(1, 3, 128, 128), int8], %v0_weight: Tensor[(16, 3, 3, 3), int8], %v0_bias: Tensor[(16), int32], %v0_zero_x: Tensor[(1), int8], %v0_zero_y: Tensor[(1), int8], %v0_scale: Tensor[(16), float32], %v1_conv_0_weight: Tensor[(16, 1, 3, 3), int8], %v1_conv_0_bias: Tensor[(16), int32], %v1_conv_0_zero_x: Tensor[(1), int8], %v1_conv_0_zero_y: Tensor[(1), int8], %v1_conv_0_scale: Tensor[(16), float32], %v1_conv_1_weight: Tensor[(8, 16, 1, 1), int8], %v1_conv_1_bias: Tensor[(8), int32], %v1_conv_1_zero_x: Tensor[(1), int8], %v1_conv_1_zero_y: Tensor[(1), int8], %v1_conv_1_scale: Tensor[(8), float32], %v2_conv_0_weight: Tensor[(48, 8, 1, 1), int8], %v2_conv_0_bias: Tensor[(48), int32], %v2_conv_0_zero_x: Tensor[(1), int8], %v2_conv_0_zero_y: Tensor[(1), int8], %v2_conv_0_scale: Tensor[(48), float32], %v2_conv_1_weight: Tensor[(48, 1, 3, 3), int8], %v2_conv_1_bias: Tensor[(48), int32], %v2_conv_1_zero_x: Tensor[(1), int8], %v2_conv_1_zero_y: Tensor[(1), int8], %v2_conv_1_scale: Tensor[(48), float32], %v2_conv_2_weight: Tensor[(8, 48, 1, 1), int8], %v2_conv_2_bias: Tensor[(8), int32], %v2_conv_2_zero_x: Tensor[(1), int8], %v2_conv_2_zero_y: Tensor[(1), int8], %v2_conv_2_scale: Tensor[(8), float32], %v3_conv_0_weight: Tensor[(48, 8, 1, 1), int8], %v3_conv_0_bias: Tensor[(48), int32], %v3_conv_0_zero_x: Tensor[(1), int8], %v3_conv_0_zero_y: Tensor[(1), int8], %v3_conv_0_scale: Tensor[(48), float32], %v3_conv_1_weight: Tensor[(48, 1, 3, 3), int8], %v3_conv_1_bias: Tensor[(48), int32], %v3_conv_1_zero_x: Tensor[(1), int8], %v3_conv_1_zero_y: Tensor[(1), int8], %v3_conv_1_scale: Tensor[(48), float32], %v3_conv_2_weight: Tensor[(8, 48, 1, 1), int8], %v3_conv_2_bias: Tensor[(8), int32], %v3_conv_2_zero_x: Tensor[(1), int8], %v3_conv_2_zero_y: Tensor[(1), int8], %v3_conv_2_scale: Tensor[(8), float32], %v3_qadd_zero_x1: Tensor[(1), int8], %v3_qadd_zero_x2: Tensor[(1), int8], %v3_qadd_scale_x1: Tensor[(1), float32], %v3_qadd_scale_x2: Tensor[(1), float32], %v3_qadd_zero_y: Tensor[(1), int8], %v3_qadd_scale_y: Tensor[(1), float32], %v4_conv_0_weight: Tensor[(48, 8, 1, 1), int8], %v4_conv_0_bias: Tensor[(48), int32], %v4_conv_0_zero_x: Tensor[(1), int8], %v4_conv_0_zero_y: Tensor[(1), int8], %v4_conv_0_scale: Tensor[(48), float32], %v4_conv_1_weight: Tensor[(48, 1, 3, 3), int8], %v4_conv_1_bias: Tensor[(48), int32], %v4_conv_1_zero_x: Tensor[(1), int8], %v4_conv_1_zero_y: Tensor[(1), int8], %v4_conv_1_scale: Tensor[(48), float32], %v4_conv_2_weight: Tensor[(16, 48, 1, 1), int8], %v4_conv_2_bias: Tensor[(16), int32], %v4_conv_2_zero_x: Tensor[(1), int8], %v4_conv_2_zero_y: Tensor[(1), int8], %v4_conv_2_scale: Tensor[(16), float32], %v5_conv_0_weight: Tensor[(96, 16, 1, 1), int8], %v5_conv_0_bias: Tensor[(96), int32], %v5_conv_0_zero_x: Tensor[(1), int8], %v5_conv_0_zero_y: Tensor[(1), int8], %v5_conv_0_scale: Tensor[(96), float32], %v5_conv_1_weight: Tensor[(96, 1, 3, 3), int8], %v5_conv_1_bias: Tensor[(96), int32], %v5_conv_1_zero_x: Tensor[(1), int8], %v5_conv_1_zero_y: Tensor[(1), int8], %v5_conv_1_scale: Tensor[(96), float32], %v5_conv_2_weight: Tensor[(16, 96, 1, 1), int8], %v5_conv_2_bias: Tensor[(16), int32], %v5_conv_2_zero_x: Tensor[(1), int8], %v5_conv_2_zero_y: Tensor[(1), int8], %v5_conv_2_scale: Tensor[(16), float32], %v5_qadd_zero_x1: Tensor[(1), int8], %v5_qadd_zero_x2: Tensor[(1), int8], %v5_qadd_scale_x1: Tensor[(1), float32], %v5_qadd_scale_x2: Tensor[(1), float32], %v5_qadd_zero_y: Tensor[(1), int8], %v5_qadd_scale_y: Tensor[(1), float32], %v6_conv_0_weight: Tensor[(96, 16, 1, 1), int8], %v6_conv_0_bias: Tensor[(96), int32], %v6_conv_0_zero_x: Tensor[(1), int8], %v6_conv_0_zero_y: Tensor[(1), int8], %v6_conv_0_scale: Tensor[(96), float32], %v6_conv_1_weight: Tensor[(96, 1, 3, 3), int8], %v6_conv_1_bias: Tensor[(96), int32], %v6_conv_1_zero_x: Tensor[(1), int8], %v6_conv_1_zero_y: Tensor[(1), int8], %v6_conv_1_scale: Tensor[(96), float32], %v6_conv_2_weight: Tensor[(16, 96, 1, 1), int8], %v6_conv_2_bias: Tensor[(16), int32], %v6_conv_2_zero_x: Tensor[(1), int8], %v6_conv_2_zero_y: Tensor[(1), int8], %v6_conv_2_scale: Tensor[(16), float32], %v6_qadd_zero_x1: Tensor[(1), int8], %v6_qadd_zero_x2: Tensor[(1), int8], %v6_qadd_scale_x1: Tensor[(1), float32], %v6_qadd_scale_x2: Tensor[(1), float32], %v6_qadd_zero_y: Tensor[(1), int8], %v6_qadd_scale_y: Tensor[(1), float32], %v7_conv_0_weight: Tensor[(96, 16, 1, 1), int8], %v7_conv_0_bias: Tensor[(96), int32], %v7_conv_0_zero_x: Tensor[(1), int8], %v7_conv_0_zero_y: Tensor[(1), int8], %v7_conv_0_scale: Tensor[(96), float32], %v7_conv_1_weight: Tensor[(96, 1, 3, 3), int8], %v7_conv_1_bias: Tensor[(96), int32], %v7_conv_1_zero_x: Tensor[(1), int8], %v7_conv_1_zero_y: Tensor[(1), int8], %v7_conv_1_scale: Tensor[(96), float32], %v7_conv_2_weight: Tensor[(24, 96, 1, 1), int8], %v7_conv_2_bias: Tensor[(24), int32], %v7_conv_2_zero_x: Tensor[(1), int8], %v7_conv_2_zero_y: Tensor[(1), int8], %v7_conv_2_scale: Tensor[(24), float32], %v8_conv_0_weight: Tensor[(144, 24, 1, 1), int8], %v8_conv_0_bias: Tensor[(144), int32], %v8_conv_0_zero_x: Tensor[(1), int8], %v8_conv_0_zero_y: Tensor[(1), int8], %v8_conv_0_scale: Tensor[(144), float32], %v8_conv_1_weight: Tensor[(144, 1, 3, 3), int8], %v8_conv_1_bias: Tensor[(144), int32], %v8_conv_1_zero_x: Tensor[(1), int8], %v8_conv_1_zero_y: Tensor[(1), int8], %v8_conv_1_scale: Tensor[(144), float32], %v8_conv_2_weight: Tensor[(24, 144, 1, 1), int8], %v8_conv_2_bias: Tensor[(24), int32], %v8_conv_2_zero_x: Tensor[(1), int8], %v8_conv_2_zero_y: Tensor[(1), int8], %v8_conv_2_scale: Tensor[(24), float32], %v8_qadd_zero_x1: Tensor[(1), int8], %v8_qadd_zero_x2: Tensor[(1), int8], %v8_qadd_scale_x1: Tensor[(1), float32], %v8_qadd_scale_x2: Tensor[(1), float32], %v8_qadd_zero_y: Tensor[(1), int8], %v8_qadd_scale_y: Tensor[(1), float32], %v9_conv_0_weight: Tensor[(144, 24, 1, 1), int8], %v9_conv_0_bias: Tensor[(144), int32], %v9_conv_0_zero_x: Tensor[(1), int8], %v9_conv_0_zero_y: Tensor[(1), int8], %v9_conv_0_scale: Tensor[(144), float32], %v9_conv_1_weight: Tensor[(144, 1, 3, 3), int8], %v9_conv_1_bias: Tensor[(144), int32], %v9_conv_1_zero_x: Tensor[(1), int8], %v9_conv_1_zero_y: Tensor[(1), int8], %v9_conv_1_scale: Tensor[(144), float32], %v9_conv_2_weight: Tensor[(24, 144, 1, 1), int8], %v9_conv_2_bias: Tensor[(24), int32], %v9_conv_2_zero_x: Tensor[(1), int8], %v9_conv_2_zero_y: Tensor[(1), int8], %v9_conv_2_scale: Tensor[(24), float32], %v9_qadd_zero_x1: Tensor[(1), int8], %v9_qadd_zero_x2: Tensor[(1), int8], %v9_qadd_scale_x1: Tensor[(1), float32], %v9_qadd_scale_x2: Tensor[(1), float32], %v9_qadd_zero_y: Tensor[(1), int8], %v9_qadd_scale_y: Tensor[(1), float32], %v10_conv_0_weight: Tensor[(144, 24, 1, 1), int8], %v10_conv_0_bias: Tensor[(144), int32], %v10_conv_0_zero_x: Tensor[(1), int8], %v10_conv_0_zero_y: Tensor[(1), int8], %v10_conv_0_scale: Tensor[(144), float32], %v10_conv_1_weight: Tensor[(144, 1, 3, 3), int8], %v10_conv_1_bias: Tensor[(144), int32], %v10_conv_1_zero_x: Tensor[(1), int8], %v10_conv_1_zero_y: Tensor[(1), int8], %v10_conv_1_scale: Tensor[(144), float32], %v10_conv_2_weight: Tensor[(24, 144, 1, 1), int8], %v10_conv_2_bias: Tensor[(24), int32], %v10_conv_2_zero_x: Tensor[(1), int8], %v10_conv_2_zero_y: Tensor[(1), int8], %v10_conv_2_scale: Tensor[(24), float32], %v10_qadd_zero_x1: Tensor[(1), int8], %v10_qadd_zero_x2: Tensor[(1), int8], %v10_qadd_scale_x1: Tensor[(1), float32], %v10_qadd_scale_x2: Tensor[(1), float32], %v10_qadd_zero_y: Tensor[(1), int8], %v10_qadd_scale_y: Tensor[(1), float32], %v11_conv_0_weight: Tensor[(144, 24, 1, 1), int8], %v11_conv_0_bias: Tensor[(144), int32], %v11_conv_0_zero_x: Tensor[(1), int8], %v11_conv_0_zero_y: Tensor[(1), int8], %v11_conv_0_scale: Tensor[(144), float32], %v11_conv_1_weight: Tensor[(144, 1, 3, 3), int8], %v11_conv_1_bias: Tensor[(144), int32], %v11_conv_1_zero_x: Tensor[(1), int8], %v11_conv_1_zero_y: Tensor[(1), int8], %v11_conv_1_scale: Tensor[(144), float32], %v11_conv_2_weight: Tensor[(32, 144, 1, 1), int8], %v11_conv_2_bias: Tensor[(32), int32], %v11_conv_2_zero_x: Tensor[(1), int8], %v11_conv_2_zero_y: Tensor[(1), int8], %v11_conv_2_scale: Tensor[(32), float32], %v12_conv_0_weight: Tensor[(192, 32, 1, 1), int8], %v12_conv_0_bias: Tensor[(192), int32], %v12_conv_0_zero_x: Tensor[(1), int8], %v12_conv_0_zero_y: Tensor[(1), int8], %v12_conv_0_scale: Tensor[(192), float32], %v12_conv_1_weight: Tensor[(192, 1, 3, 3), int8], %v12_conv_1_bias: Tensor[(192), int32], %v12_conv_1_zero_x: Tensor[(1), int8], %v12_conv_1_zero_y: Tensor[(1), int8], %v12_conv_1_scale: Tensor[(192), float32], %v12_conv_2_weight: Tensor[(32, 192, 1, 1), int8], %v12_conv_2_bias: Tensor[(32), int32], %v12_conv_2_zero_x: Tensor[(1), int8], %v12_conv_2_zero_y: Tensor[(1), int8], %v12_conv_2_scale: Tensor[(32), float32], %v12_qadd_zero_x1: Tensor[(1), int8], %v12_qadd_zero_x2: Tensor[(1), int8], %v12_qadd_scale_x1: Tensor[(1), float32], %v12_qadd_scale_x2: Tensor[(1), float32], %v12_qadd_zero_y: Tensor[(1), int8], %v12_qadd_scale_y: Tensor[(1), float32], %v13_conv_0_weight: Tensor[(192, 32, 1, 1), int8], %v13_conv_0_bias: Tensor[(192), int32], %v13_conv_0_zero_x: Tensor[(1), int8], %v13_conv_0_zero_y: Tensor[(1), int8], %v13_conv_0_scale: Tensor[(192), float32], %v13_conv_1_weight: Tensor[(192, 1, 3, 3), int8], %v13_conv_1_bias: Tensor[(192), int32], %v13_conv_1_zero_x: Tensor[(1), int8], %v13_conv_1_zero_y: Tensor[(1), int8], %v13_conv_1_scale: Tensor[(192), float32], %v13_conv_2_weight: Tensor[(32, 192, 1, 1), int8], %v13_conv_2_bias: Tensor[(32), int32], %v13_conv_2_zero_x: Tensor[(1), int8], %v13_conv_2_zero_y: Tensor[(1), int8], %v13_conv_2_scale: Tensor[(32), float32], %v13_qadd_zero_x1: Tensor[(1), int8], %v13_qadd_zero_x2: Tensor[(1), int8], %v13_qadd_scale_x1: Tensor[(1), float32], %v13_qadd_scale_x2: Tensor[(1), float32], %v13_qadd_zero_y: Tensor[(1), int8], %v13_qadd_scale_y: Tensor[(1), float32], %v14_conv_0_weight: Tensor[(192, 32, 1, 1), int8], %v14_conv_0_bias: Tensor[(192), int32], %v14_conv_0_zero_x: Tensor[(1), int8], %v14_conv_0_zero_y: Tensor[(1), int8], %v14_conv_0_scale: Tensor[(192), float32], %v14_conv_1_weight: Tensor[(192, 1, 3, 3), int8], %v14_conv_1_bias: Tensor[(192), int32], %v14_conv_1_zero_x: Tensor[(1), int8], %v14_conv_1_zero_y: Tensor[(1), int8], %v14_conv_1_scale: Tensor[(192), float32], %v14_conv_2_weight: Tensor[(56, 192, 1, 1), int8], %v14_conv_2_bias: Tensor[(56), int32], %v14_conv_2_zero_x: Tensor[(1), int8], %v14_conv_2_zero_y: Tensor[(1), int8], %v14_conv_2_scale: Tensor[(56), float32], %v15_conv_0_weight: Tensor[(336, 56, 1, 1), int8], %v15_conv_0_bias: Tensor[(336), int32], %v15_conv_0_zero_x: Tensor[(1), int8], %v15_conv_0_zero_y: Tensor[(1), int8], %v15_conv_0_scale: Tensor[(336), float32], %v15_conv_1_weight: Tensor[(336, 1, 3, 3), int8], %v15_conv_1_bias: Tensor[(336), int32], %v15_conv_1_zero_x: Tensor[(1), int8], %v15_conv_1_zero_y: Tensor[(1), int8], %v15_conv_1_scale: Tensor[(336), float32], %v15_conv_2_weight: Tensor[(56, 336, 1, 1), int8], %v15_conv_2_bias: Tensor[(56), int32], %v15_conv_2_zero_x: Tensor[(1), int8], %v15_conv_2_zero_y: Tensor[(1), int8], %v15_conv_2_scale: Tensor[(56), float32], %v15_qadd_zero_x1: Tensor[(1), int8], %v15_qadd_zero_x2: Tensor[(1), int8], %v15_qadd_scale_x1: Tensor[(1), float32], %v15_qadd_scale_x2: Tensor[(1), float32], %v15_qadd_zero_y: Tensor[(1), int8], %v15_qadd_scale_y: Tensor[(1), float32], %v16_conv_0_weight: Tensor[(336, 56, 1, 1), int8], %v16_conv_0_bias: Tensor[(336), int32], %v16_conv_0_zero_x: Tensor[(1), int8], %v16_conv_0_zero_y: Tensor[(1), int8], %v16_conv_0_scale: Tensor[(336), float32], %v16_conv_1_weight: Tensor[(336, 1, 3, 3), int8], %v16_conv_1_bias: Tensor[(336), int32], %v16_conv_1_zero_x: Tensor[(1), int8], %v16_conv_1_zero_y: Tensor[(1), int8], %v16_conv_1_scale: Tensor[(336), float32], %v16_conv_2_weight: Tensor[(56, 336, 1, 1), int8], %v16_conv_2_bias: Tensor[(56), int32], %v16_conv_2_zero_x: Tensor[(1), int8], %v16_conv_2_zero_y: Tensor[(1), int8], %v16_conv_2_scale: Tensor[(56), float32], %v16_qadd_zero_x1: Tensor[(1), int8], %v16_qadd_zero_x2: Tensor[(1), int8], %v16_qadd_scale_x1: Tensor[(1), float32], %v16_qadd_scale_x2: Tensor[(1), float32], %v16_qadd_zero_y: Tensor[(1), int8], %v16_qadd_scale_y: Tensor[(1), float32], %v17_conv_0_weight: Tensor[(336, 56, 1, 1), int8], %v17_conv_0_bias: Tensor[(336), int32], %v17_conv_0_zero_x: Tensor[(1), int8], %v17_conv_0_zero_y: Tensor[(1), int8], %v17_conv_0_scale: Tensor[(336), float32], %v17_conv_1_weight: Tensor[(336, 1, 3, 3), int8], %v17_conv_1_bias: Tensor[(336), int32], %v17_conv_1_zero_x: Tensor[(1), int8], %v17_conv_1_zero_y: Tensor[(1), int8], %v17_conv_1_scale: Tensor[(336), float32], %v17_conv_2_weight: Tensor[(112, 336, 1, 1), int8], %v17_conv_2_bias: Tensor[(112), int32], %v17_conv_2_zero_x: Tensor[(1), int8], %v17_conv_2_zero_y: Tensor[(1), int8], %v17_conv_2_scale: Tensor[(112), float32], %v18_weight: Tensor[(10, 112, 1, 1), int8], %v18_bias: Tensor[(10), int32], %v18_zero_x: Tensor[(1), int8], %v18_zero_y: Tensor[(1), int8], %v18_scale: Tensor[(10), float32], %label: Tensor[(1, 10), float32]) -> (float32, Tensor[(10), int32], Tensor[(10, 112, 1, 1), int8], Tensor[(112), int32], Tensor[(336), int32], Tensor[(336), int32], Tensor[(336, 56, 1, 1), int8], Tensor[(56), int32], Tensor[(336), int32], Tensor[(336), int32], Tensor[(336, 56, 1, 1), int8], Tensor[(56), int32], Tensor[(336), int32], Tensor[(336), float32], Tensor[(336, 28, 1, 1), float32], Tensor[(56), int32], Tensor[(192), int32], Tensor[(192), int32], Tensor[(192, 32, 1, 1), int8], Tensor[(32), int32], Tensor[(192), int32], Tensor[(192), int32], Tensor[(192, 32, 1, 1), int8], Tensor[(32), int32], Tensor[(192), int32], Tensor[(192), int32], Tensor[(192, 32, 1, 1), int8], Tensor[(32), int32], Tensor[(144), int32], Tensor[(144), int32], Tensor[(144, 24, 1, 1), int8], Tensor[(24), int32], Tensor[(144), int32], Tensor[(144), int32], Tensor[(144, 24, 1, 1), int8], Tensor[(24), int32], Tensor[(144), int32], Tensor[(144), int32], Tensor[(24), int32], Tensor[(144), int32], Tensor[(144), int32], Tensor[(24), int32]) {
  %0 = nn.mcuconv2d(%input, %v0_weight, %v0_bias, %v0_zero_x, %v0_zero_y, %v0_scale, strides=[2, 2], padding=[1, 1, 1, 1]) /* ty=Tensor[(1, 16, 64, 64), int32] */;
  %1 = nn.mcutruncate(%0) /* ty=Tensor[(1, 16, 64, 64), int8] */;
  %2 = nn.mcuconv2d(%1, %v1_conv_0_weight, %v1_conv_0_bias, %v1_conv_0_zero_x, %v1_conv_0_zero_y, %v1_conv_0_scale, padding=[1, 1, 1, 1], groups=16) /* ty=Tensor[(1, 16, 64, 64), int32] */;
  %3 = nn.mcutruncate(%2) /* ty=Tensor[(1, 16, 64, 64), int8] */;
  %4 = nn.mcuconv2d(%3, %v1_conv_1_weight, %v1_conv_1_bias, %v1_conv_1_zero_x, %v1_conv_1_zero_y, %v1_conv_1_scale, padding=[0, 0, 0, 0]) /* ty=Tensor[(1, 8, 64, 64), int32] */;
  %5 = nn.mcutruncate(%4) /* ty=Tensor[(1, 8, 64, 64), int8] */;
  %6 = nn.mcuconv2d(%5, %v2_conv_0_weight, %v2_conv_0_bias, %v2_conv_0_zero_x, %v2_conv_0_zero_y, %v2_conv_0_scale, padding=[0, 0, 0, 0]) /* ty=Tensor[(1, 48, 64, 64), int32] */;
  %7 = nn.mcutruncate(%6) /* ty=Tensor[(1, 48, 64, 64), int8] */;
  %8 = nn.mcuconv2d(%7, %v2_conv_1_weight, %v2_conv_1_bias, %v2_conv_1_zero_x, %v2_conv_1_zero_y, %v2_conv_1_scale, strides=[2, 2], padding=[1, 1, 1, 1], groups=48) /* ty=Tensor[(1, 48, 32, 32), int32] */;
  %9 = nn.mcutruncate(%8) /* ty=Tensor[(1, 48, 32, 32), int8] */;
  %10 = nn.mcuconv2d(%9, %v2_conv_2_weight, %v2_conv_2_bias, %v2_conv_2_zero_x, %v2_conv_2_zero_y, %v2_conv_2_scale, padding=[0, 0, 0, 0]) /* ty=Tensor[(1, 8, 32, 32), int32] */;
  %11 = nn.mcutruncate(%10) /* ty=Tensor[(1, 8, 32, 32), int8] */;
  %12 = nn.mcuconv2d(%11, %v3_conv_0_weight, %v3_conv_0_bias, %v3_conv_0_zero_x, %v3_conv_0_zero_y, %v3_conv_0_scale, padding=[0, 0, 0, 0]) /* ty=Tensor[(1, 48, 32, 32), int32] */;
  %13 = nn.mcutruncate(%12) /* ty=Tensor[(1, 48, 32, 32), int8] */;
  %14 = nn.mcuconv2d(%13, %v3_conv_1_weight, %v3_conv_1_bias, %v3_conv_1_zero_x, %v3_conv_1_zero_y, %v3_conv_1_scale, padding=[1, 1, 1, 1], groups=48) /* ty=Tensor[(1, 48, 32, 32), int32] */;
  %15 = nn.mcutruncate(%14) /* ty=Tensor[(1, 48, 32, 32), int8] */;
  %16 = nn.mcuconv2d(%15, %v3_conv_2_weight, %v3_conv_2_bias, %v3_conv_2_zero_x, %v3_conv_2_zero_y, %v3_conv_2_scale, padding=[0, 0, 0, 0]) /* ty=Tensor[(1, 8, 32, 32), int32] */;
  %17 = nn.mcutruncate(%16) /* ty=Tensor[(1, 8, 32, 32), int8] */;
  %18 = nn.mcuadd(%11, %17, %v3_qadd_zero_x1, %v3_qadd_zero_x2, %v3_qadd_scale_x1, %v3_qadd_scale_x2, %v3_qadd_zero_y, %v3_qadd_scale_y, axis=0) /* ty=Tensor[(1, 8, 32, 32), int8] */;
  %19 = nn.mcutruncate(%18) /* ty=Tensor[(1, 8, 32, 32), int8] */;
  %20 = nn.mcuconv2d(%19, %v4_conv_0_weight, %v4_conv_0_bias, %v4_conv_0_zero_x, %v4_conv_0_zero_y, %v4_conv_0_scale, padding=[0, 0, 0, 0]) /* ty=Tensor[(1, 48, 32, 32), int32] */;
  %21 = nn.mcutruncate(%20) /* ty=Tensor[(1, 48, 32, 32), int8] */;
  %22 = nn.mcuconv2d(%21, %v4_conv_1_weight, %v4_conv_1_bias, %v4_conv_1_zero_x, %v4_conv_1_zero_y, %v4_conv_1_scale, strides=[2, 2], padding=[1, 1, 1, 1], groups=48) /* ty=Tensor[(1, 48, 16, 16), int32] */;
  %23 = nn.mcutruncate(%22) /* ty=Tensor[(1, 48, 16, 16), int8] */;
  %24 = nn.mcuconv2d(%23, %v4_conv_2_weight, %v4_conv_2_bias, %v4_conv_2_zero_x, %v4_conv_2_zero_y, %v4_conv_2_scale, padding=[0, 0, 0, 0]) /* ty=Tensor[(1, 16, 16, 16), int32] */;
  %25 = nn.mcutruncate(%24) /* ty=Tensor[(1, 16, 16, 16), int8] */;
  %26 = nn.mcuconv2d(%25, %v5_conv_0_weight, %v5_conv_0_bias, %v5_conv_0_zero_x, %v5_conv_0_zero_y, %v5_conv_0_scale, padding=[0, 0, 0, 0]) /* ty=Tensor[(1, 96, 16, 16), int32] */;
  %27 = nn.mcutruncate(%26) /* ty=Tensor[(1, 96, 16, 16), int8] */;
  %28 = nn.mcuconv2d(%27, %v5_conv_1_weight, %v5_conv_1_bias, %v5_conv_1_zero_x, %v5_conv_1_zero_y, %v5_conv_1_scale, padding=[1, 1, 1, 1], groups=96) /* ty=Tensor[(1, 96, 16, 16), int32] */;
  %29 = nn.mcutruncate(%28) /* ty=Tensor[(1, 96, 16, 16), int8] */;
  %30 = nn.mcuconv2d(%29, %v5_conv_2_weight, %v5_conv_2_bias, %v5_conv_2_zero_x, %v5_conv_2_zero_y, %v5_conv_2_scale, padding=[0, 0, 0, 0]) /* ty=Tensor[(1, 16, 16, 16), int32] */;
  %31 = nn.mcutruncate(%30) /* ty=Tensor[(1, 16, 16, 16), int8] */;
  %32 = nn.mcuadd(%25, %31, %v5_qadd_zero_x1, %v5_qadd_zero_x2, %v5_qadd_scale_x1, %v5_qadd_scale_x2, %v5_qadd_zero_y, %v5_qadd_scale_y, axis=0) /* ty=Tensor[(1, 16, 16, 16), int8] */;
  %33 = nn.mcutruncate(%32) /* ty=Tensor[(1, 16, 16, 16), int8] */;
  %34 = nn.mcuconv2d(%33, %v6_conv_0_weight, %v6_conv_0_bias, %v6_conv_0_zero_x, %v6_conv_0_zero_y, %v6_conv_0_scale, padding=[0, 0, 0, 0]) /* ty=Tensor[(1, 96, 16, 16), int32] */;
  %35 = nn.mcutruncate(%34) /* ty=Tensor[(1, 96, 16, 16), int8] */;
  %36 = nn.mcuconv2d(%35, %v6_conv_1_weight, %v6_conv_1_bias, %v6_conv_1_zero_x, %v6_conv_1_zero_y, %v6_conv_1_scale, padding=[1, 1, 1, 1], groups=96) /* ty=Tensor[(1, 96, 16, 16), int32] */;
  %37 = nn.mcutruncate(%36) /* ty=Tensor[(1, 96, 16, 16), int8] */;
  %38 = nn.mcuconv2d(%37, %v6_conv_2_weight, %v6_conv_2_bias, %v6_conv_2_zero_x, %v6_conv_2_zero_y, %v6_conv_2_scale, padding=[0, 0, 0, 0]) /* ty=Tensor[(1, 16, 16, 16), int32] */;
  %39 = nn.mcutruncate(%38) /* ty=Tensor[(1, 16, 16, 16), int8] */;
  %40 = nn.mcuadd(%33, %39, %v6_qadd_zero_x1, %v6_qadd_zero_x2, %v6_qadd_scale_x1, %v6_qadd_scale_x2, %v6_qadd_zero_y, %v6_qadd_scale_y, axis=0) /* ty=Tensor[(1, 16, 16, 16), int8] */;
  %41 = nn.mcutruncate(%40) /* ty=Tensor[(1, 16, 16, 16), int8] */;
  %42 = nn.mcuconv2d(%41, %v7_conv_0_weight, %v7_conv_0_bias, %v7_conv_0_zero_x, %v7_conv_0_zero_y, %v7_conv_0_scale, padding=[0, 0, 0, 0]) /* ty=Tensor[(1, 96, 16, 16), int32] */;
  %43 = nn.mcutruncate(%42) /* ty=Tensor[(1, 96, 16, 16), int8] */;
  %44 = nn.mcuconv2d(%43, %v7_conv_1_weight, %v7_conv_1_bias, %v7_conv_1_zero_x, %v7_conv_1_zero_y, %v7_conv_1_scale, strides=[2, 2], padding=[1, 1, 1, 1], groups=96) /* ty=Tensor[(1, 96, 8, 8), int32] */;
  %45 = nn.mcutruncate(%44) /* ty=Tensor[(1, 96, 8, 8), int8] */;
  %46 = nn.mcuconv2d(%45, %v7_conv_2_weight, %v7_conv_2_bias, %v7_conv_2_zero_x, %v7_conv_2_zero_y, %v7_conv_2_scale, padding=[0, 0, 0, 0]) /* ty=Tensor[(1, 24, 8, 8), int32] */;
  %47 = nn.mcutruncate(%46) /* ty=Tensor[(1, 24, 8, 8), int8] */;
  %48 = nn.mcuconv2d(%47, %v8_conv_0_weight, %v8_conv_0_bias, %v8_conv_0_zero_x, %v8_conv_0_zero_y, %v8_conv_0_scale, padding=[0, 0, 0, 0]) /* ty=Tensor[(1, 144, 8, 8), int32] */;
  %49 = nn.mcutruncate(%48) /* ty=Tensor[(1, 144, 8, 8), int8] */;
  %50 = nn.mcuconv2d(%49, %v8_conv_1_weight, %v8_conv_1_bias, %v8_conv_1_zero_x, %v8_conv_1_zero_y, %v8_conv_1_scale, padding=[1, 1, 1, 1], groups=144) /* ty=Tensor[(1, 144, 8, 8), int32] */;
  %51 = nn.mcutruncate(%50) /* ty=Tensor[(1, 144, 8, 8), int8] */;
  %52 = nn.mcuconv2d(%51, %v8_conv_2_weight, %v8_conv_2_bias, %v8_conv_2_zero_x, %v8_conv_2_zero_y, %v8_conv_2_scale, padding=[0, 0, 0, 0]) /* ty=Tensor[(1, 24, 8, 8), int32] */;
  %53 = nn.mcutruncate(%52) /* ty=Tensor[(1, 24, 8, 8), int8] */;
  %54 = nn.mcuadd(%47, %53, %v8_qadd_zero_x1, %v8_qadd_zero_x2, %v8_qadd_scale_x1, %v8_qadd_scale_x2, %v8_qadd_zero_y, %v8_qadd_scale_y, axis=0) /* ty=Tensor[(1, 24, 8, 8), int8] */;
  %55 = nn.mcutruncate(%54) /* ty=Tensor[(1, 24, 8, 8), int8] */;
  %56 = nn.mcuconv2d(%55, %v9_conv_0_weight, %v9_conv_0_bias, %v9_conv_0_zero_x, %v9_conv_0_zero_y, %v9_conv_0_scale, padding=[0, 0, 0, 0]) /* ty=Tensor[(1, 144, 8, 8), int32] */;
  %57 = nn.mcutruncate(%56) /* ty=Tensor[(1, 144, 8, 8), int8] */;
  %58 = nn.mcuconv2d(%57, %v9_conv_1_weight, %v9_conv_1_bias, %v9_conv_1_zero_x, %v9_conv_1_zero_y, %v9_conv_1_scale, padding=[1, 1, 1, 1], groups=144) /* ty=Tensor[(1, 144, 8, 8), int32] */;
  %59 = nn.mcutruncate(%58) /* ty=Tensor[(1, 144, 8, 8), int8] */;
  %60 = nn.mcuconv2d(%59, %v9_conv_2_weight, %v9_conv_2_bias, %v9_conv_2_zero_x, %v9_conv_2_zero_y, %v9_conv_2_scale, padding=[0, 0, 0, 0]) /* ty=Tensor[(1, 24, 8, 8), int32] */;
  %61 = nn.mcutruncate(%60) /* ty=Tensor[(1, 24, 8, 8), int8] */;
  %62 = nn.mcuadd(%55, %61, %v9_qadd_zero_x1, %v9_qadd_zero_x2, %v9_qadd_scale_x1, %v9_qadd_scale_x2, %v9_qadd_zero_y, %v9_qadd_scale_y, axis=0) /* ty=Tensor[(1, 24, 8, 8), int8] */;
  %63 = nn.mcutruncate(%62) /* ty=Tensor[(1, 24, 8, 8), int8] */;
  %64 = nn.mcuconv2d(%63, %v10_conv_0_weight, %v10_conv_0_bias, %v10_conv_0_zero_x, %v10_conv_0_zero_y, %v10_conv_0_scale, padding=[0, 0, 0, 0]) /* ty=Tensor[(1, 144, 8, 8), int32] */;
  %65 = nn.mcutruncate(%64) /* ty=Tensor[(1, 144, 8, 8), int8] */;
  %66 = nn.mcuconv2d(%65, %v10_conv_1_weight, %v10_conv_1_bias, %v10_conv_1_zero_x, %v10_conv_1_zero_y, %v10_conv_1_scale, padding=[1, 1, 1, 1], groups=144) /* ty=Tensor[(1, 144, 8, 8), int32] */;
  %67 = nn.mcutruncate(%66) /* ty=Tensor[(1, 144, 8, 8), int8] */;
  %68 = nn.mcuconv2d(%67, %v10_conv_2_weight, %v10_conv_2_bias, %v10_conv_2_zero_x, %v10_conv_2_zero_y, %v10_conv_2_scale, padding=[0, 0, 0, 0]) /* ty=Tensor[(1, 24, 8, 8), int32] */;
  %69 = nn.mcutruncate(%68) /* ty=Tensor[(1, 24, 8, 8), int8] */;
  %70 = nn.mcuadd(%63, %69, %v10_qadd_zero_x1, %v10_qadd_zero_x2, %v10_qadd_scale_x1, %v10_qadd_scale_x2, %v10_qadd_zero_y, %v10_qadd_scale_y, axis=0) /* ty=Tensor[(1, 24, 8, 8), int8] */;
  %71 = nn.mcutruncate(%70) /* ty=Tensor[(1, 24, 8, 8), int8] */;
  %72 = nn.mcuconv2d(%71, %v11_conv_0_weight, %v11_conv_0_bias, %v11_conv_0_zero_x, %v11_conv_0_zero_y, %v11_conv_0_scale, padding=[0, 0, 0, 0]) /* ty=Tensor[(1, 144, 8, 8), int32] */;
  %73 = nn.mcutruncate(%72) /* ty=Tensor[(1, 144, 8, 8), int8] */;
  %74 = nn.mcuconv2d(%73, %v11_conv_1_weight, %v11_conv_1_bias, %v11_conv_1_zero_x, %v11_conv_1_zero_y, %v11_conv_1_scale, padding=[1, 1, 1, 1], groups=144) /* ty=Tensor[(1, 144, 8, 8), int32] */;
  %75 = nn.mcutruncate(%74) /* ty=Tensor[(1, 144, 8, 8), int8] */;
  %76 = nn.mcuconv2d(%75, %v11_conv_2_weight, %v11_conv_2_bias, %v11_conv_2_zero_x, %v11_conv_2_zero_y, %v11_conv_2_scale, padding=[0, 0, 0, 0]) /* ty=Tensor[(1, 32, 8, 8), int32] */;
  %77 = nn.mcutruncate(%76) /* ty=Tensor[(1, 32, 8, 8), int8] */;
  %78 = nn.mcuconv2d(%77, %v12_conv_0_weight, %v12_conv_0_bias, %v12_conv_0_zero_x, %v12_conv_0_zero_y, %v12_conv_0_scale, padding=[0, 0, 0, 0]) /* ty=Tensor[(1, 192, 8, 8), int32] */;
  %79 = nn.mcutruncate(%78) /* ty=Tensor[(1, 192, 8, 8), int8] */;
  %80 = nn.mcuconv2d(%79, %v12_conv_1_weight, %v12_conv_1_bias, %v12_conv_1_zero_x, %v12_conv_1_zero_y, %v12_conv_1_scale, padding=[1, 1, 1, 1], groups=192) /* ty=Tensor[(1, 192, 8, 8), int32] */;
  %81 = nn.mcutruncate(%80) /* ty=Tensor[(1, 192, 8, 8), int8] */;
  %82 = nn.mcuconv2d(%81, %v12_conv_2_weight, %v12_conv_2_bias, %v12_conv_2_zero_x, %v12_conv_2_zero_y, %v12_conv_2_scale, padding=[0, 0, 0, 0]) /* ty=Tensor[(1, 32, 8, 8), int32] */;
  %83 = nn.mcutruncate(%82) /* ty=Tensor[(1, 32, 8, 8), int8] */;
  %84 = nn.mcuadd(%77, %83, %v12_qadd_zero_x1, %v12_qadd_zero_x2, %v12_qadd_scale_x1, %v12_qadd_scale_x2, %v12_qadd_zero_y, %v12_qadd_scale_y, axis=0) /* ty=Tensor[(1, 32, 8, 8), int8] */;
  %85 = nn.mcutruncate(%84) /* ty=Tensor[(1, 32, 8, 8), int8] */;
  %86 = nn.mcuconv2d(%85, %v13_conv_0_weight, %v13_conv_0_bias, %v13_conv_0_zero_x, %v13_conv_0_zero_y, %v13_conv_0_scale, padding=[0, 0, 0, 0]) /* ty=Tensor[(1, 192, 8, 8), int32] */;
  %87 = nn.mcutruncate(%86) /* ty=Tensor[(1, 192, 8, 8), int8] */;
  %88 = nn.mcuconv2d(%87, %v13_conv_1_weight, %v13_conv_1_bias, %v13_conv_1_zero_x, %v13_conv_1_zero_y, %v13_conv_1_scale, padding=[1, 1, 1, 1], groups=192) /* ty=Tensor[(1, 192, 8, 8), int32] */;
  %89 = nn.mcutruncate(%88) /* ty=Tensor[(1, 192, 8, 8), int8] */;
  %90 = nn.mcuconv2d(%89, %v13_conv_2_weight, %v13_conv_2_bias, %v13_conv_2_zero_x, %v13_conv_2_zero_y, %v13_conv_2_scale, padding=[0, 0, 0, 0]) /* ty=Tensor[(1, 32, 8, 8), int32] */;
  %91 = nn.mcutruncate(%90) /* ty=Tensor[(1, 32, 8, 8), int8] */;
  %92 = nn.mcuadd(%85, %91, %v13_qadd_zero_x1, %v13_qadd_zero_x2, %v13_qadd_scale_x1, %v13_qadd_scale_x2, %v13_qadd_zero_y, %v13_qadd_scale_y, axis=0) /* ty=Tensor[(1, 32, 8, 8), int8] */;
  %93 = nn.mcutruncate(%92) /* ty=Tensor[(1, 32, 8, 8), int8] */;
  %94 = nn.mcuconv2d(%93, %v14_conv_0_weight, %v14_conv_0_bias, %v14_conv_0_zero_x, %v14_conv_0_zero_y, %v14_conv_0_scale, padding=[0, 0, 0, 0]) /* ty=Tensor[(1, 192, 8, 8), int32] */;
  %95 = nn.mcutruncate(%94) /* ty=Tensor[(1, 192, 8, 8), int8] */;
  %96 = nn.mcuconv2d(%95, %v14_conv_1_weight, %v14_conv_1_bias, %v14_conv_1_zero_x, %v14_conv_1_zero_y, %v14_conv_1_scale, strides=[2, 2], padding=[1, 1, 1, 1], groups=192) /* ty=Tensor[(1, 192, 4, 4), int32] */;
  %97 = nn.mcutruncate(%96) /* ty=Tensor[(1, 192, 4, 4), int8] */;
  %98 = nn.mcuconv2d(%97, %v14_conv_2_weight, %v14_conv_2_bias, %v14_conv_2_zero_x, %v14_conv_2_zero_y, %v14_conv_2_scale, padding=[0, 0, 0, 0]) /* ty=Tensor[(1, 56, 4, 4), int32] */;
  %99 = nn.mcutruncate(%98) /* ty=Tensor[(1, 56, 4, 4), int8] */;
  %100 = nn.mcuconv2d(%99, %v15_conv_0_weight, %v15_conv_0_bias, %v15_conv_0_zero_x, %v15_conv_0_zero_y, %v15_conv_0_scale, padding=[0, 0, 0, 0]) /* ty=Tensor[(1, 336, 4, 4), int32] */;
  %101 = nn.mcutruncate(%100) /* ty=Tensor[(1, 336, 4, 4), int8] */;
  %102 = nn.mcuconv2d(%101, %v15_conv_1_weight, %v15_conv_1_bias, %v15_conv_1_zero_x, %v15_conv_1_zero_y, %v15_conv_1_scale, padding=[1, 1, 1, 1], groups=336) /* ty=Tensor[(1, 336, 4, 4), int32] */;
  %103 = nn.mcutruncate(%102) /* ty=Tensor[(1, 336, 4, 4), int8] */;
  %104 = nn.mcuconv2d(%103, %v15_conv_2_weight, %v15_conv_2_bias, %v15_conv_2_zero_x, %v15_conv_2_zero_y, %v15_conv_2_scale, padding=[0, 0, 0, 0]) /* ty=Tensor[(1, 56, 4, 4), int32] */;
  %105 = nn.mcutruncate(%104) /* ty=Tensor[(1, 56, 4, 4), int8] */;
  %106 = nn.mcuadd(%99, %105, %v15_qadd_zero_x1, %v15_qadd_zero_x2, %v15_qadd_scale_x1, %v15_qadd_scale_x2, %v15_qadd_zero_y, %v15_qadd_scale_y, axis=0) /* ty=Tensor[(1, 56, 4, 4), int8] */;
  %107 = nn.mcutruncate(%106) /* ty=Tensor[(1, 56, 4, 4), int8] */;
  %108 = nn.mcuconv2d(%107, %v16_conv_0_weight, %v16_conv_0_bias, %v16_conv_0_zero_x, %v16_conv_0_zero_y, %v16_conv_0_scale, padding=[0, 0, 0, 0]) /* ty=Tensor[(1, 336, 4, 4), int32] */;
  %109 = nn.mcutruncate(%108) /* ty=Tensor[(1, 336, 4, 4), int8] */;
  %110 = nn.mcuconv2d(%109, %v16_conv_1_weight, %v16_conv_1_bias, %v16_conv_1_zero_x, %v16_conv_1_zero_y, %v16_conv_1_scale, padding=[1, 1, 1, 1], groups=336) /* ty=Tensor[(1, 336, 4, 4), int32] */;
  %111 = nn.mcutruncate(%110) /* ty=Tensor[(1, 336, 4, 4), int8] */;
  %112 = nn.mcuconv2d(%111, %v16_conv_2_weight, %v16_conv_2_bias, %v16_conv_2_zero_x, %v16_conv_2_zero_y, %v16_conv_2_scale, padding=[0, 0, 0, 0]) /* ty=Tensor[(1, 56, 4, 4), int32] */;
  %113 = nn.mcutruncate(%112) /* ty=Tensor[(1, 56, 4, 4), int8] */;
  %114 = nn.mcuadd(%107, %113, %v16_qadd_zero_x1, %v16_qadd_zero_x2, %v16_qadd_scale_x1, %v16_qadd_scale_x2, %v16_qadd_zero_y, %v16_qadd_scale_y, axis=0) /* ty=Tensor[(1, 56, 4, 4), int8] */;
  %115 = nn.mcutruncate(%114) /* ty=Tensor[(1, 56, 4, 4), int8] */;
  %116 = nn.mcuconv2d(%115, %v17_conv_0_weight, %v17_conv_0_bias, %v17_conv_0_zero_x, %v17_conv_0_zero_y, %v17_conv_0_scale, padding=[0, 0, 0, 0]) /* ty=Tensor[(1, 336, 4, 4), int32] */;
  %117 = nn.mcutruncate(%116) /* ty=Tensor[(1, 336, 4, 4), int8] */;
  %118 = nn.mcuconv2d(%117, %v17_conv_1_weight, %v17_conv_1_bias, %v17_conv_1_zero_x, %v17_conv_1_zero_y, %v17_conv_1_scale, padding=[1, 1, 1, 1], groups=336) /* ty=Tensor[(1, 336, 4, 4), int32] */;
  %119 = nn.mcutruncate(%118) /* ty=Tensor[(1, 336, 4, 4), int8] */;
  %120 = nn.mcuconv2d(%119, %v17_conv_2_weight, %v17_conv_2_bias, %v17_conv_2_zero_x, %v17_conv_2_zero_y, %v17_conv_2_scale, padding=[0, 0, 0, 0]) /* ty=Tensor[(1, 112, 4, 4), int32] */;
  %121 = nn.mcutruncate(%120) /* ty=Tensor[(1, 112, 4, 4), int8] */;
  %122 = mcumean(%121, axis=[2, 3], keepdims=True) /* ty=Tensor[(1, 112, 1, 1), int8] */;
  %123 = nn.mcuconv2d(%122, %v18_weight, %v18_bias, %v18_zero_x, %v18_zero_y, %v18_scale, padding=[0, 0, 0, 0]) /* ty=Tensor[(1, 10, 1, 1), int32] */;
  %124 = nn.mcutruncate(%123) /* ty=Tensor[(1, 10, 1, 1), int8] */;
  %125 = reshape(%124, newshape=[0, 0]) /* ty=Tensor[(1, 10), int8] */;
  %126 = cast(%125, dtype="float32") /* ty=Tensor[(1, 10), float32] */;
  %127 = nn.log_softmax(%126) /* ty=Tensor[(1, 10), float32] */;
  %128 = greater_equal(%123, -128 /* ty=int32 */) /* ty=Tensor[(1, 10, 1, 1), bool] */;
  %129 = less_equal(%123, 127 /* ty=int32 */) /* ty=Tensor[(1, 10, 1, 1), bool] */;
  %130 = ones(shape=[], dtype="float32") /* ty=float32 */;
  %131 = negative(%130) /* ty=float32 */;
  %132 = multiply(%131, %label) /* ty=Tensor[(1, 10), float32] */;
  %133 = sum(%132, axis=[-1], keepdims=True) /* ty=Tensor[(1, 1), float32] */;
  %134 = exp(%127) /* ty=Tensor[(1, 10), float32] */;
  %135 = multiply(%133, %134) /* ty=Tensor[(1, 10), float32] */;
  %136 = subtract(%132, %135) /* ty=Tensor[(1, 10), float32] */;
  %137 = multiply(%128, %129) /* ty=Tensor[(1, 10, 1, 1), bool] */;
  %138 = reshape(%136, newshape=[1, 10, 1, 1]) /* ty=Tensor[(1, 10, 1, 1), float32] */;
  %139 = zeros(shape=[1, 10, 1, 1], dtype="float32") /* ty=Tensor[(1, 10, 1, 1), float32] */;
  %140 = where(%137, %138, %139) /* ty=Tensor[(1, 10, 1, 1), float32] */;
  %141 = cast(%140, dtype="int32") /* ty=Tensor[(1, 10, 1, 1), int32] */;
  %142 = reshape(%122, newshape=[1, -1, 0, 0]) /* ty=Tensor[(1, 112, 1, 1), int8] */;
  %143 = tile(%140, reps=[1, 112, 1, 1]) /* ty=Tensor[(1, 1120, 1, 1), float32] */;
  %144 = cast(%142, dtype="float32") /* ty=Tensor[(1, 112, 1, 1), float32] */;
  %145 = reshape(%143, newshape=[-1, 1, 0, 0]) /* ty=Tensor[(1120, 1, 1, 1), float32] */;
  %146 = nn.conv2d(%144, %145, padding=[0, 0, 0, 0], groups=112, out_dtype="float32") /* ty=Tensor[(1, 1120, 1, 1), float32] */;
  %147 = reshape(%146, newshape=[1, 112, 10, 1, 1]) /* ty=Tensor[(1, 112, 10, 1, 1), float32] */;
  %148 = sum(%147, axis=[0]) /* ty=Tensor[(112, 10, 1, 1), float32] */;
  %149 = transpose(%148, axes=[1, 0, 2, 3]) /* ty=Tensor[(10, 112, 1, 1), float32] */;
  %150 = abs(%149) /* ty=Tensor[(10, 112, 1, 1), float32] */;
  %151 = max(%150, axis=[1], keepdims=True) /* ty=Tensor[(10, 1, 1, 1), float32] */;
  %152 = divide(%151, 127f /* ty=float32 */) /* ty=Tensor[(10, 1, 1, 1), float32] */;
  %153 = divide(%149, %152) /* ty=Tensor[(10, 112, 1, 1), float32] */;
  %154 = greater_equal(%120, -128 /* ty=int32 */) /* ty=Tensor[(1, 112, 4, 4), bool] */;
  %155 = less_equal(%120, 127 /* ty=int32 */) /* ty=Tensor[(1, 112, 4, 4), bool] */;
  %156 = cast(%v18_weight, dtype="float32") /* ty=Tensor[(10, 112, 1, 1), float32] */;
  %157 = nn.conv2d_transpose(%140, %156, channels=112, kernel_size=[1, 1], padding=[0, 0, 0, 0], kernel_layout="IOHW", out_dtype="float32") /* ty=Tensor[(1, 112, 1, 1), float32] */;
  %158 = abs(%157) /* ty=Tensor[(1, 112, 1, 1), float32] */;
  %159 = max(%158, axis=[1], keepdims=True) /* ty=Tensor[(1, 1, 1, 1), float32] */;
  %160 = divide(%159, 127f /* ty=float32 */) /* ty=Tensor[(1, 1, 1, 1), float32] */;
  %161 = divide(%157, %160) /* ty=Tensor[(1, 112, 1, 1), float32] */;
  %162 = cast(%161, dtype="int8") /* ty=Tensor[(1, 112, 1, 1), int8] */;
  %163 = cast(%162, dtype="float32") /* ty=Tensor[(1, 112, 1, 1), float32] */;
  %164 = multiply(%163, 0.0625f /* ty=float32 */) /* ty=Tensor[(1, 112, 1, 1), float32] */;
  %165 = ones(shape=[1, 112, 4, 4], dtype="float32") /* ty=Tensor[(1, 112, 4, 4), float32] */;
  %166 = multiply(%154, %155) /* ty=Tensor[(1, 112, 4, 4), bool] */;
  %167 = multiply(%164, %165) /* ty=Tensor[(1, 112, 4, 4), float32] */;
  %168 = zeros(shape=[1, 112, 4, 4], dtype="float32") /* ty=Tensor[(1, 112, 4, 4), float32] */;
  %169 = where(%166, %167, %168) /* ty=Tensor[(1, 112, 4, 4), float32] */;
  %170 = cast(%169, dtype="int32") /* ty=Tensor[(1, 112, 4, 4), int32] */;
  %171 = greater_equal(%118, -128 /* ty=int32 */) /* ty=Tensor[(1, 336, 4, 4), bool] */;
  %172 = less_equal(%118, 127 /* ty=int32 */) /* ty=Tensor[(1, 336, 4, 4), bool] */;
  %173 = cast(%v17_conv_2_weight, dtype="float32") /* ty=Tensor[(112, 336, 1, 1), float32] */;
  %174 = nn.conv2d_transpose(%169, %173, channels=336, kernel_size=[1, 1], padding=[0, 0, 0, 0], kernel_layout="IOHW", out_dtype="float32") /* ty=Tensor[(1, 336, 4, 4), float32] */;
  %175 = abs(%174) /* ty=Tensor[(1, 336, 4, 4), float32] */;
  %176 = max(%175, axis=[1], keepdims=True) /* ty=Tensor[(1, 1, 4, 4), float32] */;
  %177 = divide(%176, 127f /* ty=float32 */) /* ty=Tensor[(1, 1, 4, 4), float32] */;
  %178 = divide(%174, %177) /* ty=Tensor[(1, 336, 4, 4), float32] */;
  %179 = multiply(%171, %172) /* ty=Tensor[(1, 336, 4, 4), bool] */;
  %180 = cast(%178, dtype="int8") /* ty=Tensor[(1, 336, 4, 4), int8] */;
  %181 = zeros(shape=[1, 336, 4, 4], dtype="int8") /* ty=Tensor[(1, 336, 4, 4), int8] */;
  %182 = where(%179, %180, %181) /* ty=Tensor[(1, 336, 4, 4), int8] */;
  %183 = cast(%182, dtype="int32") /* ty=Tensor[(1, 336, 4, 4), int32] */;
  %184 = greater_equal(%116, -128 /* ty=int32 */) /* ty=Tensor[(1, 336, 4, 4), bool] */;
  %185 = less_equal(%116, 127 /* ty=int32 */) /* ty=Tensor[(1, 336, 4, 4), bool] */;
  %186 = nn.conv2d_transpose(%182, %v17_conv_1_weight, channels=336, kernel_size=[3, 3], padding=[1, 1, 1, 1], groups=336, kernel_layout="IOHW", out_dtype="int32") /* ty=Tensor[(1, 336, 4, 4), int32] */;
  %187 = abs(%186) /* ty=Tensor[(1, 336, 4, 4), int32] */;
  %188 = max(%187, axis=[1], keepdims=True) /* ty=Tensor[(1, 1, 4, 4), int32] */;
  %189 = divide(%188, 127 /* ty=int32 */) /* ty=Tensor[(1, 1, 4, 4), int32] */;
  %190 = divide(%186, %189) /* ty=Tensor[(1, 336, 4, 4), int32] */;
  %191 = multiply(%184, %185) /* ty=Tensor[(1, 336, 4, 4), bool] */;
  %192 = cast(%190, dtype="int8") /* ty=Tensor[(1, 336, 4, 4), int8] */;
  %193 = zeros(shape=[1, 336, 4, 4], dtype="int8") /* ty=Tensor[(1, 336, 4, 4), int8] */;
  %194 = where(%191, %192, %193) /* ty=Tensor[(1, 336, 4, 4), int8] */;
  %195 = cast(%194, dtype="int32") /* ty=Tensor[(1, 336, 4, 4), int32] */;
  %196 = tile(%194, reps=[1, 56, 1, 1]) /* ty=Tensor[(1, 18816, 4, 4), int8] */;
  %197 = reshape(%115, newshape=[1, -1, 0, 0]) /* ty=Tensor[(1, 56, 4, 4), int8] */;
  %198 = reshape(%196, newshape=[-1, 1, 0, 0]) /* ty=Tensor[(18816, 1, 4, 4), int8] */;
  %199 = nn.conv2d(%197, %198, padding=[0, 0, 0, 0], groups=56, out_dtype="int32") /* ty=Tensor[(1, 18816, 1, 1), int32] */;
  %200 = reshape(%199, newshape=[1, 56, 336, 1, 1]) /* ty=Tensor[(1, 56, 336, 1, 1), int32] */;
  %201 = sum(%200, axis=[0]) /* ty=Tensor[(56, 336, 1, 1), int32] */;
  %202 = transpose(%201, axes=[1, 0, 2, 3]) /* ty=Tensor[(336, 56, 1, 1), int32] */;
  %203 = abs(%202) /* ty=Tensor[(336, 56, 1, 1), int32] */;
  %204 = max(%203, axis=[1], keepdims=True) /* ty=Tensor[(336, 1, 1, 1), int32] */;
  %205 = divide(%204, 127 /* ty=int32 */) /* ty=Tensor[(336, 1, 1, 1), int32] */;
  %206 = divide(%202, %205) /* ty=Tensor[(336, 56, 1, 1), int32] */;
  %207 = greater_equal(%112, -128 /* ty=int32 */) /* ty=Tensor[(1, 56, 4, 4), bool] */;
  %208 = less_equal(%112, 127 /* ty=int32 */) /* ty=Tensor[(1, 56, 4, 4), bool] */;
  %209 = greater_equal(%114, meta[relay.Constant][0] /* ty=int8 */) /* ty=Tensor[(1, 56, 4, 4), bool] */;
  %210 = less_equal(%114, meta[relay.Constant][1] /* ty=int8 */) /* ty=Tensor[(1, 56, 4, 4), bool] */;
  %211 = nn.conv2d_transpose(%194, %v17_conv_0_weight, channels=56, kernel_size=[1, 1], padding=[0, 0, 0, 0], kernel_layout="IOHW", out_dtype="int32") /* ty=Tensor[(1, 56, 4, 4), int32] */;
  %212 = abs(%211) /* ty=Tensor[(1, 56, 4, 4), int32] */;
  %213 = max(%212, axis=[1], keepdims=True) /* ty=Tensor[(1, 1, 4, 4), int32] */;
  %214 = divide(%213, 127 /* ty=int32 */) /* ty=Tensor[(1, 1, 4, 4), int32] */;
  %215 = divide(%211, %214) /* ty=Tensor[(1, 56, 4, 4), int32] */;
  %216 = multiply(%209, %210) /* ty=Tensor[(1, 56, 4, 4), bool] */;
  %217 = cast(%215, dtype="int8") /* ty=Tensor[(1, 56, 4, 4), int8] */;
  %218 = zeros(shape=[1, 56, 4, 4], dtype="int8") /* ty=Tensor[(1, 56, 4, 4), int8] */;
  %219 = where(%216, %217, %218) /* ty=Tensor[(1, 56, 4, 4), int8] */;
  %220 = cast(%219, dtype="float32") /* ty=Tensor[(1, 56, 4, 4), float32] */;
  %221 = reshape(%v16_qadd_scale_y, newshape=[1, -1, 1, 1]) /* ty=Tensor[(1, 1, 1, 1), float32] */;
  %222 = divide(%220, %221) /* ty=Tensor[(1, 56, 4, 4), float32] */;
  %223 = reshape(%v16_qadd_scale_x2, newshape=[1, -1, 1, 1]) /* ty=Tensor[(1, 1, 1, 1), float32] */;
  %224 = multiply(%222, %223) /* ty=Tensor[(1, 56, 4, 4), float32] */;
  %225 = multiply(%207, %208) /* ty=Tensor[(1, 56, 4, 4), bool] */;
  %226 = cast(%224, dtype="int8") /* ty=Tensor[(1, 56, 4, 4), int8] */;
  %227 = zeros(shape=[1, 56, 4, 4], dtype="int8") /* ty=Tensor[(1, 56, 4, 4), int8] */;
  %228 = where(%225, %226, %227) /* ty=Tensor[(1, 56, 4, 4), int8] */;
  %229 = cast(%228, dtype="int32") /* ty=Tensor[(1, 56, 4, 4), int32] */;
  %230 = greater_equal(%110, -128 /* ty=int32 */) /* ty=Tensor[(1, 336, 4, 4), bool] */;
  %231 = less_equal(%110, 127 /* ty=int32 */) /* ty=Tensor[(1, 336, 4, 4), bool] */;
  %232 = nn.conv2d_transpose(%228, %v16_conv_2_weight, channels=336, kernel_size=[1, 1], padding=[0, 0, 0, 0], kernel_layout="IOHW", out_dtype="int32") /* ty=Tensor[(1, 336, 4, 4), int32] */;
  %233 = abs(%232) /* ty=Tensor[(1, 336, 4, 4), int32] */;
  %234 = max(%233, axis=[1], keepdims=True) /* ty=Tensor[(1, 1, 4, 4), int32] */;
  %235 = divide(%234, 127 /* ty=int32 */) /* ty=Tensor[(1, 1, 4, 4), int32] */;
  %236 = divide(%232, %235) /* ty=Tensor[(1, 336, 4, 4), int32] */;
  %237 = multiply(%230, %231) /* ty=Tensor[(1, 336, 4, 4), bool] */;
  %238 = cast(%236, dtype="int8") /* ty=Tensor[(1, 336, 4, 4), int8] */;
  %239 = zeros(shape=[1, 336, 4, 4], dtype="int8") /* ty=Tensor[(1, 336, 4, 4), int8] */;
  %240 = where(%237, %238, %239) /* ty=Tensor[(1, 336, 4, 4), int8] */;
  %241 = cast(%240, dtype="int32") /* ty=Tensor[(1, 336, 4, 4), int32] */;
  %242 = greater_equal(%108, -128 /* ty=int32 */) /* ty=Tensor[(1, 336, 4, 4), bool] */;
  %243 = less_equal(%108, 127 /* ty=int32 */) /* ty=Tensor[(1, 336, 4, 4), bool] */;
  %244 = nn.conv2d_transpose(%240, %v16_conv_1_weight, channels=336, kernel_size=[3, 3], padding=[1, 1, 1, 1], groups=336, kernel_layout="IOHW", out_dtype="int32") /* ty=Tensor[(1, 336, 4, 4), int32] */;
  %245 = abs(%244) /* ty=Tensor[(1, 336, 4, 4), int32] */;
  %246 = max(%245, axis=[1], keepdims=True) /* ty=Tensor[(1, 1, 4, 4), int32] */;
  %247 = divide(%246, 127 /* ty=int32 */) /* ty=Tensor[(1, 1, 4, 4), int32] */;
  %248 = divide(%244, %247) /* ty=Tensor[(1, 336, 4, 4), int32] */;
  %249 = multiply(%242, %243) /* ty=Tensor[(1, 336, 4, 4), bool] */;
  %250 = cast(%248, dtype="int8") /* ty=Tensor[(1, 336, 4, 4), int8] */;
  %251 = zeros(shape=[1, 336, 4, 4], dtype="int8") /* ty=Tensor[(1, 336, 4, 4), int8] */;
  %252 = where(%249, %250, %251) /* ty=Tensor[(1, 336, 4, 4), int8] */;
  %253 = cast(%252, dtype="int32") /* ty=Tensor[(1, 336, 4, 4), int32] */;
  %254 = tile(%252, reps=[1, 56, 1, 1]) /* ty=Tensor[(1, 18816, 4, 4), int8] */;
  %255 = reshape(%107, newshape=[1, -1, 0, 0]) /* ty=Tensor[(1, 56, 4, 4), int8] */;
  %256 = reshape(%254, newshape=[-1, 1, 0, 0]) /* ty=Tensor[(18816, 1, 4, 4), int8] */;
  %257 = nn.conv2d(%255, %256, padding=[0, 0, 0, 0], groups=56, out_dtype="int32") /* ty=Tensor[(1, 18816, 1, 1), int32] */;
  %258 = reshape(%257, newshape=[1, 56, 336, 1, 1]) /* ty=Tensor[(1, 56, 336, 1, 1), int32] */;
  %259 = sum(%258, axis=[0]) /* ty=Tensor[(56, 336, 1, 1), int32] */;
  %260 = transpose(%259, axes=[1, 0, 2, 3]) /* ty=Tensor[(336, 56, 1, 1), int32] */;
  %261 = abs(%260) /* ty=Tensor[(336, 56, 1, 1), int32] */;
  %262 = max(%261, axis=[1], keepdims=True) /* ty=Tensor[(336, 1, 1, 1), int32] */;
  %263 = divide(%262, 127 /* ty=int32 */) /* ty=Tensor[(336, 1, 1, 1), int32] */;
  %264 = divide(%260, %263) /* ty=Tensor[(336, 56, 1, 1), int32] */;
  %265 = greater_equal(%104, -128 /* ty=int32 */) /* ty=Tensor[(1, 56, 4, 4), bool] */;
  %266 = less_equal(%104, 127 /* ty=int32 */) /* ty=Tensor[(1, 56, 4, 4), bool] */;
  %267 = greater_equal(%106, meta[relay.Constant][2] /* ty=int8 */) /* ty=Tensor[(1, 56, 4, 4), bool] */;
  %268 = less_equal(%106, meta[relay.Constant][3] /* ty=int8 */) /* ty=Tensor[(1, 56, 4, 4), bool] */;
  %269 = nn.conv2d_transpose(%252, %v16_conv_0_weight, channels=56, kernel_size=[1, 1], padding=[0, 0, 0, 0], kernel_layout="IOHW", out_dtype="int32") /* ty=Tensor[(1, 56, 4, 4), int32] */;
  %270 = abs(%269) /* ty=Tensor[(1, 56, 4, 4), int32] */;
  %271 = max(%270, axis=[1], keepdims=True) /* ty=Tensor[(1, 1, 4, 4), int32] */;
  %272 = divide(%271, 127 /* ty=int32 */) /* ty=Tensor[(1, 1, 4, 4), int32] */;
  %273 = divide(%269, %272) /* ty=Tensor[(1, 56, 4, 4), int32] */;
  %274 = multiply(%267, %268) /* ty=Tensor[(1, 56, 4, 4), bool] */;
  %275 = cast(%273, dtype="int8") /* ty=Tensor[(1, 56, 4, 4), int8] */;
  %276 = zeros(shape=[1, 56, 4, 4], dtype="int8") /* ty=Tensor[(1, 56, 4, 4), int8] */;
  %277 = where(%274, %275, %276) /* ty=Tensor[(1, 56, 4, 4), int8] */;
  %278 = cast(%277, dtype="float32") /* ty=Tensor[(1, 56, 4, 4), float32] */;
  %279 = reshape(%v15_qadd_scale_y, newshape=[1, -1, 1, 1]) /* ty=Tensor[(1, 1, 1, 1), float32] */;
  %280 = divide(%278, %279) /* ty=Tensor[(1, 56, 4, 4), float32] */;
  %281 = reshape(%v15_qadd_scale_x2, newshape=[1, -1, 1, 1]) /* ty=Tensor[(1, 1, 1, 1), float32] */;
  %282 = multiply(%280, %281) /* ty=Tensor[(1, 56, 4, 4), float32] */;
  %283 = multiply(%265, %266) /* ty=Tensor[(1, 56, 4, 4), bool] */;
  %284 = cast(%282, dtype="int8") /* ty=Tensor[(1, 56, 4, 4), int8] */;
  %285 = zeros(shape=[1, 56, 4, 4], dtype="int8") /* ty=Tensor[(1, 56, 4, 4), int8] */;
  %286 = where(%283, %284, %285) /* ty=Tensor[(1, 56, 4, 4), int8] */;
  %287 = cast(%286, dtype="int32") /* ty=Tensor[(1, 56, 4, 4), int32] */;
  %288 = greater_equal(%102, -128 /* ty=int32 */) /* ty=Tensor[(1, 336, 4, 4), bool] */;
  %289 = less_equal(%102, 127 /* ty=int32 */) /* ty=Tensor[(1, 336, 4, 4), bool] */;
  %290 = nn.conv2d_transpose(%286, %v15_conv_2_weight, channels=336, kernel_size=[1, 1], padding=[0, 0, 0, 0], kernel_layout="IOHW", out_dtype="int32") /* ty=Tensor[(1, 336, 4, 4), int32] */;
  %291 = abs(%290) /* ty=Tensor[(1, 336, 4, 4), int32] */;
  %292 = max(%291, axis=[1], keepdims=True) /* ty=Tensor[(1, 1, 4, 4), int32] */;
  %293 = divide(%292, 127 /* ty=int32 */) /* ty=Tensor[(1, 1, 4, 4), int32] */;
  %294 = divide(%290, %293) /* ty=Tensor[(1, 336, 4, 4), int32] */;
  %295 = multiply(%288, %289) /* ty=Tensor[(1, 336, 4, 4), bool] */;
  %296 = cast(%294, dtype="int8") /* ty=Tensor[(1, 336, 4, 4), int8] */;
  %297 = zeros(shape=[1, 336, 4, 4], dtype="int8") /* ty=Tensor[(1, 336, 4, 4), int8] */;
  %298 = where(%295, %296, %297) /* ty=Tensor[(1, 336, 4, 4), int8] */;
  %299 = cast(%298, dtype="int32") /* ty=Tensor[(1, 336, 4, 4), int32] */;
  %300 = greater_equal(%100, -128 /* ty=int32 */) /* ty=Tensor[(1, 336, 4, 4), bool] */;
  %301 = less_equal(%100, 127 /* ty=int32 */) /* ty=Tensor[(1, 336, 4, 4), bool] */;
  %302 = nn.conv2d_transpose(%298, %v15_conv_1_weight, channels=336, kernel_size=[3, 3], padding=[1, 1, 1, 1], groups=336, kernel_layout="IOHW", out_dtype="int32") /* ty=Tensor[(1, 336, 4, 4), int32] */;
  %303 = abs(%302) /* ty=Tensor[(1, 336, 4, 4), int32] */;
  %304 = max(%303, axis=[1], keepdims=True) /* ty=Tensor[(1, 1, 4, 4), int32] */;
  %305 = divide(%304, 127 /* ty=int32 */) /* ty=Tensor[(1, 1, 4, 4), int32] */;
  %306 = divide(%302, %305) /* ty=Tensor[(1, 336, 4, 4), int32] */;
  %307 = multiply(%300, %301) /* ty=Tensor[(1, 336, 4, 4), bool] */;
  %308 = cast(%306, dtype="int8") /* ty=Tensor[(1, 336, 4, 4), int8] */;
  %309 = zeros(shape=[1, 336, 4, 4], dtype="int8") /* ty=Tensor[(1, 336, 4, 4), int8] */;
  %310 = where(%307, %308, %309) /* ty=Tensor[(1, 336, 4, 4), int8] */;
  %311 = cast(%310, dtype="float32") /* ty=Tensor[(1, 336, 4, 4), float32] */;
  %312 = reshape(%v15_conv_0_scale, newshape=[1, -1, 1, 1]) /* ty=Tensor[(1, 336, 1, 1), float32] */;
  %313 = multiply(%311, %312) /* ty=Tensor[(1, 336, 4, 4), float32] */;
  %314 = cast(%99, dtype="float32") /* ty=Tensor[(1, 56, 4, 4), float32] */;
  %315 = strided_slice(%314, begin=[0, 0, 0, 0], end=[1, 28, 4, 4], strides=[1], axes=None) /* ty=Tensor[(1, 28, 4, 4), float32] */;
  %316 = tile(%313, reps=[1, 28, 1, 1]) /* ty=Tensor[(1, 9408, 4, 4), float32] */;
  %317 = reshape(%315, newshape=[1, -1, 0, 0]) /* ty=Tensor[(1, 28, 4, 4), float32] */;
  %318 = reshape(%316, newshape=[-1, 1, 0, 0]) /* ty=Tensor[(9408, 1, 4, 4), float32] */;
  %319 = nn.conv2d(%317, %318, padding=[0, 0, 0, 0], groups=28) /* ty=Tensor[(1, 9408, 1, 1), float32] */;
  %320 = reshape(%319, newshape=[1, 28, 336, 1, 1]) /* ty=Tensor[(1, 28, 336, 1, 1), float32] */;
  %321 = sum(%320, axis=[0]) /* ty=Tensor[(28, 336, 1, 1), float32] */;
  %322 = greater_equal(%98, -128 /* ty=int32 */) /* ty=Tensor[(1, 56, 4, 4), bool] */;
  %323 = less_equal(%98, 127 /* ty=int32 */) /* ty=Tensor[(1, 56, 4, 4), bool] */;
  %324 = cast(%v15_conv_0_weight, dtype="float32") /* ty=Tensor[(336, 56, 1, 1), float32] */;
  %325 = multiply(%322, %323) /* ty=Tensor[(1, 56, 4, 4), bool] */;
  %326 = nn.conv2d_transpose(%313, %324, channels=56, kernel_size=[1, 1], padding=[0, 0, 0, 0], kernel_layout="IOHW") /* ty=Tensor[(1, 56, 4, 4), float32] */;
  %327 = zeros(shape=[1, 56, 4, 4], dtype="float32") /* ty=Tensor[(1, 56, 4, 4), float32] */;
  %328 = where(%325, %326, %327) /* ty=Tensor[(1, 56, 4, 4), float32] */;
  %329 = cast(%328, dtype="int32") /* ty=Tensor[(1, 56, 4, 4), int32] */;
  %330 = greater_equal(%96, -128 /* ty=int32 */) /* ty=Tensor[(1, 192, 4, 4), bool] */;
  %331 = less_equal(%96, 127 /* ty=int32 */) /* ty=Tensor[(1, 192, 4, 4), bool] */;
  %332 = cast(%v14_conv_2_weight, dtype="float32") /* ty=Tensor[(56, 192, 1, 1), float32] */;
  %333 = nn.conv2d_transpose(%328, %332, channels=192, kernel_size=[1, 1], padding=[0, 0, 0, 0], kernel_layout="IOHW", out_dtype="float32") /* ty=Tensor[(1, 192, 4, 4), float32] */;
  %334 = abs(%333) /* ty=Tensor[(1, 192, 4, 4), float32] */;
  %335 = max(%334, axis=[1], keepdims=True) /* ty=Tensor[(1, 1, 4, 4), float32] */;
  %336 = divide(%335, 127f /* ty=float32 */) /* ty=Tensor[(1, 1, 4, 4), float32] */;
  %337 = divide(%333, %336) /* ty=Tensor[(1, 192, 4, 4), float32] */;
  %338 = multiply(%330, %331) /* ty=Tensor[(1, 192, 4, 4), bool] */;
  %339 = cast(%337, dtype="int8") /* ty=Tensor[(1, 192, 4, 4), int8] */;
  %340 = zeros(shape=[1, 192, 4, 4], dtype="int8") /* ty=Tensor[(1, 192, 4, 4), int8] */;
  %341 = where(%338, %339, %340) /* ty=Tensor[(1, 192, 4, 4), int8] */;
  %342 = cast(%341, dtype="int32") /* ty=Tensor[(1, 192, 4, 4), int32] */;
  %343 = greater_equal(%94, -128 /* ty=int32 */) /* ty=Tensor[(1, 192, 8, 8), bool] */;
  %344 = less_equal(%94, 127 /* ty=int32 */) /* ty=Tensor[(1, 192, 8, 8), bool] */;
  %345 = nn.conv2d_transpose(%341, %v14_conv_1_weight, channels=192, kernel_size=[3, 3], strides=[2, 2], output_padding=[1, 1], padding=[1, 1, 1, 1], groups=192, kernel_layout="IOHW", out_dtype="int32") /* ty=Tensor[(1, 192, 8, 8), int32] */;
  %346 = abs(%345) /* ty=Tensor[(1, 192, 8, 8), int32] */;
  %347 = max(%346, axis=[1], keepdims=True) /* ty=Tensor[(1, 1, 8, 8), int32] */;
  %348 = divide(%347, 127 /* ty=int32 */) /* ty=Tensor[(1, 1, 8, 8), int32] */;
  %349 = divide(%345, %348) /* ty=Tensor[(1, 192, 8, 8), int32] */;
  %350 = multiply(%343, %344) /* ty=Tensor[(1, 192, 8, 8), bool] */;
  %351 = cast(%349, dtype="int8") /* ty=Tensor[(1, 192, 8, 8), int8] */;
  %352 = zeros(shape=[1, 192, 8, 8], dtype="int8") /* ty=Tensor[(1, 192, 8, 8), int8] */;
  %353 = where(%350, %351, %352) /* ty=Tensor[(1, 192, 8, 8), int8] */;
  %354 = cast(%353, dtype="int32") /* ty=Tensor[(1, 192, 8, 8), int32] */;
  %355 = tile(%353, reps=[1, 32, 1, 1]) /* ty=Tensor[(1, 6144, 8, 8), int8] */;
  %356 = reshape(%93, newshape=[1, -1, 0, 0]) /* ty=Tensor[(1, 32, 8, 8), int8] */;
  %357 = reshape(%355, newshape=[-1, 1, 0, 0]) /* ty=Tensor[(6144, 1, 8, 8), int8] */;
  %358 = nn.conv2d(%356, %357, padding=[0, 0, 0, 0], groups=32, out_dtype="int32") /* ty=Tensor[(1, 6144, 1, 1), int32] */;
  %359 = reshape(%358, newshape=[1, 32, 192, 1, 1]) /* ty=Tensor[(1, 32, 192, 1, 1), int32] */;
  %360 = sum(%359, axis=[0]) /* ty=Tensor[(32, 192, 1, 1), int32] */;
  %361 = transpose(%360, axes=[1, 0, 2, 3]) /* ty=Tensor[(192, 32, 1, 1), int32] */;
  %362 = abs(%361) /* ty=Tensor[(192, 32, 1, 1), int32] */;
  %363 = max(%362, axis=[1], keepdims=True) /* ty=Tensor[(192, 1, 1, 1), int32] */;
  %364 = divide(%363, 127 /* ty=int32 */) /* ty=Tensor[(192, 1, 1, 1), int32] */;
  %365 = divide(%361, %364) /* ty=Tensor[(192, 32, 1, 1), int32] */;
  %366 = greater_equal(%90, -128 /* ty=int32 */) /* ty=Tensor[(1, 32, 8, 8), bool] */;
  %367 = less_equal(%90, 127 /* ty=int32 */) /* ty=Tensor[(1, 32, 8, 8), bool] */;
  %368 = greater_equal(%92, meta[relay.Constant][4] /* ty=int8 */) /* ty=Tensor[(1, 32, 8, 8), bool] */;
  %369 = less_equal(%92, meta[relay.Constant][5] /* ty=int8 */) /* ty=Tensor[(1, 32, 8, 8), bool] */;
  %370 = nn.conv2d_transpose(%353, %v14_conv_0_weight, channels=32, kernel_size=[1, 1], padding=[0, 0, 0, 0], kernel_layout="IOHW", out_dtype="int32") /* ty=Tensor[(1, 32, 8, 8), int32] */;
  %371 = abs(%370) /* ty=Tensor[(1, 32, 8, 8), int32] */;
  %372 = max(%371, axis=[1], keepdims=True) /* ty=Tensor[(1, 1, 8, 8), int32] */;
  %373 = divide(%372, 127 /* ty=int32 */) /* ty=Tensor[(1, 1, 8, 8), int32] */;
  %374 = divide(%370, %373) /* ty=Tensor[(1, 32, 8, 8), int32] */;
  %375 = multiply(%368, %369) /* ty=Tensor[(1, 32, 8, 8), bool] */;
  %376 = cast(%374, dtype="int8") /* ty=Tensor[(1, 32, 8, 8), int8] */;
  %377 = zeros(shape=[1, 32, 8, 8], dtype="int8") /* ty=Tensor[(1, 32, 8, 8), int8] */;
  %378 = where(%375, %376, %377) /* ty=Tensor[(1, 32, 8, 8), int8] */;
  %379 = cast(%378, dtype="float32") /* ty=Tensor[(1, 32, 8, 8), float32] */;
  %380 = reshape(%v13_qadd_scale_y, newshape=[1, -1, 1, 1]) /* ty=Tensor[(1, 1, 1, 1), float32] */;
  %381 = divide(%379, %380) /* ty=Tensor[(1, 32, 8, 8), float32] */;
  %382 = reshape(%v13_qadd_scale_x2, newshape=[1, -1, 1, 1]) /* ty=Tensor[(1, 1, 1, 1), float32] */;
  %383 = multiply(%381, %382) /* ty=Tensor[(1, 32, 8, 8), float32] */;
  %384 = multiply(%366, %367) /* ty=Tensor[(1, 32, 8, 8), bool] */;
  %385 = cast(%383, dtype="int8") /* ty=Tensor[(1, 32, 8, 8), int8] */;
  %386 = zeros(shape=[1, 32, 8, 8], dtype="int8") /* ty=Tensor[(1, 32, 8, 8), int8] */;
  %387 = where(%384, %385, %386) /* ty=Tensor[(1, 32, 8, 8), int8] */;
  %388 = cast(%387, dtype="int32") /* ty=Tensor[(1, 32, 8, 8), int32] */;
  %389 = greater_equal(%88, -128 /* ty=int32 */) /* ty=Tensor[(1, 192, 8, 8), bool] */;
  %390 = less_equal(%88, 127 /* ty=int32 */) /* ty=Tensor[(1, 192, 8, 8), bool] */;
  %391 = nn.conv2d_transpose(%387, %v13_conv_2_weight, channels=192, kernel_size=[1, 1], padding=[0, 0, 0, 0], kernel_layout="IOHW", out_dtype="int32") /* ty=Tensor[(1, 192, 8, 8), int32] */;
  %392 = abs(%391) /* ty=Tensor[(1, 192, 8, 8), int32] */;
  %393 = max(%392, axis=[1], keepdims=True) /* ty=Tensor[(1, 1, 8, 8), int32] */;
  %394 = divide(%393, 127 /* ty=int32 */) /* ty=Tensor[(1, 1, 8, 8), int32] */;
  %395 = divide(%391, %394) /* ty=Tensor[(1, 192, 8, 8), int32] */;
  %396 = multiply(%389, %390) /* ty=Tensor[(1, 192, 8, 8), bool] */;
  %397 = cast(%395, dtype="int8") /* ty=Tensor[(1, 192, 8, 8), int8] */;
  %398 = zeros(shape=[1, 192, 8, 8], dtype="int8") /* ty=Tensor[(1, 192, 8, 8), int8] */;
  %399 = where(%396, %397, %398) /* ty=Tensor[(1, 192, 8, 8), int8] */;
  %400 = cast(%399, dtype="int32") /* ty=Tensor[(1, 192, 8, 8), int32] */;
  %401 = greater_equal(%86, -128 /* ty=int32 */) /* ty=Tensor[(1, 192, 8, 8), bool] */;
  %402 = less_equal(%86, 127 /* ty=int32 */) /* ty=Tensor[(1, 192, 8, 8), bool] */;
  %403 = nn.conv2d_transpose(%399, %v13_conv_1_weight, channels=192, kernel_size=[3, 3], padding=[1, 1, 1, 1], groups=192, kernel_layout="IOHW", out_dtype="int32") /* ty=Tensor[(1, 192, 8, 8), int32] */;
  %404 = abs(%403) /* ty=Tensor[(1, 192, 8, 8), int32] */;
  %405 = max(%404, axis=[1], keepdims=True) /* ty=Tensor[(1, 1, 8, 8), int32] */;
  %406 = divide(%405, 127 /* ty=int32 */) /* ty=Tensor[(1, 1, 8, 8), int32] */;
  %407 = divide(%403, %406) /* ty=Tensor[(1, 192, 8, 8), int32] */;
  %408 = multiply(%401, %402) /* ty=Tensor[(1, 192, 8, 8), bool] */;
  %409 = cast(%407, dtype="int8") /* ty=Tensor[(1, 192, 8, 8), int8] */;
  %410 = zeros(shape=[1, 192, 8, 8], dtype="int8") /* ty=Tensor[(1, 192, 8, 8), int8] */;
  %411 = where(%408, %409, %410) /* ty=Tensor[(1, 192, 8, 8), int8] */;
  %412 = cast(%411, dtype="int32") /* ty=Tensor[(1, 192, 8, 8), int32] */;
  %413 = tile(%411, reps=[1, 32, 1, 1]) /* ty=Tensor[(1, 6144, 8, 8), int8] */;
  %414 = reshape(%85, newshape=[1, -1, 0, 0]) /* ty=Tensor[(1, 32, 8, 8), int8] */;
  %415 = reshape(%413, newshape=[-1, 1, 0, 0]) /* ty=Tensor[(6144, 1, 8, 8), int8] */;
  %416 = nn.conv2d(%414, %415, padding=[0, 0, 0, 0], groups=32, out_dtype="int32") /* ty=Tensor[(1, 6144, 1, 1), int32] */;
  %417 = reshape(%416, newshape=[1, 32, 192, 1, 1]) /* ty=Tensor[(1, 32, 192, 1, 1), int32] */;
  %418 = sum(%417, axis=[0]) /* ty=Tensor[(32, 192, 1, 1), int32] */;
  %419 = transpose(%418, axes=[1, 0, 2, 3]) /* ty=Tensor[(192, 32, 1, 1), int32] */;
  %420 = abs(%419) /* ty=Tensor[(192, 32, 1, 1), int32] */;
  %421 = max(%420, axis=[1], keepdims=True) /* ty=Tensor[(192, 1, 1, 1), int32] */;
  %422 = divide(%421, 127 /* ty=int32 */) /* ty=Tensor[(192, 1, 1, 1), int32] */;
  %423 = divide(%419, %422) /* ty=Tensor[(192, 32, 1, 1), int32] */;
  %424 = greater_equal(%82, -128 /* ty=int32 */) /* ty=Tensor[(1, 32, 8, 8), bool] */;
  %425 = less_equal(%82, 127 /* ty=int32 */) /* ty=Tensor[(1, 32, 8, 8), bool] */;
  %426 = greater_equal(%84, meta[relay.Constant][6] /* ty=int8 */) /* ty=Tensor[(1, 32, 8, 8), bool] */;
  %427 = less_equal(%84, meta[relay.Constant][7] /* ty=int8 */) /* ty=Tensor[(1, 32, 8, 8), bool] */;
  %428 = nn.conv2d_transpose(%411, %v13_conv_0_weight, channels=32, kernel_size=[1, 1], padding=[0, 0, 0, 0], kernel_layout="IOHW", out_dtype="int32") /* ty=Tensor[(1, 32, 8, 8), int32] */;
  %429 = abs(%428) /* ty=Tensor[(1, 32, 8, 8), int32] */;
  %430 = max(%429, axis=[1], keepdims=True) /* ty=Tensor[(1, 1, 8, 8), int32] */;
  %431 = divide(%430, 127 /* ty=int32 */) /* ty=Tensor[(1, 1, 8, 8), int32] */;
  %432 = divide(%428, %431) /* ty=Tensor[(1, 32, 8, 8), int32] */;
  %433 = multiply(%426, %427) /* ty=Tensor[(1, 32, 8, 8), bool] */;
  %434 = cast(%432, dtype="int8") /* ty=Tensor[(1, 32, 8, 8), int8] */;
  %435 = zeros(shape=[1, 32, 8, 8], dtype="int8") /* ty=Tensor[(1, 32, 8, 8), int8] */;
  %436 = where(%433, %434, %435) /* ty=Tensor[(1, 32, 8, 8), int8] */;
  %437 = cast(%436, dtype="float32") /* ty=Tensor[(1, 32, 8, 8), float32] */;
  %438 = reshape(%v12_qadd_scale_y, newshape=[1, -1, 1, 1]) /* ty=Tensor[(1, 1, 1, 1), float32] */;
  %439 = divide(%437, %438) /* ty=Tensor[(1, 32, 8, 8), float32] */;
  %440 = reshape(%v12_qadd_scale_x2, newshape=[1, -1, 1, 1]) /* ty=Tensor[(1, 1, 1, 1), float32] */;
  %441 = multiply(%439, %440) /* ty=Tensor[(1, 32, 8, 8), float32] */;
  %442 = multiply(%424, %425) /* ty=Tensor[(1, 32, 8, 8), bool] */;
  %443 = cast(%441, dtype="int8") /* ty=Tensor[(1, 32, 8, 8), int8] */;
  %444 = zeros(shape=[1, 32, 8, 8], dtype="int8") /* ty=Tensor[(1, 32, 8, 8), int8] */;
  %445 = where(%442, %443, %444) /* ty=Tensor[(1, 32, 8, 8), int8] */;
  %446 = cast(%445, dtype="int32") /* ty=Tensor[(1, 32, 8, 8), int32] */;
  %447 = greater_equal(%80, -128 /* ty=int32 */) /* ty=Tensor[(1, 192, 8, 8), bool] */;
  %448 = less_equal(%80, 127 /* ty=int32 */) /* ty=Tensor[(1, 192, 8, 8), bool] */;
  %449 = nn.conv2d_transpose(%445, %v12_conv_2_weight, channels=192, kernel_size=[1, 1], padding=[0, 0, 0, 0], kernel_layout="IOHW", out_dtype="int32") /* ty=Tensor[(1, 192, 8, 8), int32] */;
  %450 = abs(%449) /* ty=Tensor[(1, 192, 8, 8), int32] */;
  %451 = max(%450, axis=[1], keepdims=True) /* ty=Tensor[(1, 1, 8, 8), int32] */;
  %452 = divide(%451, 127 /* ty=int32 */) /* ty=Tensor[(1, 1, 8, 8), int32] */;
  %453 = divide(%449, %452) /* ty=Tensor[(1, 192, 8, 8), int32] */;
  %454 = multiply(%447, %448) /* ty=Tensor[(1, 192, 8, 8), bool] */;
  %455 = cast(%453, dtype="int8") /* ty=Tensor[(1, 192, 8, 8), int8] */;
  %456 = zeros(shape=[1, 192, 8, 8], dtype="int8") /* ty=Tensor[(1, 192, 8, 8), int8] */;
  %457 = where(%454, %455, %456) /* ty=Tensor[(1, 192, 8, 8), int8] */;
  %458 = cast(%457, dtype="int32") /* ty=Tensor[(1, 192, 8, 8), int32] */;
  %459 = greater_equal(%78, -128 /* ty=int32 */) /* ty=Tensor[(1, 192, 8, 8), bool] */;
  %460 = less_equal(%78, 127 /* ty=int32 */) /* ty=Tensor[(1, 192, 8, 8), bool] */;
  %461 = nn.conv2d_transpose(%457, %v12_conv_1_weight, channels=192, kernel_size=[3, 3], padding=[1, 1, 1, 1], groups=192, kernel_layout="IOHW", out_dtype="int32") /* ty=Tensor[(1, 192, 8, 8), int32] */;
  %462 = abs(%461) /* ty=Tensor[(1, 192, 8, 8), int32] */;
  %463 = max(%462, axis=[1], keepdims=True) /* ty=Tensor[(1, 1, 8, 8), int32] */;
  %464 = divide(%463, 127 /* ty=int32 */) /* ty=Tensor[(1, 1, 8, 8), int32] */;
  %465 = divide(%461, %464) /* ty=Tensor[(1, 192, 8, 8), int32] */;
  %466 = multiply(%459, %460) /* ty=Tensor[(1, 192, 8, 8), bool] */;
  %467 = cast(%465, dtype="int8") /* ty=Tensor[(1, 192, 8, 8), int8] */;
  %468 = zeros(shape=[1, 192, 8, 8], dtype="int8") /* ty=Tensor[(1, 192, 8, 8), int8] */;
  %469 = where(%466, %467, %468) /* ty=Tensor[(1, 192, 8, 8), int8] */;
  %470 = cast(%469, dtype="int32") /* ty=Tensor[(1, 192, 8, 8), int32] */;
  %471 = tile(%469, reps=[1, 32, 1, 1]) /* ty=Tensor[(1, 6144, 8, 8), int8] */;
  %472 = reshape(%77, newshape=[1, -1, 0, 0]) /* ty=Tensor[(1, 32, 8, 8), int8] */;
  %473 = reshape(%471, newshape=[-1, 1, 0, 0]) /* ty=Tensor[(6144, 1, 8, 8), int8] */;
  %474 = nn.conv2d(%472, %473, padding=[0, 0, 0, 0], groups=32, out_dtype="int32") /* ty=Tensor[(1, 6144, 1, 1), int32] */;
  %475 = reshape(%474, newshape=[1, 32, 192, 1, 1]) /* ty=Tensor[(1, 32, 192, 1, 1), int32] */;
  %476 = sum(%475, axis=[0]) /* ty=Tensor[(32, 192, 1, 1), int32] */;
  %477 = transpose(%476, axes=[1, 0, 2, 3]) /* ty=Tensor[(192, 32, 1, 1), int32] */;
  %478 = abs(%477) /* ty=Tensor[(192, 32, 1, 1), int32] */;
  %479 = max(%478, axis=[1], keepdims=True) /* ty=Tensor[(192, 1, 1, 1), int32] */;
  %480 = divide(%479, 127 /* ty=int32 */) /* ty=Tensor[(192, 1, 1, 1), int32] */;
  %481 = divide(%477, %480) /* ty=Tensor[(192, 32, 1, 1), int32] */;
  %482 = greater_equal(%76, -128 /* ty=int32 */) /* ty=Tensor[(1, 32, 8, 8), bool] */;
  %483 = less_equal(%76, 127 /* ty=int32 */) /* ty=Tensor[(1, 32, 8, 8), bool] */;
  %484 = nn.conv2d_transpose(%469, %v12_conv_0_weight, channels=32, kernel_size=[1, 1], padding=[0, 0, 0, 0], kernel_layout="IOHW", out_dtype="int32") /* ty=Tensor[(1, 32, 8, 8), int32] */;
  %485 = abs(%484) /* ty=Tensor[(1, 32, 8, 8), int32] */;
  %486 = max(%485, axis=[1], keepdims=True) /* ty=Tensor[(1, 1, 8, 8), int32] */;
  %487 = divide(%486, 127 /* ty=int32 */) /* ty=Tensor[(1, 1, 8, 8), int32] */;
  %488 = divide(%484, %487) /* ty=Tensor[(1, 32, 8, 8), int32] */;
  %489 = multiply(%482, %483) /* ty=Tensor[(1, 32, 8, 8), bool] */;
  %490 = cast(%488, dtype="int8") /* ty=Tensor[(1, 32, 8, 8), int8] */;
  %491 = zeros(shape=[1, 32, 8, 8], dtype="int8") /* ty=Tensor[(1, 32, 8, 8), int8] */;
  %492 = where(%489, %490, %491) /* ty=Tensor[(1, 32, 8, 8), int8] */;
  %493 = cast(%492, dtype="int32") /* ty=Tensor[(1, 32, 8, 8), int32] */;
  %494 = greater_equal(%74, -128 /* ty=int32 */) /* ty=Tensor[(1, 144, 8, 8), bool] */;
  %495 = less_equal(%74, 127 /* ty=int32 */) /* ty=Tensor[(1, 144, 8, 8), bool] */;
  %496 = nn.conv2d_transpose(%492, %v11_conv_2_weight, channels=144, kernel_size=[1, 1], padding=[0, 0, 0, 0], kernel_layout="IOHW", out_dtype="int32") /* ty=Tensor[(1, 144, 8, 8), int32] */;
  %497 = abs(%496) /* ty=Tensor[(1, 144, 8, 8), int32] */;
  %498 = max(%497, axis=[1], keepdims=True) /* ty=Tensor[(1, 1, 8, 8), int32] */;
  %499 = divide(%498, 127 /* ty=int32 */) /* ty=Tensor[(1, 1, 8, 8), int32] */;
  %500 = divide(%496, %499) /* ty=Tensor[(1, 144, 8, 8), int32] */;
  %501 = multiply(%494, %495) /* ty=Tensor[(1, 144, 8, 8), bool] */;
  %502 = cast(%500, dtype="int8") /* ty=Tensor[(1, 144, 8, 8), int8] */;
  %503 = zeros(shape=[1, 144, 8, 8], dtype="int8") /* ty=Tensor[(1, 144, 8, 8), int8] */;
  %504 = where(%501, %502, %503) /* ty=Tensor[(1, 144, 8, 8), int8] */;
  %505 = cast(%504, dtype="int32") /* ty=Tensor[(1, 144, 8, 8), int32] */;
  %506 = greater_equal(%72, -128 /* ty=int32 */) /* ty=Tensor[(1, 144, 8, 8), bool] */;
  %507 = less_equal(%72, 127 /* ty=int32 */) /* ty=Tensor[(1, 144, 8, 8), bool] */;
  %508 = nn.conv2d_transpose(%504, %v11_conv_1_weight, channels=144, kernel_size=[3, 3], padding=[1, 1, 1, 1], groups=144, kernel_layout="IOHW", out_dtype="int32") /* ty=Tensor[(1, 144, 8, 8), int32] */;
  %509 = abs(%508) /* ty=Tensor[(1, 144, 8, 8), int32] */;
  %510 = max(%509, axis=[1], keepdims=True) /* ty=Tensor[(1, 1, 8, 8), int32] */;
  %511 = divide(%510, 127 /* ty=int32 */) /* ty=Tensor[(1, 1, 8, 8), int32] */;
  %512 = divide(%508, %511) /* ty=Tensor[(1, 144, 8, 8), int32] */;
  %513 = multiply(%506, %507) /* ty=Tensor[(1, 144, 8, 8), bool] */;
  %514 = cast(%512, dtype="int8") /* ty=Tensor[(1, 144, 8, 8), int8] */;
  %515 = zeros(shape=[1, 144, 8, 8], dtype="int8") /* ty=Tensor[(1, 144, 8, 8), int8] */;
  %516 = where(%513, %514, %515) /* ty=Tensor[(1, 144, 8, 8), int8] */;
  %517 = cast(%516, dtype="int32") /* ty=Tensor[(1, 144, 8, 8), int32] */;
  %518 = tile(%516, reps=[1, 24, 1, 1]) /* ty=Tensor[(1, 3456, 8, 8), int8] */;
  %519 = reshape(%71, newshape=[1, -1, 0, 0]) /* ty=Tensor[(1, 24, 8, 8), int8] */;
  %520 = reshape(%518, newshape=[-1, 1, 0, 0]) /* ty=Tensor[(3456, 1, 8, 8), int8] */;
  %521 = nn.conv2d(%519, %520, padding=[0, 0, 0, 0], groups=24, out_dtype="int32") /* ty=Tensor[(1, 3456, 1, 1), int32] */;
  %522 = reshape(%521, newshape=[1, 24, 144, 1, 1]) /* ty=Tensor[(1, 24, 144, 1, 1), int32] */;
  %523 = sum(%522, axis=[0]) /* ty=Tensor[(24, 144, 1, 1), int32] */;
  %524 = transpose(%523, axes=[1, 0, 2, 3]) /* ty=Tensor[(144, 24, 1, 1), int32] */;
  %525 = abs(%524) /* ty=Tensor[(144, 24, 1, 1), int32] */;
  %526 = max(%525, axis=[1], keepdims=True) /* ty=Tensor[(144, 1, 1, 1), int32] */;
  %527 = divide(%526, 127 /* ty=int32 */) /* ty=Tensor[(144, 1, 1, 1), int32] */;
  %528 = divide(%524, %527) /* ty=Tensor[(144, 24, 1, 1), int32] */;
  %529 = greater_equal(%68, -128 /* ty=int32 */) /* ty=Tensor[(1, 24, 8, 8), bool] */;
  %530 = less_equal(%68, 127 /* ty=int32 */) /* ty=Tensor[(1, 24, 8, 8), bool] */;
  %531 = greater_equal(%70, meta[relay.Constant][8] /* ty=int8 */) /* ty=Tensor[(1, 24, 8, 8), bool] */;
  %532 = less_equal(%70, meta[relay.Constant][9] /* ty=int8 */) /* ty=Tensor[(1, 24, 8, 8), bool] */;
  %533 = nn.conv2d_transpose(%516, %v11_conv_0_weight, channels=24, kernel_size=[1, 1], padding=[0, 0, 0, 0], kernel_layout="IOHW", out_dtype="int32") /* ty=Tensor[(1, 24, 8, 8), int32] */;
  %534 = abs(%533) /* ty=Tensor[(1, 24, 8, 8), int32] */;
  %535 = max(%534, axis=[1], keepdims=True) /* ty=Tensor[(1, 1, 8, 8), int32] */;
  %536 = divide(%535, 127 /* ty=int32 */) /* ty=Tensor[(1, 1, 8, 8), int32] */;
  %537 = divide(%533, %536) /* ty=Tensor[(1, 24, 8, 8), int32] */;
  %538 = multiply(%531, %532) /* ty=Tensor[(1, 24, 8, 8), bool] */;
  %539 = cast(%537, dtype="int8") /* ty=Tensor[(1, 24, 8, 8), int8] */;
  %540 = zeros(shape=[1, 24, 8, 8], dtype="int8") /* ty=Tensor[(1, 24, 8, 8), int8] */;
  %541 = where(%538, %539, %540) /* ty=Tensor[(1, 24, 8, 8), int8] */;
  %542 = cast(%541, dtype="float32") /* ty=Tensor[(1, 24, 8, 8), float32] */;
  %543 = reshape(%v10_qadd_scale_y, newshape=[1, -1, 1, 1]) /* ty=Tensor[(1, 1, 1, 1), float32] */;
  %544 = divide(%542, %543) /* ty=Tensor[(1, 24, 8, 8), float32] */;
  %545 = reshape(%v10_qadd_scale_x2, newshape=[1, -1, 1, 1]) /* ty=Tensor[(1, 1, 1, 1), float32] */;
  %546 = multiply(%544, %545) /* ty=Tensor[(1, 24, 8, 8), float32] */;
  %547 = multiply(%529, %530) /* ty=Tensor[(1, 24, 8, 8), bool] */;
  %548 = cast(%546, dtype="int8") /* ty=Tensor[(1, 24, 8, 8), int8] */;
  %549 = zeros(shape=[1, 24, 8, 8], dtype="int8") /* ty=Tensor[(1, 24, 8, 8), int8] */;
  %550 = where(%547, %548, %549) /* ty=Tensor[(1, 24, 8, 8), int8] */;
  %551 = cast(%550, dtype="int32") /* ty=Tensor[(1, 24, 8, 8), int32] */;
  %552 = greater_equal(%66, -128 /* ty=int32 */) /* ty=Tensor[(1, 144, 8, 8), bool] */;
  %553 = less_equal(%66, 127 /* ty=int32 */) /* ty=Tensor[(1, 144, 8, 8), bool] */;
  %554 = nn.conv2d_transpose(%550, %v10_conv_2_weight, channels=144, kernel_size=[1, 1], padding=[0, 0, 0, 0], kernel_layout="IOHW", out_dtype="int32") /* ty=Tensor[(1, 144, 8, 8), int32] */;
  %555 = abs(%554) /* ty=Tensor[(1, 144, 8, 8), int32] */;
  %556 = max(%555, axis=[1], keepdims=True) /* ty=Tensor[(1, 1, 8, 8), int32] */;
  %557 = divide(%556, 127 /* ty=int32 */) /* ty=Tensor[(1, 1, 8, 8), int32] */;
  %558 = divide(%554, %557) /* ty=Tensor[(1, 144, 8, 8), int32] */;
  %559 = multiply(%552, %553) /* ty=Tensor[(1, 144, 8, 8), bool] */;
  %560 = cast(%558, dtype="int8") /* ty=Tensor[(1, 144, 8, 8), int8] */;
  %561 = zeros(shape=[1, 144, 8, 8], dtype="int8") /* ty=Tensor[(1, 144, 8, 8), int8] */;
  %562 = where(%559, %560, %561) /* ty=Tensor[(1, 144, 8, 8), int8] */;
  %563 = cast(%562, dtype="int32") /* ty=Tensor[(1, 144, 8, 8), int32] */;
  %564 = greater_equal(%64, -128 /* ty=int32 */) /* ty=Tensor[(1, 144, 8, 8), bool] */;
  %565 = less_equal(%64, 127 /* ty=int32 */) /* ty=Tensor[(1, 144, 8, 8), bool] */;
  %566 = nn.conv2d_transpose(%562, %v10_conv_1_weight, channels=144, kernel_size=[3, 3], padding=[1, 1, 1, 1], groups=144, kernel_layout="IOHW", out_dtype="int32") /* ty=Tensor[(1, 144, 8, 8), int32] */;
  %567 = abs(%566) /* ty=Tensor[(1, 144, 8, 8), int32] */;
  %568 = max(%567, axis=[1], keepdims=True) /* ty=Tensor[(1, 1, 8, 8), int32] */;
  %569 = divide(%568, 127 /* ty=int32 */) /* ty=Tensor[(1, 1, 8, 8), int32] */;
  %570 = divide(%566, %569) /* ty=Tensor[(1, 144, 8, 8), int32] */;
  %571 = multiply(%564, %565) /* ty=Tensor[(1, 144, 8, 8), bool] */;
  %572 = cast(%570, dtype="int8") /* ty=Tensor[(1, 144, 8, 8), int8] */;
  %573 = zeros(shape=[1, 144, 8, 8], dtype="int8") /* ty=Tensor[(1, 144, 8, 8), int8] */;
  %574 = where(%571, %572, %573) /* ty=Tensor[(1, 144, 8, 8), int8] */;
  %575 = cast(%574, dtype="int32") /* ty=Tensor[(1, 144, 8, 8), int32] */;
  %576 = tile(%574, reps=[1, 24, 1, 1]) /* ty=Tensor[(1, 3456, 8, 8), int8] */;
  %577 = reshape(%63, newshape=[1, -1, 0, 0]) /* ty=Tensor[(1, 24, 8, 8), int8] */;
  %578 = reshape(%576, newshape=[-1, 1, 0, 0]) /* ty=Tensor[(3456, 1, 8, 8), int8] */;
  %579 = nn.conv2d(%577, %578, padding=[0, 0, 0, 0], groups=24, out_dtype="int32") /* ty=Tensor[(1, 3456, 1, 1), int32] */;
  %580 = reshape(%579, newshape=[1, 24, 144, 1, 1]) /* ty=Tensor[(1, 24, 144, 1, 1), int32] */;
  %581 = sum(%580, axis=[0]) /* ty=Tensor[(24, 144, 1, 1), int32] */;
  %582 = transpose(%581, axes=[1, 0, 2, 3]) /* ty=Tensor[(144, 24, 1, 1), int32] */;
  %583 = abs(%582) /* ty=Tensor[(144, 24, 1, 1), int32] */;
  %584 = max(%583, axis=[1], keepdims=True) /* ty=Tensor[(144, 1, 1, 1), int32] */;
  %585 = divide(%584, 127 /* ty=int32 */) /* ty=Tensor[(144, 1, 1, 1), int32] */;
  %586 = divide(%582, %585) /* ty=Tensor[(144, 24, 1, 1), int32] */;
  %587 = greater_equal(%60, -128 /* ty=int32 */) /* ty=Tensor[(1, 24, 8, 8), bool] */;
  %588 = less_equal(%60, 127 /* ty=int32 */) /* ty=Tensor[(1, 24, 8, 8), bool] */;
  %589 = greater_equal(%62, meta[relay.Constant][10] /* ty=int8 */) /* ty=Tensor[(1, 24, 8, 8), bool] */;
  %590 = less_equal(%62, meta[relay.Constant][11] /* ty=int8 */) /* ty=Tensor[(1, 24, 8, 8), bool] */;
  %591 = nn.conv2d_transpose(%574, %v10_conv_0_weight, channels=24, kernel_size=[1, 1], padding=[0, 0, 0, 0], kernel_layout="IOHW", out_dtype="int32") /* ty=Tensor[(1, 24, 8, 8), int32] */;
  %592 = abs(%591) /* ty=Tensor[(1, 24, 8, 8), int32] */;
  %593 = max(%592, axis=[1], keepdims=True) /* ty=Tensor[(1, 1, 8, 8), int32] */;
  %594 = divide(%593, 127 /* ty=int32 */) /* ty=Tensor[(1, 1, 8, 8), int32] */;
  %595 = divide(%591, %594) /* ty=Tensor[(1, 24, 8, 8), int32] */;
  %596 = multiply(%589, %590) /* ty=Tensor[(1, 24, 8, 8), bool] */;
  %597 = cast(%595, dtype="int8") /* ty=Tensor[(1, 24, 8, 8), int8] */;
  %598 = zeros(shape=[1, 24, 8, 8], dtype="int8") /* ty=Tensor[(1, 24, 8, 8), int8] */;
  %599 = where(%596, %597, %598) /* ty=Tensor[(1, 24, 8, 8), int8] */;
  %600 = cast(%599, dtype="float32") /* ty=Tensor[(1, 24, 8, 8), float32] */;
  %601 = reshape(%v9_qadd_scale_y, newshape=[1, -1, 1, 1]) /* ty=Tensor[(1, 1, 1, 1), float32] */;
  %602 = divide(%600, %601) /* ty=Tensor[(1, 24, 8, 8), float32] */;
  %603 = reshape(%v9_qadd_scale_x2, newshape=[1, -1, 1, 1]) /* ty=Tensor[(1, 1, 1, 1), float32] */;
  %604 = multiply(%602, %603) /* ty=Tensor[(1, 24, 8, 8), float32] */;
  %605 = multiply(%587, %588) /* ty=Tensor[(1, 24, 8, 8), bool] */;
  %606 = cast(%604, dtype="int8") /* ty=Tensor[(1, 24, 8, 8), int8] */;
  %607 = zeros(shape=[1, 24, 8, 8], dtype="int8") /* ty=Tensor[(1, 24, 8, 8), int8] */;
  %608 = where(%605, %606, %607) /* ty=Tensor[(1, 24, 8, 8), int8] */;
  %609 = cast(%608, dtype="int32") /* ty=Tensor[(1, 24, 8, 8), int32] */;
  %610 = greater_equal(%58, -128 /* ty=int32 */) /* ty=Tensor[(1, 144, 8, 8), bool] */;
  %611 = less_equal(%58, 127 /* ty=int32 */) /* ty=Tensor[(1, 144, 8, 8), bool] */;
  %612 = nn.conv2d_transpose(%608, %v9_conv_2_weight, channels=144, kernel_size=[1, 1], padding=[0, 0, 0, 0], kernel_layout="IOHW", out_dtype="int32") /* ty=Tensor[(1, 144, 8, 8), int32] */;
  %613 = abs(%612) /* ty=Tensor[(1, 144, 8, 8), int32] */;
  %614 = max(%613, axis=[1], keepdims=True) /* ty=Tensor[(1, 1, 8, 8), int32] */;
  %615 = divide(%614, 127 /* ty=int32 */) /* ty=Tensor[(1, 1, 8, 8), int32] */;
  %616 = divide(%612, %615) /* ty=Tensor[(1, 144, 8, 8), int32] */;
  %617 = multiply(%610, %611) /* ty=Tensor[(1, 144, 8, 8), bool] */;
  %618 = cast(%616, dtype="int8") /* ty=Tensor[(1, 144, 8, 8), int8] */;
  %619 = zeros(shape=[1, 144, 8, 8], dtype="int8") /* ty=Tensor[(1, 144, 8, 8), int8] */;
  %620 = where(%617, %618, %619) /* ty=Tensor[(1, 144, 8, 8), int8] */;
  %621 = cast(%620, dtype="int32") /* ty=Tensor[(1, 144, 8, 8), int32] */;
  %622 = greater_equal(%56, -128 /* ty=int32 */) /* ty=Tensor[(1, 144, 8, 8), bool] */;
  %623 = less_equal(%56, 127 /* ty=int32 */) /* ty=Tensor[(1, 144, 8, 8), bool] */;
  %624 = nn.conv2d_transpose(%620, %v9_conv_1_weight, channels=144, kernel_size=[3, 3], padding=[1, 1, 1, 1], groups=144, kernel_layout="IOHW", out_dtype="int32") /* ty=Tensor[(1, 144, 8, 8), int32] */;
  %625 = abs(%624) /* ty=Tensor[(1, 144, 8, 8), int32] */;
  %626 = max(%625, axis=[1], keepdims=True) /* ty=Tensor[(1, 1, 8, 8), int32] */;
  %627 = divide(%626, 127 /* ty=int32 */) /* ty=Tensor[(1, 1, 8, 8), int32] */;
  %628 = divide(%624, %627) /* ty=Tensor[(1, 144, 8, 8), int32] */;
  %629 = multiply(%622, %623) /* ty=Tensor[(1, 144, 8, 8), bool] */;
  %630 = cast(%628, dtype="int8") /* ty=Tensor[(1, 144, 8, 8), int8] */;
  %631 = zeros(shape=[1, 144, 8, 8], dtype="int8") /* ty=Tensor[(1, 144, 8, 8), int8] */;
  %632 = where(%629, %630, %631) /* ty=Tensor[(1, 144, 8, 8), int8] */;
  %633 = cast(%632, dtype="int32") /* ty=Tensor[(1, 144, 8, 8), int32] */;
  %634 = greater_equal(%52, -128 /* ty=int32 */) /* ty=Tensor[(1, 24, 8, 8), bool] */;
  %635 = less_equal(%52, 127 /* ty=int32 */) /* ty=Tensor[(1, 24, 8, 8), bool] */;
  %636 = greater_equal(%54, meta[relay.Constant][12] /* ty=int8 */) /* ty=Tensor[(1, 24, 8, 8), bool] */;
  %637 = less_equal(%54, meta[relay.Constant][13] /* ty=int8 */) /* ty=Tensor[(1, 24, 8, 8), bool] */;
  %638 = nn.conv2d_transpose(%632, %v9_conv_0_weight, channels=24, kernel_size=[1, 1], padding=[0, 0, 0, 0], kernel_layout="IOHW", out_dtype="int32") /* ty=Tensor[(1, 24, 8, 8), int32] */;
  %639 = abs(%638) /* ty=Tensor[(1, 24, 8, 8), int32] */;
  %640 = max(%639, axis=[1], keepdims=True) /* ty=Tensor[(1, 1, 8, 8), int32] */;
  %641 = divide(%640, 127 /* ty=int32 */) /* ty=Tensor[(1, 1, 8, 8), int32] */;
  %642 = divide(%638, %641) /* ty=Tensor[(1, 24, 8, 8), int32] */;
  %643 = multiply(%636, %637) /* ty=Tensor[(1, 24, 8, 8), bool] */;
  %644 = cast(%642, dtype="int8") /* ty=Tensor[(1, 24, 8, 8), int8] */;
  %645 = zeros(shape=[1, 24, 8, 8], dtype="int8") /* ty=Tensor[(1, 24, 8, 8), int8] */;
  %646 = where(%643, %644, %645) /* ty=Tensor[(1, 24, 8, 8), int8] */;
  %647 = cast(%646, dtype="float32") /* ty=Tensor[(1, 24, 8, 8), float32] */;
  %648 = reshape(%v8_qadd_scale_y, newshape=[1, -1, 1, 1]) /* ty=Tensor[(1, 1, 1, 1), float32] */;
  %649 = divide(%647, %648) /* ty=Tensor[(1, 24, 8, 8), float32] */;
  %650 = reshape(%v8_qadd_scale_x2, newshape=[1, -1, 1, 1]) /* ty=Tensor[(1, 1, 1, 1), float32] */;
  %651 = multiply(%649, %650) /* ty=Tensor[(1, 24, 8, 8), float32] */;
  %652 = multiply(%634, %635) /* ty=Tensor[(1, 24, 8, 8), bool] */;
  %653 = cast(%651, dtype="int8") /* ty=Tensor[(1, 24, 8, 8), int8] */;
  %654 = zeros(shape=[1, 24, 8, 8], dtype="int8") /* ty=Tensor[(1, 24, 8, 8), int8] */;
  %655 = where(%652, %653, %654) /* ty=Tensor[(1, 24, 8, 8), int8] */;
  %656 = cast(%655, dtype="int32") /* ty=Tensor[(1, 24, 8, 8), int32] */;
  %657 = greater_equal(%50, -128 /* ty=int32 */) /* ty=Tensor[(1, 144, 8, 8), bool] */;
  %658 = less_equal(%50, 127 /* ty=int32 */) /* ty=Tensor[(1, 144, 8, 8), bool] */;
  %659 = nn.conv2d_transpose(%655, %v8_conv_2_weight, channels=144, kernel_size=[1, 1], padding=[0, 0, 0, 0], kernel_layout="IOHW", out_dtype="int32") /* ty=Tensor[(1, 144, 8, 8), int32] */;
  %660 = abs(%659) /* ty=Tensor[(1, 144, 8, 8), int32] */;
  %661 = max(%660, axis=[1], keepdims=True) /* ty=Tensor[(1, 1, 8, 8), int32] */;
  %662 = divide(%661, 127 /* ty=int32 */) /* ty=Tensor[(1, 1, 8, 8), int32] */;
  %663 = divide(%659, %662) /* ty=Tensor[(1, 144, 8, 8), int32] */;
  %664 = multiply(%657, %658) /* ty=Tensor[(1, 144, 8, 8), bool] */;
  %665 = cast(%663, dtype="int8") /* ty=Tensor[(1, 144, 8, 8), int8] */;
  %666 = zeros(shape=[1, 144, 8, 8], dtype="int8") /* ty=Tensor[(1, 144, 8, 8), int8] */;
  %667 = where(%664, %665, %666) /* ty=Tensor[(1, 144, 8, 8), int8] */;
  %668 = cast(%667, dtype="int32") /* ty=Tensor[(1, 144, 8, 8), int32] */;
  %669 = greater_equal(%48, -128 /* ty=int32 */) /* ty=Tensor[(1, 144, 8, 8), bool] */;
  %670 = less_equal(%48, 127 /* ty=int32 */) /* ty=Tensor[(1, 144, 8, 8), bool] */;
  %671 = nn.conv2d_transpose(%667, %v8_conv_1_weight, channels=144, kernel_size=[3, 3], padding=[1, 1, 1, 1], groups=144, kernel_layout="IOHW", out_dtype="int32") /* ty=Tensor[(1, 144, 8, 8), int32] */;
  %672 = abs(%671) /* ty=Tensor[(1, 144, 8, 8), int32] */;
  %673 = max(%672, axis=[1], keepdims=True) /* ty=Tensor[(1, 1, 8, 8), int32] */;
  %674 = divide(%673, 127 /* ty=int32 */) /* ty=Tensor[(1, 1, 8, 8), int32] */;
  %675 = divide(%671, %674) /* ty=Tensor[(1, 144, 8, 8), int32] */;
  %676 = multiply(%669, %670) /* ty=Tensor[(1, 144, 8, 8), bool] */;
  %677 = cast(%675, dtype="int8") /* ty=Tensor[(1, 144, 8, 8), int8] */;
  %678 = zeros(shape=[1, 144, 8, 8], dtype="int8") /* ty=Tensor[(1, 144, 8, 8), int8] */;
  %679 = where(%676, %677, %678) /* ty=Tensor[(1, 144, 8, 8), int8] */;
  %680 = cast(%679, dtype="int32") /* ty=Tensor[(1, 144, 8, 8), int32] */;
  %681 = greater_equal(%46, -128 /* ty=int32 */) /* ty=Tensor[(1, 24, 8, 8), bool] */;
  %682 = less_equal(%46, 127 /* ty=int32 */) /* ty=Tensor[(1, 24, 8, 8), bool] */;
  %683 = nn.conv2d_transpose(%679, %v8_conv_0_weight, channels=24, kernel_size=[1, 1], padding=[0, 0, 0, 0], kernel_layout="IOHW", out_dtype="int32") /* ty=Tensor[(1, 24, 8, 8), int32] */;
  %684 = abs(%683) /* ty=Tensor[(1, 24, 8, 8), int32] */;
  %685 = max(%684, axis=[1], keepdims=True) /* ty=Tensor[(1, 1, 8, 8), int32] */;
  %686 = divide(%685, 127 /* ty=int32 */) /* ty=Tensor[(1, 1, 8, 8), int32] */;
  %687 = divide(%683, %686) /* ty=Tensor[(1, 24, 8, 8), int32] */;
  %688 = multiply(%681, %682) /* ty=Tensor[(1, 24, 8, 8), bool] */;
  %689 = cast(%687, dtype="int8") /* ty=Tensor[(1, 24, 8, 8), int8] */;
  %690 = zeros(shape=[1, 24, 8, 8], dtype="int8") /* ty=Tensor[(1, 24, 8, 8), int8] */;
  %691 = where(%688, %689, %690) /* ty=Tensor[(1, 24, 8, 8), int8] */;
  %692 = cast(%691, dtype="int32") /* ty=Tensor[(1, 24, 8, 8), int32] */;
  %693 = nn.cross_entropy_with_logits(%127, %label) /* ty=float32 */;
  %694 = sum(%141, axis=[1], exclude=True) /* ty=Tensor[(10), int32] */;
  %695 = cast(%153, dtype="int8") /* ty=Tensor[(10, 112, 1, 1), int8] */;
  %696 = sum(%170, axis=[1], exclude=True) /* ty=Tensor[(112), int32] */;
  %697 = sum(%183, axis=[1], exclude=True) /* ty=Tensor[(336), int32] */;
  %698 = sum(%195, axis=[1], exclude=True) /* ty=Tensor[(336), int32] */;
  %699 = cast(%206, dtype="int8") /* ty=Tensor[(336, 56, 1, 1), int8] */;
  %700 = sum(%229, axis=[1], exclude=True) /* ty=Tensor[(56), int32] */;
  %701 = sum(%241, axis=[1], exclude=True) /* ty=Tensor[(336), int32] */;
  %702 = sum(%253, axis=[1], exclude=True) /* ty=Tensor[(336), int32] */;
  %703 = cast(%264, dtype="int8") /* ty=Tensor[(336, 56, 1, 1), int8] */;
  %704 = sum(%287, axis=[1], exclude=True) /* ty=Tensor[(56), int32] */;
  %705 = sum(%299, axis=[1], exclude=True) /* ty=Tensor[(336), int32] */;
  %706 = sum(%313, axis=[1], exclude=True) /* ty=Tensor[(336), float32] */;
  %707 = transpose(%321, axes=[1, 0, 2, 3]) /* ty=Tensor[(336, 28, 1, 1), float32] */;
  %708 = sum(%329, axis=[1], exclude=True) /* ty=Tensor[(56), int32] */;
  %709 = sum(%342, axis=[1], exclude=True) /* ty=Tensor[(192), int32] */;
  %710 = sum(%354, axis=[1], exclude=True) /* ty=Tensor[(192), int32] */;
  %711 = cast(%365, dtype="int8") /* ty=Tensor[(192, 32, 1, 1), int8] */;
  %712 = sum(%388, axis=[1], exclude=True) /* ty=Tensor[(32), int32] */;
  %713 = sum(%400, axis=[1], exclude=True) /* ty=Tensor[(192), int32] */;
  %714 = sum(%412, axis=[1], exclude=True) /* ty=Tensor[(192), int32] */;
  %715 = cast(%423, dtype="int8") /* ty=Tensor[(192, 32, 1, 1), int8] */;
  %716 = sum(%446, axis=[1], exclude=True) /* ty=Tensor[(32), int32] */;
  %717 = sum(%458, axis=[1], exclude=True) /* ty=Tensor[(192), int32] */;
  %718 = sum(%470, axis=[1], exclude=True) /* ty=Tensor[(192), int32] */;
  %719 = cast(%481, dtype="int8") /* ty=Tensor[(192, 32, 1, 1), int8] */;
  %720 = sum(%493, axis=[1], exclude=True) /* ty=Tensor[(32), int32] */;
  %721 = sum(%505, axis=[1], exclude=True) /* ty=Tensor[(144), int32] */;
  %722 = sum(%517, axis=[1], exclude=True) /* ty=Tensor[(144), int32] */;
  %723 = cast(%528, dtype="int8") /* ty=Tensor[(144, 24, 1, 1), int8] */;
  %724 = sum(%551, axis=[1], exclude=True) /* ty=Tensor[(24), int32] */;
  %725 = sum(%563, axis=[1], exclude=True) /* ty=Tensor[(144), int32] */;
  %726 = sum(%575, axis=[1], exclude=True) /* ty=Tensor[(144), int32] */;
  %727 = cast(%586, dtype="int8") /* ty=Tensor[(144, 24, 1, 1), int8] */;
  %728 = sum(%609, axis=[1], exclude=True) /* ty=Tensor[(24), int32] */;
  %729 = sum(%621, axis=[1], exclude=True) /* ty=Tensor[(144), int32] */;
  %730 = sum(%633, axis=[1], exclude=True) /* ty=Tensor[(144), int32] */;
  %731 = sum(%656, axis=[1], exclude=True) /* ty=Tensor[(24), int32] */;
  %732 = sum(%668, axis=[1], exclude=True) /* ty=Tensor[(144), int32] */;
  %733 = sum(%680, axis=[1], exclude=True) /* ty=Tensor[(144), int32] */;
  %734 = sum(%692, axis=[1], exclude=True) /* ty=Tensor[(24), int32] */;
  (%693, %694, %695, %696, %697, %698, %699, %700, %701, %702, %703, %704, %705, %706, %707, %708, %709, %710, %711, %712, %713, %714, %715, %716, %717, %718, %719, %720, %721, %722, %723, %724, %725, %726, %727, %728, %729, %730, %731, %732, %733, %734)
}

